model_checkpoint.pth (torch, 308058 bytes, 36 tensors)

raycast_branch.0.weight f4 [16, 1, 3]
00000000: a88a 0000 6589 0000 5eac 0080 05ac e03f
00000010: 43a6 fabe 1818 cd3e fb8d 0080 e188 0080
00000020: 958a 0080 f888 0000 6389 0080 d88a 0080
00000030: fc38 8e3f 9188 263f 9baa 09bc c489 0080
00000040: 0989 0080 bc8a 0080 ddaa 2ebf d50b 90be
00000050: 381c 11bf e00a d9bd 9c13 b7bf d757 e43e
00000060: 728a 0080 298a 0080 0989 0080 b18a 0080
00000070: e589 0080 bc8a 0080 9caa 0080 1189 0080
00000080: 1489 0080 7d8a 0080 e18a 0000 838a 0080
00000090: d30b 9f3b 7145 e93d 4a4b e3be f68a 0080
000000a0: a2a9 0080 2489 0080 b08a 0080 7e89 0080
000000b0: 6489 0080 b671 12bf 876e 9f3f 3669 e1bd
4.974e-41 4.9288e-41 -6.1834e-41 1.7552496 -0.48954973 0.40057445 -5.0933e-41 -4.9103e-41
-4.9714e-41 4.9135e-41 -4.9285e-41 -4.9808e-41 1.111114 0.65052134 -0.008402492 -4.9421e-41
-4.9159e-41 -4.9769e-41 -0.68229467 -0.28134027 -0.56683683 -0.10597777 -1.4302859 0.44598266
-4.9665e-41 -4.9563e-41 -4.9159e-41 -4.9753e-41 -4.9467e-41 -4.9769e-41 -6.1203e-41 -4.917e-41
-4.9174e-41 -4.968e-41 4.982e-41 -4.9689e-41 0.0048537045 0.11390198 -0.44393378 -4.985e-41
-6.0853e-41 -4.9197e-41 -4.9752e-41 -4.9323e-41 -4.9286e-41 -0.5720476 1.2455605 -0.110063955

raycast_branch.0.bias f4 [16]
00000000: be88 0080 bb44 68bf bb88 0080 f488 0080
00000010: 3fd0 81bf 3789 0080 664c 813f 3fe6 2f3f
00000020: ca88 0080 b789 0080 9f8d 0080 f288 0080
00000030: 9241 433e 5b89 0000 de89 0080 de9d 73be
-4.9054e-41 -0.90729874 -4.905e-41 -4.913e-41 -1.0141677 -4.9223e-41 1.010144 0.687107
-4.907e-41 -4.9403e-41 -5.0804e-41 -4.9127e-41 0.19067982 4.9274e-41 -4.9457e-41 -0.2379069

raycast_branch.3.weight f4 [32, 16, 3]
00000000: cfa8 0000 2e9c 0000 2e9c 0000 399c 0532
00000010: 4a66 b4b7 b023 8538 69af 0080 e38c 0000
00000020: e398 0000 bc96 0080 12a2 0080 32a7 0080
00000030: f091 b837 a088 0538 3819 ec38 1d8a 0080
00000040: 798a 0000 a79c 0000 db3b 0ab9 f232 95b9
00000050: 3682 f6b8 fa27 b7b6 0e5e c3b6 f2b9 80b6
00000060: f3ae 0080 c8a5 0080 e1a5 0080 c48a 0000
00000070: e299 0000 5c9c 0000 a489 0080 1689 0080
00000080: f688 0080 b18e 0000 bf91 0000 cc8b 0000
00000090: e750 919e a4b8 cab5 0eb2 adb5 01a1 0080
000000a0: cb8e 0080 cd9b 0000 9589 0000 1289 0000
000000b0: e289 0000 d3fd e9b8 5de9 e4b8 6acc 0038
000000c0: 448d 0000 d0ab 0080 f6a2 0000 3bef 37ba
000000d0: 627e f9b9 08c2 f9b9 48a7 0000 049f 0080
000000e0: a69a 0000 b989 0000 e589 0080 3e89 0080
000000f0: b6a2 01ba 0505 08ba a672 f4b9 c988 0000
00000100: a18b 0000 db8b 0080 d3ed 2a3a f483 4fb8
00000110: 095f 17ba 405f 85ba 7a40 a9ba 3f41 8eba
00000120: 419b 0000 87a9 0080 8da5 0080 bd94 0080
00000130: 5d96 0080 5d96 0080 078a 0000 218b 0000
00000140: 6f89 0080 e0a3 0000 118e 0000 a88b 0000
00000150: ed5d 38b9 9c57 77b9 cfbb b5ba 5b9d 0080
00000160: 9195 0080 689a 0000 ffa8 0000 1a8a 0000
00000170: f189 0080 f017 17b9 87fd 6cb9 dc63 49ba
00000180: 4d8a 0000 7889 0080 f98b 0080 9f8a 0080
00000190: f88a 0080 c08a 0000 999f 0080 49ac 0000
000001a0: daa1 0080 cfa3 0000 ba8f 0000 eb9f 0000
000001b0: 478b 0000 ae89 0080 808b 0000 bb9c 0080
000001c0: c7a4 0080 3e89 0000 0f89 0000 d989 0000
000001d0: 8c8b 0000 408c 0080 9b8c 0000 d3a3 0000
000001e0: 10a8 0080 1f92 0000 899b 0000 29a1 0000
000001f0: 7e94 0000 548a 0000 70ab 0000 42a2 0000
00000200: eb8a 0080 b08f 0080 c088 0000 3a9a 0080
00000210: 4798 0080 198a 0080 308c 0000 ee9c 0080
00000220: 359d 0000 c788 0000 bd90 0000 0989 0000
00000230: 118a 0080 8c8a 0080 9a89 0080 3c89 0000
00000240: 648e 0080 e2ae 0080 3ca0 0080 e188 0000
00000250: 5989 0000 de89 0000 3ba0 0080 62af 0080
00000260: 3394 0000 5ca3 0000 3ea4 0080 21ad 0000
00000270: d489 0000 c288 0000 eb88 0000 d193 0080
00000280: 54ad 0000 9899 0080 7c89 0000 6689 0000
00000290: a989 0000 b289 0000 6b89 0000 038a 0000
000002a0: 4c9b 0080 87a4 0000 b48c 0000 97ab 0080
000002b0: d192 0000 38af 0000 2b99 0000 04a4 0000
000002c0: 9aa3 0080 51ab 0080 15a2 0000 2589 0080
000002d0: 1489 0080 2389 0000 1e89 0000 31ac 0080
000002e0: 959f 0080 c7ac 0000 3389 0000 e688 0000
000002f0: 6d89 0000 a789 0000 3189 0000 ec88 0000
00000300: 258b 0080 a590 0080 ac98 0080 d1de d8be
00000310: 7acd af3e 8d44 30bf fc8a 0000 278a 0080
00000320: d48a 0080 e189 0000 a989 0000 5f8a 0000
00000330: 1975 3dbf 247f 27bf a2ce 16be 1b8a 0080
00000340: 8e8b 0000 148c 0080 b794 e73e 1fc1 343d
00000350: e784 30be 3071 12be 582d bfbc 4c80 b03e
00000360: 2d8a 0000 d488 0000 1d8b 0000 4a8a 0000
00000370: 2399 0080 72ad 0080 db88 0080 dc89 0080
00000380: 7e89 0080 aa8a 0000 248b 0000 ca8a 0000
00000390: 040a e53d 8e17 20be cd66 423e e49d 0080
000003a0: 49ae 0080 4e98 0080 978f 0000 708d 0000
000003b0: c491 0000 7e88 0fbc 980c 75ba b031 9dbc
000003c0: 4c9b 0080 5e9e 0080 e1a3 0000 c9e0 f7b9
000003d0: 1c60 0bba bfd6 efb9 429c 0000 d59c 0000
000003e0: ffab 0080 098a 0000 7b89 0000 df89 0000
000003f0: a76e 91b9 db65 b6b9 d48a 95b9 c8a5 0080
6.0557e-41 5.6027e-41 5.6027e-41 7.77714e-09 -2.1505304e-05 6.3485815e-05 -6.2925e-41 5.054e-41
5.4845e-41 -5.4073e-41 -5.814e-41 -5.9978e-41 2.2002467e-05 3.1836913e-05 0.00011258054 -4.9546e-41
4.9675e-41 5.6196e-41 -0.00013183003 -0.00028457452 -0.00011754448 -5.458479e-06 -5.8224023e-06 -3.836344e-06
-6.276e-41 -5.9471e-41 -5.9506e-41 4.978e-41 5.5203e-41 5.6091e-41 -4.9376e-41 -4.9177e-41
-4.9132e-41 5.1188e-41 5.2284e-41 5.015e-41 -1.5385933e-20 -1.510391e-06 -1.2941325e-06 -5.7757e-41
-5.1224e-41 5.5891e-41 4.9355e-41 4.9172e-41 4.9463e-41 -0.00011157584 -0.000109153545 3.0707954e-05
5.0677e-41 -6.1635e-41 5.846e-41 -0.0007016544 -0.00047587143 -0.00047637546 6.0009e-41 -5.7044e-41
5.5477e-41 4.9406e-41 -4.9467e-41 -4.9233e-41 -0.00049452053 -0.0005188736 -0.00046624726 4.9069e-41
5.009e-41 -5.017e-41 0.0006520424 -4.9475537e-05 -0.0005774354 -0.0010175481 -0.0012912892 -0.0010853185
5.5695e-41 -6.0815e-41 -5.9388e-41 -5.3357e-41 -5.394e-41 -5.394e-41 4.9515e-41 4.991e-41
-4.9302e-41 5.8787e-41 5.0964e-41 5.0099e-41 -0.00017582598 -0.00023588393 -0.0013865175 -5.6449e-41
-5.3654e-41 5.539e-41 6.0624e-41 4.9542e-41 -4.9484e-41 -0.000144094 -0.0002260116 -0.0007682422
4.9613e-41 -4.9314e-41 -5.0213e-41 -4.9728e-41 -4.9853e-41 4.9774e-41 -5.7253e-41 6.1804e-41
-5.8061e-41 5.8763e-41 5.156e-41 5.7368e-41 4.9963e-41 -4.939e-41 5.0043e-41 -5.6224e-41
-5.9111e-41 4.9233e-41 4.9167e-41 4.945e-41 5.006e-41 -5.0312e-41 5.044e-41 5.8769e-41
-6.029e-41 5.2418e-41 5.5796e-41 5.7813e-41 5.3269e-41 4.9623e-41 6.15e-41 5.8207e-41
-4.9834e-41 -5.1545e-41 4.9057e-41 -5.5326e-41 -5.4627e-41 -4.954e-41 5.029e-41 -5.6296e-41
5.6395e-41 4.9066e-41 5.1922e-41 4.9159e-41 -4.9529e-41 -4.9701e-41 -4.9362e-41 4.923e-41
-5.108e-41 -6.2736e-41 -5.7481e-41 4.9103e-41 4.9271e-41 4.9457e-41 -5.748e-41 -6.2915e-41
5.3164e-41 5.8602e-41 -5.8919e-41 6.2107e-41 4.9443e-41 4.906e-41 4.9117e-41 -5.3027e-41
6.2178e-41 -5.5099e-41 4.932e-41 4.9289e-41 4.9383e-41 4.9396e-41 4.9296e-41 4.9509e-41
-5.571e-41 5.9021e-41 5.0475e-41 -6.1555e-41 5.2668e-41 6.2857e-41 5.4946e-41 5.8838e-41
-5.8689e-41 -6.1457e-41 5.8144e-41 -4.9198e-41 -4.9174e-41 4.9195e-41 4.9188e-41 -6.177e-41
-5.7247e-41 6.1981e-41 4.9218e-41 4.911e-41 4.9299e-41 4.938e-41 4.9215e-41 4.9118e-41
-4.9916e-41 -5.1889e-41 -5.4768e-41 -0.42357495 0.34336454 -0.688546 4.9858e-41 -4.956e-41
-4.9802e-41 4.9462e-41 4.9383e-41 4.9638e-41 -0.740068 -0.65428376 -0.14727262 -4.9543e-41
5.0063e-41 -5.025e-41 0.45230648 0.044129487 -0.17238198 -0.1430099 -0.023337051 0.34472883
4.9568e-41 4.9085e-41 4.9904e-41 4.9609e-41 -5.4935e-41 -6.222e-41 -4.9094e-41 -4.9455e-41
-4.9323e-41 4.9743e-41 4.9914e-41 4.9788e-41 0.11183551 -0.15633985 0.18984528 -5.664e-41
-6.2522e-41 -5.4637e-41 5.151e-41 5.0738e-41 5.2291e-41 -0.00876057 -0.0009347885 -0.019188732
-5.571e-41 -5.6811e-41 5.8789e-41 -0.0004727899 -0.00053167506 -0.0004574563 5.6055e-41 5.6261e-41
-6.17e-41 4.9518e-41 4.9319e-41 4.9459e-41 -0.00027738998 -0.00034789633 -0.0002852293 -5.9471e-41

raycast_branch.3.bias f4 [32]
00000000: 93c9 06ba 767d 16b9 d628 2fb1 af17 829d
00000010: 9185 733e f872 a7ba 69bd 03bf 3990 0dae
00000020: 3180 593e 09b6 0e95 06b9 a3be 10f8 9db4
00000030: 0f76 e0b9 8faf 0580 a0d1 c1b9 ca98 b0b1
00000040: 3491 6bba 23be a2a1 6849 83ba 1869 2aa7
00000050: 0bdf 0bbe 6cf1 0da1 b997 cfaa df11 82ba
00000060: d34a efb4 7157 27bb a5dc aeb8 ef12 e6b9
00000070: cd40 93ba 7b16 daba 8f60 fe87 7b2b cbba
-0.0005141731 -0.00014351853 -2.5489064e-09 -3.44352e-21 0.2378142 -0.0012775352 -0.5146089 -3.2187784e-11
0.21240307 -2.8820272e-26 -0.319771 -2.9424018e-07 -0.0004281257 -5.22156e-40 -0.0003696801 -5.1396443e-09
-0.00089861755 -1.1027876e-18 -0.0010016384 -2.364921e-15 -0.13659303 -4.809218e-19 -3.6875865e-13 -0.0009923539
-4.457166e-07 -0.0025534297 -8.338065e-05 -0.00043883125 -0.0011234522 -0.001663878 -3.8274424e-34 -0.0015500629

other_branch.0.weight f4 [32, 1]
00000000: ac8a 0000 a136 8d3f 668c 0000 2838 d1be
00000010: 1745 0ec0 cea1 0080 23bc 8c3f 4067 4c3f
00000020: d288 0000 53cc 4b3f 66d7 e5be 3c8b 0080
00000030: a4ad cebe 7b8a 0080 cd09 4f3f 4489 0080
00000040: 1589 0080 748b 0080 8313 dfbe 5d01 e2be
00000050: 70b5 5d3f 1b10 e3be f888 0000 c53f 0ec0
00000060: 1889 0080 c8a9 e4be 6b91 0080 ba89 0080
00000070: 7544 cdbe 0dfe d3be ef78 2dba e489 0080
4.9746e-41 1.1032296 5.0365e-41 -0.40863156 -2.222967 -5.8045e-41 1.0994915 0.79845047
4.9082e-41 0.7960865 -0.44890898 -4.9948e-41 -0.40366852 -4.9677e-41 0.8087433 -4.9242e-41
-4.9176e-41 -5.0026e-41 -0.43569574 -0.44141665 0.86604977 -0.44348225 4.9135e-41 -2.2226422
-4.918e-41 -0.44660783 -5.2166e-41 -4.9407e-41 -0.4009129 -0.41404763 -0.0006617447 -4.9466e-41

other_branch.0.bias f4 [32]
00000000: 879e 0080 8efa 00bf 8892 0080 a682 4e3e
00000010: fd46 923d 38ac 0080 bae0 febe a79e efbe
00000020: 2f89 0080 47ad efbe db21 503e 0f8a 0080
00000030: a08d 503e 465e 0080 cc74 f2be bb88 0080
00000040: cb88 0080 268a 0080 0116 4b3e b451 493e
00000050: ee3d cabe 8206 4e3e 97af 0080 62dc 933d
00000060: 148a 0080 c2c9 553e dd89 0080 e089 0080
00000070: 8413 fd3d 4cc9 4f3e e285 7eb8 518a 0080
-5.6869e-41 -0.50382316 -5.2566e-41 0.20167026 0.07142446 -6.178e-41 -0.49780828 -0.4680073
-4.9212e-41 -0.46811888 0.20325415 -4.9526e-41 0.20366526 -3.3819e-41 -0.47354734 -4.905e-41
-4.9072e-41 -4.9558e-41 0.19832613 0.19660074 -0.39500374 0.2011967 -6.299e-41 0.07219769
-4.9533e-41 0.20877746 -4.9456e-41 -4.946e-41 0.12357238 0.20291632 -6.0683007e-05 -4.9619e-41

common_layers.0.weight f4 [64, 320]
00000000: 5992 5a2a f2ec 8a2d fb11 a42a 99e3 4228
00000010: 9d4c 1725 c2eb a624 49b9 b728 d789 aa2c
00000020: a15a f629 5705 36b9 de79 8bb8 1c52 3038
00000030: 06a6 1e39 f0be cb39 335c d339 bfcb f239
00000040: dac8 eb38 1bb5 4ab8 409e 0000 22a6 0000
00000050: eba6 0000 6595 0080 749d 0080 6e95 0000
00000060: d295 0000 da93 0000 be8b 0000 a689 0000
00000070: b189 0000 c989 0000 d589 0000 6089 0000
00000080: c488 0000 b789 0000 9889 0000 c489 0080
00000090: 1821 b53c daf2 9fbc 2471 99bc ca5e 25bd
000000a0: bc2a 3a3d fb0e 07bd 1f1c 153d bdc9 f53c
000000b0: e5e8 eabc 8689 0000 328a 0080 5689 0080
000000c0: 3e89 0000 7889 0080 3f8a 0000 078b 0000
000000d0: fb88 0000 e989 0000 7c5b ebbc c115 e2bc
000000e0: 8de4 8dbd f9e8 05be d496 3f3d 9528 823b
000000f0: 4551 b63c 3714 0bbc 290f cabc 8d89 0080
00000100: 8289 0080 ad89 0000 fa88 0000 d189 0000
00000110: fa89 0000 2a89 0000 b789 0080 bf88 0080
00000120: 0800 53bc ea8d 0000 e289 e53c c04a 31bb
00000130: 5610 60bb 775a 403b ea69 91bb 4306 0ebd
00000140: 7dff ff3b 4dd8 a390 7c17 568e c03e b190
00000150: 1bc4 9a91 edff 9891 86e9 8a91 b89d 0390
00000160: c07b 2810 e2fd ec10 da88 0080 af22 bb3c
00000170: ed83 fd3b 548e f1bc 4e09 ae3c ea25 24bc
00000180: 93d9 50bc 4ccd 7e3c 5512 fbbd 6089 0000
00000190: fe89 0000 2e89 0000 7f89 0000 b489 0000
000001a0: e588 0000 8389 0000 0e8a 0000 b988 0000
000001b0: 04f6 da2e 30d6 2931 c3ca d32e ce1b 832e
000001c0: 5cdc e92d 4c67 b22d 1c75 242e cd40 e230
000001d0: 3818 832e 978c 0000 dac2 0000 fed6 0000
000001e0: 7d0b 0100 51a3 0000 bfcf 0000 73a1 0000
000001f0: f9c3 0000 f3af 0000 7689 0000 1255 c101
00000200: c688 0080 5514 0080 6d89 0080 4a8a 0000
00000210: e688 0000 09be 6901 438a 0300 7689 0000
00000220: d989 0000 2e89 0080 a589 0080 9489 0000
00000230: cb89 0000 cd88 0000 9689 0000 dc89 0000
00000240: 761d 1cbb 2b0e 2abb 52d7 38bb f028 44bb
00000250: 990d 0abb 59a5 b4ba 071b 75ba 84c2 91ba
00000260: 3191 9dba 8c89 0080 a489 0080 0a89 0000
00000270: f688 0080 bd89 0000 fb89 0000 2589 0000
00000280: bb88 0000 498a 0080 4871 6e17 a8f6 deb5
00000290: 3d44 cdb3 f037 8eb6 55d4 82b6 81f9 6db3
000002a0: 6a03 63a0 3923 b915 9d21 39a7 e388 0000
000002b0: 0b89 0080 da89 0000 1289 0000 f389 0000
000002c0: bc89 0000 ce89 0000 d489 0000 7b89 0000
000002d0: e596 2c3c 00d2 b7bc 55fc bebc e0ba 203d
000002e0: 169a 9e3c ac97 8ebd 6823 6dba 9848 6bbb
000002f0: 69d0 d9bc 6289 0000 be89 0080 058a 0080
00000300: 7a89 0000 5d89 0000 0d89 0000 7289 0000
00000310: b889 0080 d088 0080 ca99 0080 7397 0000
00000320: 0e8b 0000 049d 0000 fb9e 0080 a78f 0080
00000330: cb9e 0000 f5ac 0000 d593 0000 75a7 693b
00000340: a095 7f3b e11a 823b 17c7 773b 2b9e 6d3b
00000350: 153a 5a3b 7c8f 563b c41d 433b 9868 2c3b
00000360: bc94 0000 9b95 0000 6d8a 0000 258f 0080
00000370: d09c 0080 089f 0000 7696 0000 d09d 0080
00000380: 6297 0000 7109 c736 19eb a537 d3b0 8c37
00000390: 20a0 0937 fee9 5a35 3299 bb33 1ef3 6435
000003a0: 0e64 3c37 d7b6 ae37 e488 0000 0489 0000
000003b0: ff88 0000 d588 0000 f289 0000 e388 0000
000003c0: 9089 0000 2589 0080 7789 0080 d59a 0080
000003d0: 9d89 0080 aa89 0080 cb88 0000 3489 0000
000003e0: 9989 0080 5e89 0080 0a8a 0000 2f89 0080
000003f0: d189 0000 974d 0000 cf66 0000 645a 0080
1.9413064e-13 1.5794008e-11 2.9144729e-13 1.0818516e-14 1.312312e-16 7.2390414e-17 2.0397436e-14 4.846994e-12
1.0940316e-13 -0.00017358862 -6.650736e-05 4.203814e-05 0.00015129903 0.00038861437 0.0004031375 0.0004630964
0.00011243085 -4.832922e-05 5.677e-41 5.9597e-41 5.9879e-41 -5.3593e-41 -5.6484e-41 5.3605e-41
5.3745e-41 5.3039e-41 5.013e-41 4.9379e-41 4.9394e-41 4.9428e-41 4.9445e-41 4.9281e-41
4.9062e-41 4.9403e-41 4.936e-41 -4.9421e-41 0.022110507 -0.01952498 -0.018730707 -0.0403736
0.04545091 -0.03297327 0.03640377 0.030003423 -0.028675506 4.9334e-41 -4.9575e-41 -4.9267e-41
4.9233e-41 -4.9314e-41 4.9593e-41 4.9874e-41 4.914e-41 4.9473e-41 -0.028730147 -0.027598264
-0.06928358 -0.13077153 0.0467747 0.003972123 0.02225555 -0.008488706 -0.024665432 -4.9344e-41
-4.9329e-41 4.9389e-41 4.9138e-41 4.9439e-41 4.9497e-41 4.9205e-41 -4.9403e-41 -4.9055e-41
-0.012878425 5.0909e-41 0.02801985 -0.002705261 -0.0034189424 0.0029350796 -0.004437675 -0.03467394
0.007812439 -6.462543e-29 -2.6388844e-30 -6.991087e-29 -2.4417775e-28 -2.4139098e-28 -2.191648e-28 -2.5956697e-29
3.3227492e-29 9.3476755e-29 -4.9093e-41 0.022843687 0.007736674 -0.029486813 0.021244671 -0.010018805
-0.012747186 0.015551876 -0.12259356 4.9281e-41 4.9502e-41 4.9211e-41 4.9324e-41 4.9399e-41
4.9109e-41 4.933e-41 4.9525e-41 4.9047e-41 9.9571934e-11 2.4714488e-09 9.631187e-11 5.9621294e-11
2.6586892e-11 2.028213e-11 3.7393297e-11 1.6462082e-09 5.9614924e-11 5.0434e-41 6.99e-41 7.7125e-41
9.5957e-41 5.8587e-41 7.4525e-41 5.7917e-41 7.0302e-41 6.3119e-41 4.9312e-41 7.1019073e-38
-4.9065e-41 -7.294e-42 -4.9299e-41 4.9609e-41 4.911e-41 4.2931685e-38 3.25105e-40 4.9312e-41
4.945e-41 -4.9211e-41 -4.9378e-41 4.9354e-41 4.9431e-41 4.9075e-41 4.9357e-41 4.9455e-41
-0.002382127 -0.0025948386 -0.0028204513 -0.0029931627 -0.0021065234 -0.0013782188 -0.00093500357 -0.0011120592
-0.001202142 -4.9343e-41 -4.9376e-41 4.916e-41 -4.9132e-41 4.9411e-41 4.9498e-41 4.9198e-41
4.905e-41 -4.9607e-41 7.704493e-25 -1.6612075e-06 -9.558469e-08 -4.2384418e-06 -3.8990206e-06 -5.5407785e-08
-1.9228778e-19 7.4776476e-26 -2.569213e-15 4.9106e-41 -4.9162e-41 4.9452e-41 4.9172e-41 4.9487e-41
4.941e-41 4.9435e-41 4.9443e-41 4.9319e-41 0.010534023 -0.022439003 -0.02331368 0.039240718
0.019360583 -0.06962523 -0.00090461085 -0.0035901424 -0.026588636 4.9284e-41 -4.9413e-41 -4.9512e-41
4.9317e-41 4.9277e-41 4.9165e-41 4.9306e-41 -4.9404e-41 -4.9079e-41 -5.5169e-41 5.433e-41
4.9883e-41 5.6327e-41 -5.7031e-41 -5.1533e-41 5.6964e-41 6.2045e-41 5.3032e-41 0.003565279
0.0038999096 0.0039704894 0.0037807876 0.0036257606 0.003329878 0.0032739332 0.002977238 0.002630746
5.3356e-41 5.3668e-41 4.9658e-41 -5.135e-41 -5.6254e-41 5.705e-41 5.3975e-41 -5.6612e-41
5.4306e-41 5.9317613e-06 1.9779009e-05 1.677164e-05 8.203118e-06 8.155183e-07 8.735732e-08 8.52904e-07
1.1228969e-05 2.0827558e-05 4.9107e-41 4.9152e-41 4.9145e-41 4.9086e-41 4.9485e-41 4.9106e-41
4.9348e-41 -4.9198e-41 -4.9313e-41 -5.5543e-41 -4.9366e-41 -4.9385e-41 4.9072e-41 4.9219e-41
-4.9361e-41 -4.9278e-41 4.9519e-41 -4.9212e-41 4.9439e-41 2.7834e-41 3.6881e-41 -3.2426e-41

common_layers.0.bias f4 [64]
00000000: 6322 4e3d 4baf 92bb f5de 913c 6040 cebd
00000010: 432c c7bd a0cb 9dbd 3ec1 c1bd 62b4 24bd
00000020: edcc b5bc a77d 05bd 553b 32bc 47c8 533d
00000030: d846 98bb 4eda dfbd 7316 90bd 6a96 ddbd
00000040: e73b f73c 611e 7c3d d30c 59bd b03a 593c
00000050: c79e 0e3c cf3c 34bd 4bc9 86bd c3e6 cfbb
00000060: c437 563d 8ce1 83bd f631 2bbd 8bea 853c
00000070: 6952 493c 4b76 a3bc a849 7cbd d08b dbbd
00000080: 0b28 eebb f6d5 063c 466f 0b3d ee2a 6e3d
00000090: 6a4b 10bd d18c 293d 495e a6ae 3afa 0e3d
000000a0: b096 3d3d 6615 76bd d8df 3d3d 2414 a8bd
000000b0: 7672 68bc ef8d 8bbd c724 de3c c195 36be
000000c0: 1371 de3c 3900 dcbd cafb 073d d72d 213d
000000d0: 1e2b 013d ed94 10be ee90 89bd f23b b9bc
000000e0: b57b 233c dbc6 15be a4e7 233d 4097 543d
000000f0: 69d9 3c3b 2917 633d 73ba 133d 5855 39bd
0.050325762 -0.004476463 0.01780651 -0.10070872 -0.09725239 -0.07704854 -0.09460686 -0.04021109
-0.022192443 -0.032590535 -0.010878404 0.05170467 -0.004647117 -0.1093031 -0.07035532 -0.10819705
0.03017993 0.06155241 -0.052990746 0.013258621 0.008704848 -0.044003304 -0.06581362 -0.0063446476
0.052299276 -0.06439504 -0.041795693 0.01634719 0.0122877145 -0.019953867 -0.06159368 -0.107200265
-0.007267957 0.008229723 0.034041665 0.05814641 -0.03522817 0.04139406 -7.5655544e-11 0.034906603
0.046286285 -0.060079 0.046356052 -0.082069665 -0.014187446 -0.06814181 0.027117146 -0.17830564
0.027153527 -0.1074223 0.03319911 0.039350357 0.03153526 -0.1411931 -0.06717096 -0.022611592
0.0099782245 -0.14626639 0.04001583 0.051902056 0.002881611 0.05544201 0.036066484 -0.045247406

common_layers.3.weight f4 [32, 64]
00000000: 3eb8 f0ba a42d dcbd 0381 573b 2b56 b23b
00000010: e706 8abd 9c41 eebd c8f4 e73c 7e4f 6abd
00000020: 81b8 313d d087 7b3e 493b fcbd 6c4f 75bd
00000030: 141b fbbc ce34 b13c c458 1a3e 09a3 253d
00000040: 68a2 923e eb5a c7bb 60de 153d e7e4 8e39
00000050: 272f 063e c9e1 4f3e dad0 babd 7a8c 393d
00000060: f406 08bc 670e 20be 945e 713e cd9a e5bd
00000070: e759 d33d dc98 8c3d 3ae6 d5bd c4db 3d3e
00000080: 3033 d8bc edc8 00be 20e7 193d a3fa 46bc
00000090: a5bc 1f3d a409 c83c 7589 0080 29a0 a53d
000000a0: 903c 9a3d e1d2 bbbd e3d7 d7bd daa9 40bd
000000b0: 872f 2ebe 674c a03c 8bdc 113d b44d 943e
000000c0: 976e 0d3c 73bd 69bd 93db 953e 6406 e2bc
000000d0: af0b 453d 0dd8 e73d 6fee 86bd d630 56bc
000000e0: 93be c7bc dd2d 793b f82c 81bd 9382 8f3d
000000f0: 5d1c b5bd b222 e5bc 6fbd dabc 763d 603e
00000100: 68eb a13b 1d60 2c3b 9a64 bbbd bb62 18be
00000110: 93af 08bd a747 bebc 5dfd bfbd d709 483d
00000120: cff8 c93d df95 80bc 2661 903c 1daa 20bb
00000130: 9c8b 84be aaa5 18be 710c ecbd 2e87 1abe
00000140: eef7 8c3c a4c5 b6ba 9a92 0abe e695 11bc
00000150: 6252 863c ddea a2bb e82e 02bd 1444 25be
00000160: 36e5 fcb9 beb3 ae3b 909d d33a 7f63 b1bc
00000170: 7f95 303c b9a6 35be 762f 05be 3833 52ba
00000180: 0531 81be 41b9 4a3c 27ea 0dbe ca7c 05bc
00000190: 6b05 ff3d 9c36 3a3c 97f5 a18a 426e 63ba
000001a0: b965 83be c31f 19bd 2d03 9fbb a450 a2be
000001b0: fbba 833d c641 20be 9d4c b7bd 8dfd 2f3b
000001c0: 88d5 fbba e5b6 9fbe 6a14 593c 1bbe 71bc
000001d0: 95f5 eabd 4ad3 8ebd cd29 65ba aaa9 943d
000001e0: c457 73be 37e0 66bd 04c4 e8bd 7fb8 91bb
000001f0: e274 5dbe fc92 b9ba bcb2 62be b27d dbb9
00000200: 578b e1bc cc02 d73c fdf0 d3bd d9ad 72bd
00000210: 5f43 f83c a41c 0f3d fda8 ccbd 8749 bb3c
00000220: 5416 673d d145 c8bd e8e5 1e3c fea2 033d
00000230: caf4 7abe 8d17 bcbd 01ed e0bd fc09 cdbd
00000240: 7cb2 54bc 4f8f adbb afdd b3bd 1172 37be
00000250: 071b c03a 64f8 5ebd 1ed3 2e3c db07 d4bd
00000260: bc18 87bd d08d e13c ec47 7abd f407 2fbe
00000270: 2cda 47bc c589 9ebd dfd9 acbd fbac 22bc
00000280: 4d9b 73be 512e 4dbc c216 5fbd 7e42 2ebc
00000290: fba8 c93d 90f4 92bd e389 0000 6458 03bd
000002a0: 25c7 31be 110a 82bd e5d9 12bd fc2b 90be
000002b0: db05 963b 0bf0 88bd a3e9 9ebd 1bb7 9bbd
000002c0: 0f8b 37be 5ad9 89be 7067 9bbd ce0f a1bd
000002d0: bf44 84bd 2d89 eabd 8a55 f43c 14f0 a03d
000002e0: 3fb3 6bbe f098 1abd 77d5 a5bd 20ca 0c3d
000002f0: 44bb 4bbe 11da a6bb fb32 bdbd 2120 18bd
00000300: 8015 83ba 9176 dc3c 13ab bcbd fc90 23be
00000310: 5c01 0cbd ee42 34bc cfec cfbd 828b 673d
00000320: 82af c33d f544 0bbd a0b9 883c bf26 363c
00000330: c9ce 8abe 93b4 12be 52da e6bd ac16 28be
00000340: e195 9b3b a01c 89bb cdb8 15be 2c24 d5bc
00000350: 689c 393c 2f4e 29bc 5a87 bebc 8a44 37be
00000360: 5e67 363b f987 c03b cfbb 12bd 4da0 f8bc
00000370: 2956 6e3b 2559 2dbe 8de6 06be 4436 97bb
00000380: 9b65 87be 6a52 d8ba f6cb 1abe f962 31bc
00000390: bd1c f13d 203b 0e3b b889 0080 8a8a 2b3c
000003a0: 4b3d 89be 23cc 1fbd abb5 49bc 03fb 9fbe
000003b0: 7898 7e3d e66b 23be 2e0a d0bd 0451 a6bc
000003c0: 478c a6bc 9943 9abe 999d c9bb 7d5c 5f3b
000003d0: a4cf fabd 038e aebd b1b3 ae3c 7aa2 993d
000003e0: 1841 79be 55ef 64bd d900 a7bd cce5 143c
000003f0: 78fe 43be 1362 2a3b 823b 4fbe 8f43 d8bb
-0.0018365455 -0.10750893 0.0032883293 0.005442401 -0.06739598 -0.11633608 0.028314963 -0.057204716
0.043388847 0.24563527 -0.12315995 -0.059890196 -0.03065256 0.021631625 0.15072924 0.040438686
0.2863953 -0.0060838363 0.036589026 0.00027254896 0.13103925 0.20300974 -0.091218665 0.045299985
-0.008302439 -0.15630494 0.23571235 -0.112111665 0.10319882 0.06865093 -0.10444303 0.18540865
-0.026391596 -0.12576647 0.037573934 -0.012144717 0.038998265 0.02441866 -4.931e-41 0.08087189
0.07531083 -0.09171081 -0.10539224 -0.047036983 -0.17010318 0.019567681 0.035610717 0.28965533
0.008632324 -0.05706544 0.29269084 -0.027590938 0.048106845 0.11320505 -0.06588446 -0.013073167
-0.024382865 0.0038021721 -0.06307405 0.07007327 -0.088433005 -0.027970646 -0.026701657 0.21898445
0.0049413927 0.0026302405 -0.091500476 -0.14881413 -0.033370566 -0.023227526 -0.09374497 0.04883751
0.098619096 -0.015696464 0.017624449 -0.0024515458 -0.25887764 -0.14906946 -0.115258105 -0.1509063
0.017208066 -0.00139444 -0.13532487 -0.008885836 0.016396705 -0.0049718455 -0.031783015 -0.16139251
-0.0004823596 0.0053314855 0.001614498 -0.021653889 0.01077783 -0.17739381 -0.13006386 -0.00080184964
-0.2523271 0.01237327 -0.13858853 -0.008147428 0.12452205 0.011365559 -1.5596117e-32 -0.00086757925
-0.25663546 -0.037383806 -0.0048526735 -0.3170215 0.06432148 -0.1565009 -0.0895016 0.002685401
-0.0019213418 -0.31194225 0.013249496 -0.014754797 -0.11472622 -0.06973894 -0.00087418855 0.07258923
-0.23763949 -0.05636617 -0.11365512 -0.0044470425 -0.21626619 -0.0014158185 -0.22138494 -0.00041864585
-0.027532263 0.02624645 -0.10348699 -0.059247825 0.030305563 0.034939423 -0.099931695 0.022862209
0.056417778 -0.097789414 0.009698369 0.032137863 -0.24507442 -0.091841795 -0.10982705 -0.1001167
-0.012982007 -0.0052966247 -0.08782517 -0.17914607 0.0014656492 -0.054436103 0.010670451 -0.10353061
-0.065965146 0.027533442 -0.061103746 -0.17092878 -0.012198012 -0.07741121 -0.08439993 -0.009928937
-0.23789711 -0.01252325 -0.054465063 -0.01063597 0.098466836 -0.07175553 4.9464e-41 -0.032066718
-0.17361124 -0.06349576 -0.03585233 -0.28158557 0.0045783347 -0.066864096 -0.077594064 -0.07603284
-0.1792414 -0.2692364 -0.075880885 -0.07864343 -0.06458425 -0.114519455 0.029825944 0.07858291
-0.23017596 -0.03774351 -0.08097356 0.03437245 -0.19895655 -0.0050919135 -0.092382394 -0.037140016
-0.0010000914 0.026912006 -0.09212317 -0.15973276 -0.034180984 -0.011002285 -0.101525895 0.05652953
0.0955496 -0.03400131 0.016690075 0.011117636 -0.2711089 -0.14326696 -0.1127211 -0.16414899
0.0047480916 -0.0041843206 -0.14621277 -0.026018225 0.011328794 -0.010333582 -0.0232579 -0.1789724
0.0027832608 0.005875584 -0.03582364 -0.030349875 0.0036367273 -0.16928537 -0.13173886 -0.0046146233
-0.26444706 -0.0016504053 -0.15116867 -0.01082682 0.117730595 0.0021702722 -4.9404e-41 0.010470042
-0.26804575 -0.03901304 -0.012311379 -0.31246194 0.062157124 -0.15959129 -0.101581916 -0.020302303
-0.020330561 -0.30129698 -0.0061528203 0.0034082227 -0.122466356 -0.0852318 0.021325918 0.07501693
-0.24341238 -0.055892307 -0.081544586 0.009087991 -0.19140041 0.0025998398 -0.20237544 -0.0065998505

common_layers.3.bias f4 [32]
00000000: 7dfe 783c 3771 023d d9ed 263d dd27 f83c
00000010: 18ca 2f3d d905 923d 31e5 093d 6336 a13d
00000020: 750e 093d 401f 003d 9140 fb3c 5cbe 5c3d
00000030: 7091 393d a7a2 2f3d 2d19 003d 8882 2b3d
00000040: 21ca 943d 8167 083d 5256 f43c f88f 053d
00000050: 2dc3 ac3c d1f7 703d 650d 113d d32f fb3c
00000060: d52c ff3c e687 053d 99b7 8d3d 1ff4 a03d
00000070: 8e33 253d bd0d fb3c 61b8 533d 8456 ca3c
0.0151973935 0.03184625 0.040754173 0.030292446 0.04291734 0.071300216 0.03366584 0.078717016
0.033461053 0.031279802 0.030670436 0.05389248 0.045304716 0.042879727 0.03127401 0.04187253
0.072651155 0.033301834 0.029826317 0.032608002 0.02108916 0.058830086 0.035413165 0.030662453
0.031149307 0.032600306 0.06919784 0.078590624 0.04033237 0.0306462 0.05168951 0.024699457

common_layers.6.weight f4 [2, 32]
00000000: dbfc 603f 0367 3e3d 6859 88be 706b 53bc
00000010: 4139 51be 3935 03bf cfac bdbd aa02 163f
00000020: 333c f3bd 4067 123e 76ae e03b 98a6 0dbf
00000030: dee6 003f c850 89be 0daf 46bd 5b9f 4e3f
00000040: 6c30 19bf 3359 643e 2c62 c83d f17e b93d
00000050: 9d1e 4bbf f335 303f 01f0 0cbe b2c1 a83b
00000060: d390 8ebd 87ee 42bd 7b2e 0bbf f91c 193f
00000070: fee1 d83e 1669 593b 63ef 28bf dcbf 45bf
00000080: b148 1bba f606 57bf 38d8 3bbf a978 58bf
00000090: 0f9a 3ebf 0b8a 4ebf fb65 58bf e0b8 58bf
000000a0: 9642 56bf 533a 58bf 3d27 59bf 08c9 10bf
000000b0: 7333 20bf 1364 3dbf 444f 55bf 3bae 80be
000000c0: 9edf 32bf 6570 4dbf 2486 54bf b562 55bf
000000d0: 5dd7 a3b9 44d8 fbbe 238b 57bf b5e3 56bf
000000e0: b1cf 57bf fd6a 53bf b83e 49bf 289d 50bf
000000f0: da03 30bf 7931 58bf a72c f6be 0eab 4939
0.87885827 0.04648496 -0.26630712 -0.012904033 -0.20431997 -0.51253086 -0.09261476 0.58597815
-0.118767165 0.14297199 0.006856735 -0.55332327 0.50352275 -0.26819444 -0.048506785 0.8071191
-0.5983951 0.22299652 0.0978435 0.09057415 -0.7934359 0.6883232 -0.13763429 0.0051500434
-0.06961217 -0.04759076 -0.543678 0.59809834 0.42359918 0.0033174208 -0.65990275 -0.7724588
-0.00059236126 -0.83994997 -0.733768 -0.8455911 -0.74453825 -0.80679387 -0.8453061 -0.84657097
-0.8369535 -0.84463996 -0.848255 -0.5655675 -0.62578505 -0.73980826 -0.83324075 -0.25132927
-0.6987246 -0.80249625 -0.8301718 -0.8335374 -0.0003125024 -0.49188435 -0.8419668 -0.83941203
-0.84301287 -0.82585126 -0.78611326 -0.814898 -0.68755877 -0.8445049 -0.48080942 0.00019232577

common_layers.6.bias f4 [2]
00000000: 9dcd fd3a dadf 7f3f
0.0019363646 0.99950945

exp_avg f4 [16, 1, 3]
00000000: 0000 0000 0000 0000 0000 0080 c474 5bbd
00000010: c79c 4ebd 17c0 88bd 0000 0080 0000 0080
00000020: 0000 0080 0000 0000 0000 0080 0000 0080
00000030: 08c4 73bd e5b7 67bd fb7a 79bd 0000 0080
00000040: 0000 0080 0000 0080 634c db3c 6762 c33c
00000050: ba70 073d 2104 243d cbae 0d3d 3623 073d
00000060: 0000 0080 0000 0080 0000 0080 0000 0080
00000070: 0000 0080 0000 0080 0000 0080 0000 0080
00000080: 0000 0080 0000 0080 0000 0000 0000 0080
00000090: 0083 53ba 89c9 01bb 5d06 f7ba 0000 0080
000000a0: 0000 0080 0000 0080 0000 0080 0000 0080
000000b0: 0000 0080 ebc1 b7b9 6f6d 563b 8acb 603b
0.0 0.0 -0.0 -0.053578153 -0.050442483 -0.06677263 -0.0 -0.0
-0.0 0.0 -0.0 -0.0 -0.05951312 -0.05657186 -0.0609083 -0.0
-0.0 -0.0 0.026769822 0.023850633 0.03306649 0.040043 0.034590524 0.032992564
-0.0 -0.0 -0.0 -0.0 -0.0 -0.0 -0.0 -0.0
-0.0 -0.0 0.0 -0.0 -0.0008068532 -0.0019803962 -0.0018846501 -0.0
-0.0 -0.0 -0.0 -0.0 -0.0 -0.0003504896 0.0032719036 0.0034301006

exp_avg_sq f4 [16, 1, 3]
00000000: f401 0000 f401 0000 f401 0000 6919 393c
00000010: afee 3a3c d376 4f3c f401 0000 f401 0000
00000020: f401 0000 f401 0000 f401 0000 f401 0000
00000030: 171f 493c 1fe9 413c c042 4b3c f401 0000
00000040: f401 0000 f401 0000 aa8c 7f3b 8f76 6d3b
00000050: f8a8 3a3b 9e77 6a3c 4ee3 5b3c 9bfa 5e3c
00000060: f401 0000 f401 0000 f401 0000 f401 0000
00000070: f401 0000 f401 0000 f401 0000 f401 0000
00000080: f401 0000 f401 0000 f401 0000 f401 0000
00000090: 7486 a13a 6652 923a e583 5a3a f401 0000
000000a0: f401 0000 f401 0000 f401 0000 f401 0000
000000b0: f401 0000 c156 913b 78ab b23b 4666 a73b
7e-43 7e-43 7e-43 0.011297562 0.011409446 0.012662607 7e-43 7e-43
7e-43 7e-43 7e-43 7e-43 0.012275479 0.011835366 0.012406051 7e-43
7e-43 7e-43 0.0038993754 0.0036233997 0.002848206 0.0143107455 0.013420893 0.013609554
7e-43 7e-43 7e-43 7e-43 7e-43 7e-43 7e-43 7e-43
7e-43 7e-43 7e-43 7e-43 0.0012323395 0.0011163473 0.0008335694 7e-43
7e-43 7e-43 7e-43 7e-43 7e-43 0.0044353907 0.0054525696 0.0051086275

exp_avg f4 [16]
00000000: 0000 0080 ef8a b5bd 0000 0080 0000 0080
00000010: 656c c5bd 0000 0080 3b3a 2a3d 5084 733d
00000020: 0000 0080 0000 0080 0000 0080 0000 0080
00000030: 08b9 1dbb 0000 0000 0000 0080 d0cb fb3a
-0.0 -0.0886439 -0.0 -0.0 -0.09639815 -0.0 0.04155944 0.059452355
-0.0 -0.0 -0.0 -0.0 -0.0024066586 0.0 -0.0 0.0019210521

exp_avg_sq f4 [16]
00000000: f401 0000 bdd9 e03c f401 0000 f401 0000
00000010: e06b fd3c f401 0000 1866 233c 677c 223d
00000020: f401 0000 f401 0000 f401 0000 f401 0000
00000030: 07e7 423b f401 0000 f401 0000 df57 403c
7e-43 0.027447576 7e-43 7e-43 0.030935228 7e-43 0.0099730715 0.03966942
7e-43 7e-43 7e-43 7e-43 0.0029739754 7e-43 7e-43 0.0117397

exp_avg f4 [32, 16, 3]
00000000: 0000 0000 0000 0000 0000 0000 7949 5c2b
00000010: 7c99 14b1 f875 db31 0000 0080 0000 0000
00000020: 0000 0000 0000 0080 0000 0080 0000 0080
00000030: 4175 1831 ed51 5c31 23f0 4232 0000 0080
00000040: 0000 0000 0000 0000 51b4 65b2 83e9 f6b2
00000050: b92b 4db2 e4b6 1ab0 9af0 24b0 7825 daaf
00000060: 0000 0080 0000 0080 0000 0080 0000 0000
00000070: 0000 0000 0000 0000 0000 0080 0000 0080
00000080: 0000 0080 0000 0000 0000 0000 0000 0000
00000090: 2900 1998 105f 2caf 0bb1 13af 0000 0080
000000a0: 0000 0080 0000 0000 0000 0000 0000 0000
000000b0: 0000 0000 c5eb 40b2 229a 3cb2 86af 5431
000000c0: 0000 0000 0000 0080 0000 0000 38aa 96b3
000000d0: 7e58 4cb3 9f91 4cb3 0000 0000 0000 0080
000000e0: 0000 0000 0000 0000 0000 0080 0000 0080
000000f0: 0661 54b3 ced4 5eb3 b53b 48b3 0000 0000
00000100: 0000 0000 0000 0080 1f0d 8c33 96b5 a9b1
00000110: ab01 78b3 cf8f dab3 24ae 0ab4 c820 e9b3
00000120: 0000 0000 0000 0080 0000 0080 0000 0080
00000130: 0000 0080 0000 0080 0000 0000 0000 0000
00000140: 0000 0080 0000 0000 0000 0000 0000 0000
00000150: 344a 97b2 bca7 cab2 b7e9 14b4 0000 0080
00000160: 0000 0080 0000 0000 0000 0000 0000 0000
00000170: 0000 0080 8663 77b2 990d c2b2 5bf8 a4b3
00000180: 0000 0000 0000 0080 0000 0080 0000 0080
00000190: 0000 0080 0000 0000 0000 0080 0000 0000
000001a0: 0000 0080 0000 0000 0000 0000 0000 0000
000001b0: 0000 0000 0000 0080 0000 0000 0000 0080
000001c0: 0000 0080 0000 0000 0000 0000 0000 0000
000001d0: 0000 0000 0000 0080 0000 0000 0000 0000
000001e0: 0000 0080 0000 0000 0000 0000 0000 0000
000001f0: 0000 0000 0000 0000 0000 0000 0000 0000
00000200: 0000 0080 0000 0080 0000 0000 0000 0080
00000210: 0000 0080 0000 0080 0000 0000 0000 0080
00000220: 0000 0000 0000 0000 0000 0000 0000 0000
00000230: 0000 0080 0000 0080 0000 0080 0000 0000
00000240: 0000 0080 0000 0080 0000 0080 0000 0000
00000250: 0000 0000 0000 0000 0000 0080 0000 0080
00000260: 0000 0000 0000 0000 0000 0080 0000 0000
00000270: 0000 0000 0000 0000 0000 0000 0000 0080
00000280: 0000 0000 0000 0080 0000 0000 0000 0000
00000290: 0000 0000 0000 0000 0000 0000 0000 0000
000002a0: 0000 0080 0000 0000 0000 0000 0000 0080
000002b0: 0000 0000 0000 0000 0000 0000 0000 0000
000002c0: 0000 0080 0000 0080 0000 0000 0000 0080
000002d0: 0000 0080 0000 0000 0000 0000 0000 0080
000002e0: 0000 0080 0000 0000 0000 0000 0000 0000
000002f0: 0000 0000 0000 0000 0000 0000 0000 0000
00000300: 0000 0080 0000 0080 0000 0080 9119 323c
00000310: 9672 943b aace f63b 0000 0000 0000 0080
00000320: 0000 0080 0000 0000 0000 0000 0000 0000
00000330: f1d9 9f3b 6e0f 3d3b 35c0 a73a 0000 0080
00000340: 0000 0000 0000 0080 253b 603b 6fca 433a
00000350: f465 243c 11ec d43a 1a87 d93a c80f ba3a
00000360: 0000 0000 0000 0000 0000 0000 0000 0000
00000370: 0000 0080 0000 0080 0000 0080 0000 0080
00000380: 0000 0080 0000 0000 0000 0000 0000 0000
00000390: 6d95 f238 d8f3 85ba cf79 8b3b 0000 0080
000003a0: 0000 0080 0000 0080 0000 0000 0000 0000
000003b0: 0000 0000 0ee9 b13b f438 e63b a57f dc38
000003c0: 0000 0080 0000 0080 0000 0000 97de 4cb3
000003d0: ac38 66b3 5751 46b3 0000 0000 0000 0000
000003e0: 0000 0080 0000 0000 0000 0000 0000 0000
000003f0: 8a40 f1b2 b70d 17b3 ef2a f8b2 0000 0080
0.0 0.0 0.0 7.8261665e-13 -2.162408e-09 6.3871504e-09 -0.0 0.0
0.0 -0.0 -0.0 -0.0 2.2185562e-09 3.2060783e-09 1.1346887e-08 -0.0
0.0 0.0 -1.33705536e-08 -2.8744358e-08 -1.1942512e-08 -5.6284777e-10 -6.000477e-10 -3.9680592e-10
-0.0 -0.0 -0.0 0.0 0.0 0.0 -0.0 -0.0
-0.0 0.0 0.0 0.0 -1.9774867e-24 -1.5677082e-10 -1.343247e-10 -0.0
-0.0 0.0 0.0 0.0 0.0 -1.1229479e-08 -1.0978086e-08 3.0949834e-09
0.0 -0.0 0.0 -7.015882e-08 -4.7577934e-08 -4.7629893e-08 0.0 -0.0
0.0 0.0 -0.0 -0.0 -4.944834e-08 -5.1881948e-08 -4.6620432e-08 0.0
0.0 -0.0 6.521645e-08 -4.9391913e-09 -5.7743517e-08 -1.0177575e-07 -1.2915604e-07 -1.0855871e-07
0.0 -0.0 -0.0 -0.0 -0.0 -0.0 0.0 0.0
-0.0 0.0 0.0 0.0 -1.7612457e-08 -2.3592172e-08 -1.3868599e-07 -0.0
-0.0 0.0 0.0 0.0 -0.0 -1.4399921e-08 -2.2590756e-08 -7.682021e-08
0.0 -0.0 -0.0 -0.0 -0.0 0.0 -0.0 0.0
-0.0 0.0 0.0 0.0 0.0 -0.0 0.0 -0.0
-0.0 0.0 0.0 0.0 0.0 -0.0 0.0 0.0
-0.0 0.0 0.0 0.0 0.0 0.0 0.0 0.0
-0.0 -0.0 0.0 -0.0 -0.0 -0.0 0.0 -0.0
0.0 0.0 0.0 0.0 -0.0 -0.0 -0.0 0.0
-0.0 -0.0 -0.0 0.0 0.0 0.0 -0.0 -0.0
0.0 0.0 -0.0 0.0 0.0 0.0 0.0 -0.0
0.0 -0.0 0.0 0.0 0.0 0.0 0.0 0.0
-0.0 0.0 0.0 -0.0 0.0 0.0 0.0 0.0
-0.0 -0.0 0.0 -0.0 -0.0 0.0 0.0 -0.0
-0.0 0.0 0.0 0.0 0.0 0.0 0.0 0.0
-0.0 -0.0 -0.0 0.010870353 0.0045302613 0.0075319605 0.0 -0.0
-0.0 0.0 0.0 0.0 0.0048782756 0.0028848308 0.0012798371 -0.0
0.0 -0.0 0.003421494 0.00074688246 0.010034073 0.001624467 0.001659605 0.0014195377
0.0 0.0 0.0 0.0 -0.0 -0.0 -0.0 -0.0
-0.0 0.0 0.0 0.0 0.00011567292 -0.0010219766 0.004256464 -0.0
-0.0 -0.0 0.0 0.0 0.0 0.0054293936 0.0070258323 0.00010514193
-0.0 -0.0 0.0 -4.7699896e-08 -5.360259e-08 -4.6174446e-08 0.0 0.0
-0.0 0.0 0.0 0.0 -2.8085442e-08 -3.51699e-08 -2.8890524e-08 -0.0

exp_avg_sq f4 [32, 16, 3]
00000000: f401 0000 f401 0000 f401 0000 fcef da2e
00000010: 313a 0e2f b589 eb2e f401 0000 f401 0000
00000020: f401 0000 f401 0000 f401 0000 f401 0000
00000030: ff06 7d2e 6865 b02e 3f81 8c2e f401 0000
00000040: f401 0000 f401 0000 d1b1 b02d cc6e 2d2e
00000050: 198f 8c2d 363b 9c2c d7b1 a12c 6cf2 812c
00000060: f401 0000 f401 0000 f401 0000 f401 0000
00000070: f401 0000 f401 0000 f401 0000 f401 0000
00000080: f401 0000 f401 0000 f401 0000 f401 0000
00000090: 3d0f 032a 7e58 572c 0250 572c f401 0000
000000a0: f401 0000 f401 0000 f401 0000 f401 0000
000000b0: f401 0000 c4a6 d12e 5374 032f 4afc 8c2e
000000c0: f401 0000 f401 0000 f401 0000 06d1 e435
000000d0: 932c 1836 4172 f535 f401 0000 f401 0000
000000e0: f401 0000 f401 0000 f401 0000 f401 0000
000000f0: 785d 8135 c0ff b735 5a98 8e35 f401 0000
00000100: f401 0000 f401 0000 4581 cc34 ee44 4e35
00000110: 90eb a634 ae72 a033 1839 9e33 d9f3 6e33
00000120: f401 0000 f401 0000 f401 0000 f401 0000
00000130: f401 0000 f401 0000 f401 0000 f401 0000
00000140: f401 0000 f401 0000 f401 0000 f401 0000
00000150: e12f b730 c77b 7033 b7ee 6f33 f401 0000
00000160: f401 0000 f401 0000 f401 0000 f401 0000
00000170: f401 0000 afd1 de35 dd41 0b36 fd5f 9135
00000180: f401 0000 f401 0000 f401 0000 bab9 8927
00000190: edd8 c127 97b9 5d27 f401 0000 f401 0000
000001a0: f401 0000 f401 0000 f401 0000 f401 0000
000001b0: 2442 5e27 e2e7 ab27 3d96 6227 f401 0000
000001c0: f401 0000 f401 0000 6924 b327 b6ba f227
000001d0: 055c 6827 3ce9 9f25 e030 9625 68ca 7425
000001e0: f401 0000 f401 0000 f401 0000 f401 0000
000001f0: f401 0000 f401 0000 f401 0000 f401 0000
00000200: f401 0000 f401 0000 f401 0000 f401 0000
00000210: 1f52 7421 3407 f225 1b04 1926 f401 0000
00000220: f401 0000 f401 0000 f401 0000 f401 0000
00000230: f401 0000 b415 1928 8717 2e28 5051 8827
00000240: f401 0000 f401 0000 f401 0000 f8e3 ac27
00000250: 99db d127 43e2 9f27 f401 0000 f401 0000
00000260: f401 0000 f401 0000 f401 0000 f401 0000
00000270: 01bc 1e27 0f95 4927 db4b 2b27 f401 0000
00000280: f401 0000 f401 0000 0796 5c26 103e 2927
00000290: e294 4026 5dd7 8125 2b9c 5825 f921 4725
000002a0: f401 0000 f401 0000 f401 0000 f401 0000
000002b0: f401 0000 f401 0000 f401 0000 f401 0000
000002c0: f401 0000 f401 0000 f401 0000 f401 0000
000002d0: 8563 1e23 5f79 a024 d34b d124 f401 0000
000002e0: f401 0000 f401 0000 f401 0000 f401 0000
000002f0: f401 0000 2a2b 8227 eef4 c227 170e 4c27
00000300: f401 0000 f401 0000 f401 0000 02cb e139
00000310: 9788 e039 6e1a d039 f401 0000 f401 0000
00000320: f401 0000 f401 0000 f401 0000 f401 0000
00000330: 28ea 1d39 b90d 2d39 0c3e cb39 f401 0000
00000340: f401 0000 f401 0000 8af7 9739 1c98 553a
00000350: e396 ed39 915f e638 7a31 2939 e4bf 2439
00000360: f401 0000 f401 0000 f401 0000 f401 0000
00000370: f401 0000 f401 0000 f401 0000 f401 0000
00000380: f401 0000 f401 0000 f401 0000 f401 0000
00000390: 4535 7336 6f39 5f37 e53e aa38 f401 0000
000003a0: f401 0000 f401 0000 f401 0000 f401 0000
000003b0: f401 0000 accc 9139 ad6d 8a3a 0fe1 4e3a
000003c0: f401 0000 f401 0000 f401 0000 3f86 5d2e
000003d0: 64c4 822e 7422 482e f401 0000 f401 0000
000003e0: f401 0000 f401 0000 f401 0000 f401 0000
000003f0: f1e7 e32d e4fb 132e e353 d62d f401 0000
7e-43 7e-43 7e-43 9.956122e-11 1.2935499e-10 1.07110244e-10 7e-43 7e-43
7e-43 7e-43 7e-43 7e-43 5.7531754e-11 8.021567e-11 6.3894216e-11 7e-43
7e-43 7e-43 2.008785e-11 3.9434053e-11 1.5979705e-11 4.4403604e-12 4.5956394e-12 3.6933148e-12
7e-43 7e-43 7e-43 7e-43 7e-43 7e-43 7e-43 7e-43
7e-43 7e-43 7e-43 7e-43 1.1640424e-13 3.060246e-12 3.059775e-12 7e-43
7e-43 7e-43 7e-43 7e-43 7e-43 9.533843e-11 1.1955707e-10 6.4112785e-11
7e-43 7e-43 7e-43 1.7048158e-06 2.267571e-06 1.8287175e-06 7e-43 7e-43
7e-43 7e-43 7e-43 7e-43 9.638452e-07 1.3708996e-06 1.0624165e-06 7e-43
7e-43 7e-43 3.8092017e-07 7.6841286e-07 3.1091304e-07 7.471441e-08 7.3678336e-08 5.563547e-08
7e-43 7e-43 7e-43 7e-43 7e-43 7e-43 7e-43 7e-43
7e-43 7e-43 7e-43 7e-43 1.332861e-09 5.599193e-08 5.5863634e-08 7e-43
7e-43 7e-43 7e-43 7e-43 7e-43 1.6601315e-06 2.0750952e-06 1.0831278e-06
7e-43 7e-43 7e-43 3.8226504e-15 5.3803452e-15 3.077052e-15 7e-43 7e-43
7e-43 7e-43 7e-43 7e-43 3.0844544e-15 4.7713442e-15 3.1445245e-15 7e-43
7e-43 7e-43 4.9721956e-15 6.7370925e-15 3.2246352e-15 2.774015e-16 2.605397e-16 2.1232204e-16
7e-43 7e-43 7e-43 7e-43 7e-43 7e-43 7e-43 7e-43
7e-43 7e-43 7e-43 7e-43 8.27791e-19 4.198519e-16 5.30881e-16 7e-43
7e-43 7e-43 7e-43 7e-43 7e-43 8.497912e-15 9.664042e-15 3.783574e-15
7e-43 7e-43 7e-43 4.7986754e-15 5.824724e-15 4.437668e-15 7e-43 7e-43
7e-43 7e-43 7e-43 7e-43 2.2028822e-15 2.7975158e-15 2.3772138e-15 7e-43
7e-43 7e-43 7.653116e-16 2.3487106e-15 6.6815155e-16 2.2523869e-16 1.8787925e-16 1.7272009e-16
7e-43 7e-43 7e-43 7e-43 7e-43 7e-43 7e-43 7e-43
7e-43 7e-43 7e-43 7e-43 8.586271e-18 6.959455e-17 9.076775e-17 7e-43
7e-43 7e-43 7e-43 7e-43 7e-43 3.6129047e-15 5.411137e-15 2.8318325e-15
7e-43 7e-43 7e-43 0.00043066597 0.00042826377 0.00039692543 7e-43 7e-43
7e-43 7e-43 7e-43 7e-43 0.00015059917 0.00016503678 0.00038765406 7e-43
7e-43 7e-43 0.00028985395 0.0008147971 0.00045316582 0.00010985055 0.00016135527 0.00015711744
7e-43 7e-43 7e-43 7e-43 7e-43 7e-43 7e-43 7e-43
7e-43 7e-43 7e-43 7e-43 3.6240829e-06 1.3305208e-05 8.117947e-05 7e-43
7e-43 7e-43 7e-43 7e-43 7e-43 0.00027809048 0.001056125 0.0007891813
7e-43 7e-43 7e-43 5.0368817e-11 5.9466015e-11 4.5505336e-11 7e-43 7e-43
7e-43 7e-43 7e-43 7e-43 2.5909915e-11 3.3647654e-11 2.4366236e-11 7e-43

exp_avg f4 [32]
00000000: 041b 5db3 c576 75b2 22d0 a0aa 81e0 0897
00000010: 1904 1e3d 2966 09b4 2944 a5ba ad0a 7ea7
00000020: d0dc ec3b 5a36 068f bda2 02bd 6ac5 06ae
00000030: 08fa 37b3 5700 0080 7fca 20b3 1027 1aab
00000040: 191e 6b34 8c33 2a9b f131 d7b3 04e6 a1a0
00000050: 8d61 1e3d dff3 8f9a e8f0 50a4 1fd6 afb5
00000060: 5134 51ae d831 89b4 e7f3 10b2 5319 3eb3
00000070: c77f f2b3 51d1 32b4 6d9c 4681 acc6 26b4
-5.1480143e-08 -1.4287882e-08 -2.856613e-13 -4.4227334e-25 0.038578127 -1.2796285e-07 -0.0012608814 -3.5255368e-15
0.0072284713 -6.617178e-30 -0.03189348 -3.064341e-11 -4.283541e-08 -1.22e-43 -3.7437072e-08 -5.4766e-13
2.189703e-07 -1.4078726e-22 -1.0020802e-07 -2.7426672e-19 0.03866725 -5.953741e-23 -4.5306866e-17 -1.3100833e-06
-4.7567564e-11 -2.5554505e-07 -8.43736e-09 -4.4260855e-08 -1.1292246e-07 -1.665369e-07 -3.6479086e-38 -1.5532231e-07

exp_avg_sq f4 [32]
00000000: d6e5 3231 bc74 4938 f831 df2a bc8c 032a
00000010: 1bb5 8e3c 4550 c730 aca9 a33b cb0c 252b
00000020: a8b0 813c 8391 fa28 94ae 2c3c 23b4 362c
00000030: 7d20 6a32 4c1e 2b29 84f7 dc2d a83a 9e2b
00000040: 6f2e 0a37 eaf7 072a cc1d ab32 9913 902a
00000050: 14e8 0f3d d34a 242a 3f2e 2d2a 9f20 5937
00000060: 4d5b 972b 9be6 d431 6e2d fa2d 1bba 6c2e
00000070: de1c 242f 301e a631 06bd 2029 cae6 8030
2.6033056e-09 4.803085e-05 3.964743e-13 1.1683964e-13 0.017420342 1.450197e-09 0.0049945917 5.863753e-13
0.015831307 2.7818681e-14 0.01053967 2.5963752e-12 1.362798e-08 3.7995906e-14 2.5121023e-11 1.1242856e-12
8.236252e-06 1.2076421e-13 1.992057e-08 2.5593137e-13 0.035133436 1.4592086e-13 1.5381531e-13 1.2941803e-05
1.0754536e-12 6.196229e-09 2.8441884e-11 5.3825482e-11 1.4925969e-10 4.8346678e-09 3.569109e-14 9.37882e-10

exp_avg f4 [32, 1]
00000000: 0000 0000 ce1c 973c 0000 0000 0965 d03b
00000010: 0aba 2e3a 0000 0080 f1ee 3a3a 4b2b 7db9
00000020: 0000 0000 6c75 e03b 05b0 bf3b 0000 0080
00000030: 14ba 243b 0000 0080 9f7d a2bb 0000 0080
00000040: 0000 0080 0000 0080 13eb d63b d695 a83b
00000050: 4dc9 773c 473d 5e3b 0000 0000 7925 113a
00000060: 0000 0080 d58e 063b 0000 0080 0000 0080
00000070: f22b d739 d13b e33b 0dd4 8eb3 0000 0080
0.0 0.018446352 0.0 0.0063597006 0.0006665295 -0.0 0.0007130942 -0.00024144088
0.0 0.0068499353 0.0058498406 -0.0 0.0025135325 -0.0 -0.004958823 -0.0
-0.0 -0.0 0.0065587847 0.005144815 0.015123677 0.0033911036 0.0 0.0005536895
-0.0 0.0020531912 -0.0 -0.0 0.00041040737 0.006934621 -6.650962e-08 -0.0

exp_avg_sq f4 [32, 1]
00000000: f401 0000 017e b33a f401 0000 8c97 f139
00000010: 0533 8836 f401 0000 3a4b ac3a 2a7a 773a
00000020: f401 0000 71ce 663a 7b6d a539 f401 0000
00000030: c60c 003a f401 0000 c075 673a f401 0000
00000040: f401 0000 f401 0000 daa3 9839 776f 5f39
00000050: 140b 883a c096 a039 f401 0000 a991 9936
00000060: f401 0000 3d7b c339 f401 0000 f401 0000
00000070: 0cc7 b738 66c5 de39 34d7 282f f401 0000
7e-43 0.0013694168 7e-43 0.00046080013 4.0590553e-06 7e-43 0.0013144978 0.0009440506
7e-43 0.0008804566 0.00031552822 7e-43 0.0004884716 7e-43 0.0008829497 7e-43
7e-43 7e-43 0.00029113778 0.00021308461 0.0010379278 0.00030629896 7e-43 4.5767124e-06
7e-43 0.00037285118 7e-43 7e-43 8.7631954e-05 0.00042490213 1.5355966e-10 7e-43

exp_avg f4 [32]
00000000: 0000 0080 fdfd 063d 0000 0080 9aa8 883c
00000010: 54c1 963b 0000 0080 0c57 583a d98c a7ba
00000020: 0000 0080 d0fa 2f3c 0224 6e3c 0000 0080
00000030: 3da4 033c 0000 0080 45f7 0ebc 0000 0080
00000040: 0000 0080 0000 0080 56e9 913c 282a 5b3c
00000050: ce87 e63c a36d 383c 0000 0080 410b 03bd
00000060: 0000 0080 e927 ca3b 0000 0080 0000 0080
00000070: 8553 f43b b5d4 903c 14e3 d0b1 0000 0080
-0.0 0.032957066 -0.0 0.016681958 0.004600683 -0.0 0.0008252717 -0.0012783065
-0.0 0.010740951 0.014534952 -0.0 0.008034763 -0.0 -0.008725946 -0.0
-0.0 -0.0 0.017811459 0.01337675 0.028140929 0.011256608 -0.0 -0.031993154
-0.0 0.0061693084 -0.0 -0.0 0.0074562454 0.017679552 -6.0794125e-09 -0.0

exp_avg_sq f4 [32]
00000000: f401 0000 cdbd 8e3b f401 0000 1a7d 173b
00000010: b4cb 6a3c f401 0000 ac85 893b 6c6a 273b
00000020: f401 0000 b761 1b3b 29a8 f73a f401 0000
00000030: 9b66 1c3b f401 0000 1091 1b3b f401 0000
00000040: f401 0000 f401 0000 f7d6 e83a 0098 b23a
00000050: 1264 6a3b e448 f33a f401 0000 6bf5 853c
00000060: f401 0000 934d 0a3b f401 0000 f401 0000
00000070: 70df d83a 7bd1 0c3b 01ac 9f30 f401 0000
7e-43 0.004356122 7e-43 0.0023115338 0.014330793 7e-43 0.004196843 0.002554561
7e-43 0.0023709366 0.001889472 7e-43 0.0023864869 7e-43 0.0023737587 7e-43
7e-43 7e-43 0.001776426 0.0013625622 0.0035765213 0.0018561152 7e-43 0.016352376
7e-43 0.0021103367 7e-43 7e-43 0.0016546082 0.0021487165 1.1617659e-09 7e-43

exp_avg f4 [64, 320]
00000000: 0be2 cb23 ea19 fc26 fa67 1824 19b5 b821
00000010: 38a5 931e 4298 231e 1aa6 2d22 60e1 1b26
00000020: 77a8 6623 763a 95b2 4da8 e4b1 b38e 9031
00000030: d312 8232 c10e 2733 d54d 2d33 a611 4733
00000040: f649 4132 7430 a6b1 0000 0000 0000 0000
00000050: 0000 0000 0000 0080 0000 0080 0000 0000
00000060: 0000 0000 0000 0000 0000 0000 0000 0000
00000070: 0000 0000 0000 0000 0000 0000 0000 0000
00000080: 0000 0000 0000 0000 0000 0000 0000 0080
00000090: 5b36 20ba f66e d3ba 89bd 7dba 2797 faba
000000a0: 5a5c 1dbb 1877 4abb fd88 9aba e300 18ba
000000b0: e565 00b9 0000 0000 0000 0080 0000 0080
000000c0: 0000 0000 0000 0080 0000 0000 0000 0000
000000d0: 0000 0000 0000 0000 fa09 76b6 fb2a 0aba
000000e0: e977 5bb9 60b9 1eb9 6b12 42b7 b1e4 2639
000000f0: b994 c338 db6a 1c39 0216 a1ba 0000 0080
00000100: 0000 0080 0000 0000 0000 0000 0000 0000
00000110: 0000 0000 0000 0000 0000 0080 0000 0080
00000120: 667d bab7 0000 0000 2b3c 30ba 9aa9 f5ba
00000130: 949b 36ba 797e 1bb9 78df fcb8 1299 55ba
00000140: 344a 9db8 801f b28b 4da4 ba08 1963 178b
00000150: 5112 028c 2904 308c 49dc bc8c cec6 0b8d
00000160: 0bf7 078d c9dc 658c 0000 0080 6e74 4e39
00000170: 0baa b939 e4b0 5439 99f1 0a39 99f1 ca38
00000180: 4ebb 1c39 fc09 74b8 f286 9db9 0000 0000
00000190: 0000 0000 0000 0000 0000 0000 0000 0000
000001a0: 0000 0000 0000 0000 0000 0000 0000 0000
000001b0: 1f45 4428 3c74 952a 57ed 3d28 84bd eb27
000001c0: 2853 5327 7c9e 2127 9f79 9427 5ab8 472a
000001d0: 89e1 eb27 0100 0000 0200 0080 0000 0080
000001e0: 0100 0000 0000 0000 0200 0000 0100 0000
000001f0: 0100 0000 0100 0000 0000 0000 6701 0000
00000200: 0000 0080 0100 0000 0000 0080 0000 0000
00000210: 0000 0000 1e12 0000 1900 0000 0000 0000
00000220: 0000 0000 0000 0080 0000 0080 0000 0000
00000230: 0000 0000 0000 0000 0000 0000 0000 0000
00000240: 98f7 95b4 bba0 d9b4 e353 93b4 e2bb 05b5
00000250: 668c a0b4 5b50 4c34 0dca 1234 72c7 ed34
00000260: d6cf a133 0000 0080 0000 0080 0000 0000
00000270: 0000 0080 0000 0000 0000 0000 0000 0000
00000280: 0000 0000 0000 0080 2c10 8f11 ce9a 48af
00000290: cd0c 42ad d6ca fdaf 7cc4 e9af 37b8 deac
000002a0: 887c dc9a 96a8 0b12 2b5b 06a1 0000 0000
000002b0: 0000 0080 0000 0000 0000 0000 0000 0000
000002c0: 0000 0000 0000 0000 0000 0000 0000 0000
000002d0: e25b c6b8 d874 ffb7 f022 91ba 2c89 d8ba
000002e0: 5580 1bbb 591f 77ba b5d3 0b36 652b 42b9
000002f0: 8b8a c6b8 0000 0000 0000 0080 0000 0080
00000300: 0000 0000 0000 0000 0000 0000 0000 0000
00000310: 0000 0080 0000 0080 0000 0080 0000 0000
00000320: 0000 0000 0000 0000 0000 0080 0000 0080
00000330: 0000 0000 0000 0000 0000 0000 7cab bf34
00000340: 6f99 d134 446d d534 1542 cb34 acf6 c234
00000350: 8311 b334 d006 b034 c006 a034 5670 8d34
00000360: 0000 0000 0000 0000 0000 0000 0000 0080
00000370: 0000 0080 0000 0000 0000 0000 0000 0080
00000380: 0000 0000 1db8 2c30 ebcb 0d31 29a6 f030
00000390: 2a36 6d30 e9a9 c12e e4dd 2a2d 1e5b cb2e
000003a0: fab3 a230 13f8 1531 0000 0000 0000 0000
000003b0: 0000 0000 0000 0000 0000 0000 0000 0000
000003c0: 0000 0000 0000 0080 0000 0080 0000 0080
000003d0: 0000 0080 0000 0080 0000 0000 0000 0000
000003e0: 0000 0080 0000 0080 0000 0000 0000 0080
000003f0: 0000 0000 0500 0000 0200 0000 0200 0000
2.2105037e-17 1.7493037e-15 3.3047818e-17 1.2516261e-18 1.5632563e-20 8.660634e-21 2.3533805e-18 5.408187e-16
1.2503999e-17 -1.7372468e-08 -6.654807e-09 4.2071746e-09 1.5142552e-08 3.8896136e-08 4.035049e-08 4.634935e-08
1.1250895e-08 -4.8367443e-09 0.0 0.0 0.0 -0.0 -0.0 0.0
0.0 0.0 0.0 0.0 0.0 0.0 0.0 0.0
0.0 0.0 0.0 -0.0 -0.0006111615 -0.0016131091 -0.0009679427 -0.0019118533
-0.0024011345 -0.003089374 -0.0011790093 -0.0005798472 -0.0001224499 0.0 -0.0 -0.0
0.0 -0.0 0.0 0.0 0.0 0.0 -3.6662664e-06 -0.0005270687
-0.00020930138 -0.00015137112 -1.1567589e-05 0.00015916188 9.326026e-05 0.00014917126 -0.0012289884 -0.0
-0.0 0.0 0.0 0.0 0.0 0.0 -0.0 -0.0
-2.2231321e-05 0.0 -0.0006722833 -0.0018742562 -0.0006965932 -0.00014829067 -0.00012057921 -0.00081481144
-7.500165e-05 -6.86105e-32 1.1233095e-33 -2.9156095e-32 -1.0020348e-31 -1.3559799e-31 -2.9098566e-31 -4.3071984e-31
-4.1897454e-31 -1.7707958e-31 -0.0 0.00019689064 0.00035412642 0.00020283792 0.00013250708 9.677112e-05
0.00014947096 -5.8183432e-05 -0.00030045916 0.0 0.0 0.0 0.0 0.0
0.0 0.0 0.0 0.0 1.0895174e-14 2.654837e-13 1.05430725e-14 6.5431076e-15
2.9327211e-15 2.2429153e-15 4.1210114e-15 1.773871e-13 6.547013e-15 1e-45 -3e-45 -0.0
1e-45 0.0 3e-45 1e-45 1e-45 1e-45 0.0 5.03e-43
-0.0 1e-45 -0.0 0.0 0.0 6.499e-42 3.5e-44 0.0
0.0 -0.0 -0.0 0.0 0.0 0.0 0.0 0.0
-2.793356e-07 -4.0536347e-07 -2.744192e-07 -4.9819766e-07 -2.9904476e-07 1.9028214e-07 1.3670815e-07 4.4289806e-07
7.534952e-08 -0.0 -0.0 0.0 -0.0 0.0 0.0 0.0
0.0 -0.0 2.2571389e-28 -1.8244892e-10 -1.1030466e-11 -4.6164556e-10 -4.2522064e-10 -6.3300714e-12
-9.119106e-23 4.4068465e-28 -4.5521626e-19 0.0 -0.0 0.0 0.0 0.0
0.0 0.0 0.0 0.0 -9.45849e-05 -3.0452778e-05 -0.0011073034 -0.0016520373
-0.0023727615 -0.00094269734 2.0835844e-06 -0.00018517447 -9.4671814e-05 0.0 -0.0 -0.0
0.0 0.0 0.0 0.0 -0.0 -0.0 -0.0 0.0
0.0 0.0 -0.0 -0.0 0.0 0.0 0.0 3.5701294e-07
3.904092e-07 3.9753843e-07 3.7859778e-07 3.6314793e-07 3.335409e-07 3.278751e-07 2.9807234e-07 2.6345032e-07
0.0 0.0 0.0 -0.0 -0.0 0.0 0.0 -0.0
0.0 6.2834876e-10 2.0634114e-09 1.7509524e-09 8.629707e-10 8.806806e-11 9.712651e-12 9.247557e-11
1.1838204e-09 2.1823368e-09 0.0 0.0 0.0 0.0 0.0 0.0
0.0 -0.0 -0.0 -0.0 -0.0 -0.0 0.0 0.0
-0.0 -0.0 0.0 -0.0 0.0 7e-45 3e-45 3e-45
