model_checkpoint.pth (torch, 14562 bytes, 5 tensors)

fc1.weight f4 [64, 11]
0.24924 0.19410953 0.12893814 -0.08697353 0.26586485 0.12477152 -0.010461937 -0.0109697245
0.24402098 0.24175018 -0.2987697 -0.10278448 0.16633752 -0.055367682 -0.16334292 -0.17209831
0.0026205583 -0.1187123 0.009599137 0.06545148 0.16618048 0.08906135 0.01340207 0.0036665283
-0.008459242 -0.008587347 -0.017789697 0.015753144 -0.009672466 -0.014486271 0.0045406036 -0.0007410975
-0.0018347726 -3.4201864e-07 -2.0468582e-07 -2.6029798e-07 -2.1367623e-07 -4.1424727e-07 -2.1420878e-07 -1.4286397e-07
-4.1033977e-07 -2.1889336e-07 -2.84887e-07 -5.2984204e-09 -0.0030159755 0.00042992926 -0.0020332735 -0.0006551163
-0.00051776954 -0.00032773253 -0.0011574215 -0.000989106 -0.00024543545 0.0006170834 0.005091117 -0.073363855
0.2436538 -0.14163128 0.13477008 0.23702331 0.1327178 0.1924001 0.101751104 -0.015742315
-0.23256226 0.026029933 -0.00033925616 -0.00037871877 -0.0004362481 -0.00038280073 -0.000434041 -0.00042036228
-0.00042320654 -0.00041911277 -0.00035339966 -0.00042445268 -9.3801485e-05 -0.000101604535 -0.00013110189 -7.541738e-05
-0.00016465604 -0.00011855257 -9.342996e-05 -0.00013101411 -9.110432e-05 -9.205401e-05 -0.00010727311 -5.8199257e-06
-0.071882166 0.06296126 0.08814659 -0.14114577 -0.1598902 0.0424077 -0.012927798 0.13810773
-0.050525323 0.07312638 -0.13173442 -0.0031261055 -0.0031809246 -0.0032478853 -0.0030834384 -0.0032022754
-0.003141845 -0.003106179 -0.003104825 -0.0032480948 -0.003196639 -0.0008352016 0.0051355087 0.010968483
0.0075966134 0.0058696372 0.0053334446 0.007224519 0.005995155 0.0044015865 0.0050800852 0.0049922317
-0.0020275433 -0.052810557 0.04377914 0.028176274 -0.030545784 -0.05193854 0.008692045 -0.020505486
0.010943868 0.06038324 -0.035632625 0.042248 -0.06876194 0.0308483 0.014161342 0.031998765
0.012084688 0.032920547 -0.013724055 -0.056620017 0.028653398 -0.02577669 -0.0061415085 0.016739486
0.042269897 0.05199012 -0.067852706 0.041520696 -0.047236577 -0.04971902 -0.04831396 -0.031247914
-0.004949422 0.012007561 -0.110826515 0.046687007 -0.11602016 -0.12720935 -0.025809469 0.08738615
0.04183804 0.07719007 0.109117 0.02974298 0.07733557 -0.0029040843 -0.010570517 0.005309701
0.001827982 0.0018759524 -0.0063326918 0.0022277525 -0.0049011894 0.004283743 -0.00031201617 0.0019141866
-2.1484877e-06 -2.429775e-06 -2.5382735e-06 -2.415683e-06 -1.1522148e-06 -1.6303525e-06 -1.7360121e-06 7.836433e-07
-2.5963077e-06 -1.2549953e-06 8.454567e-09 -0.025534192 0.04077732 -0.016391229 0.024200946 -0.0015031252
-0.039085485 -0.04236857 -0.036709473 0.026301228 0.024974031 0.007867047 -0.0021233554 -0.0021874623
-0.0021434505 -0.002210745 -0.0021536036 -0.002480819 -0.0024706894 -0.0020317675 -0.0023038352 -0.0020353722
-0.00061866775 -1.2039391e-11 -2.1289427e-11 2.3049831e-11 -1.3516782e-11 -4.955799e-12 -1.2492991e-11 -1.5988294e-11
-2.1966193e-11 -7.4820575e-12 -7.018005e-11 1.9851963e-12 0.19226031 -0.22692603 -0.20600276 0.08956202
0.11298439 0.111853346 -0.21296494 -0.18871193 0.059337597 0.13496229 0.11054816 -4.8625366e-06
7.4526815e-07 -3.5633057e-06 -4.8479606e-06 -4.5100173e-06 -4.6262453e-06 -3.6727415e-06 -1.8594224e-06 -3.827151e-06
-6.0435195e-06 9.847679e-07 -4.417585e-08 -7.508524e-08 -5.6806755e-08 -5.1362075e-08 -5.908579e-08 -4.938481e-08
-3.1593174e-08 -5.5524723e-08 -3.7162707e-08 -5.401804e-08 -8.3513635e-10 2.8803615e-12 2.6441007e-12 2.8644194e-12
00000000: c538 7f3e a6c4 463e 5c08 043e 2e1f b2bd
00000010: 701f 883e 3688 ff3d 8b68 2bbc 5cba 33bc
00000020: a3e0 793e 5c8d 773e 58f8 98be ab80 d2bd
00000030: 6254 2a3e 39c9 62bd 5e43 27be 8a3a 30be
00000040: acbd 2b3b 6f1f f3bd b345 1d3c 6d0b 863d
00000050: 372b 2a3e cc65 b63d 5b94 5b3c 234a 703b
00000060: a298 0abc f2b1 0cbc b3bb 91bc bd0c 813c
00000070: 4379 1ebc d357 6dbc 58c9 943b 3646 42ba
00000080: c17c f0ba af9e b7b4 9cc7 5bb4 15bf 8bb4
00000090: e06e 65b4 b665 deb4 4301 66b4 2666 19b4
000000a0: ab4c dcb4 f308 6bb4 92f2 98b4 660d b6b1
000000b0: aca7 45bb 2168 e139 ab40 05bb 1cbc 2bba
000000c0: edba 07ba 84d3 abb9 9fb4 97ba e4a4 81ba
000000d0: caad 80b9 c4c3 213a 63d3 a63b ca3f 96bd
000000e0: 6280 793e ca07 11be 2b01 0a3e 3db6 723e
000000f0: 2de7 073e 8804 453e e262 d03d 07f6 80bc
00000100: cd24 6ebe ba3c d53c 31de b1b9 c68e c6b9
00000110: 3bb8 e4b9 a5b2 c8b9 ff8f e3b9 1264 dcb9
00000120: d2e1 ddb9 5dbc dbb9 8048 b9b9 1389 deb9
00000130: 4ab7 c4b8 8514 d5b8 6578 09b9 6629 9eb8
00000140: 85a7 2cb9 6d9f f8b8 d4ef c3b8 d560 09b9
00000150: 420f bfb8 1f0d c1b8 d0f7 e0b8 c848 c3b6
00000160: f536 93bd d5f1 803d 3386 b43d 8488 10be
00000170: 42ba 23be b2b3 2d3d 1dcf 53bc 1d6c 0d3e
00000180: a4f3 4ebd 49c3 953d 63e5 06be 59df 4cbb
00000190: 0f77 50bb 79da 54bb 8313 4abb 44dd 51bb
000001a0: 6ae7 4dbb 0991 4bbb 527a 4bbb fddd 54bb
000001b0: b47e 51bb 6ef1 5aba c547 a83b 27b5 333c
000001c0: 03ed f83b 1656 c03b 2dc4 ae3b a8bb ec3b
000001d0: 0173 c43b 2f3b 903b d876 a63b e095 a33b
000001e0: 88e0 04bb e24f 58bd c151 333d eed1 e63c
000001f0: 273b fabc 82bd 54bd 1469 0e3c 1ffb a7bc
00000200: e94d 333c 6b54 773d 84f3 11bd 3d0c 2d3d
00000210: 0fd3 8cbd 93b5 fc3c f904 683c 2311 033d
00000220: dbfe 453c b2d7 063d dcda 60bc 64ea 67bd
00000230: 88ba ea3c a329 d3bc b53e c9bb 3f21 893c
00000240: 3323 2d3d 98f3 543d 5cf6 8abd 9b11 2a3d
00000250: 247b 41bd 2ca6 4bbd dce4 45bd a0fb ffbc
00000260: c32e a2bb 5cbb 443c 03f9 e2bd e03a 3f3d
00000270: fa9b edbd 2b43 02be 616e d3bc 83f7 b23d
00000280: 5d5e 2b3d d415 9e3d bc78 df3d 8da7 f33c
00000290: 1c62 9e3d 7352 3ebb f62f 2dbc 00fd ad3b
000002a0: e698 ef3a 84e2 f53a 7882 cfbb 7cff 113b
000002b0: 289a a0bb a45e 8c3b 1a96 a3b9 72e5 fa3a
000002c0: bd2e 10b6 370f 23b6 3557 2ab6 1e1d 22b6
000002d0: cda5 9ab5 7cd2 dab5 ec00 e9b5 8f5b 5235
000002e0: 3a3c 2eb6 4f71 a8b5 943f 1132 152d d1bc
000002f0: 1e06 273d e646 86bc 1041 c63c 8304 c5ba
00000300: 1a18 20bd aa8a 2dbd ac5c 16bd ac75 d73c
00000310: 5796 cc3c c9e4 003c fe27 0bbb 875b 0fbb
00000320: 2279 0cbb 25e2 10bb 7923 0dbb 3c95 22bb
00000330: 4aeb 21bb 6727 05bb f1fb 16bb e163 05bb
00000340: 172e 22ba 99cc 53ad 8743 bbad 9bbf ca2d
00000350: 2dca 6dad de5d aeac 6ec7 5bad 70a2 8cad
00000360: 7837 c1ad 31a0 03ad db53 9aae 1eb2 0b2c
00000370: e3df 443e 4c5f 68be 63f2 52be 4b6c b73d
00000380: 5c64 e73d 5e13 e53d 7b13 5abe b33d 41be
00000390: fb0b 733d 8e33 0a3e 1367 e23d df28 a3b6
000003a0: 700e 4835 2021 6fb6 aaab a2b6 c154 97b6
000003b0: 253b 9bb6 3879 76b6 4491 f9b5 fa6a 80b6
000003c0: 70c9 cab6 5e2c 8435 dcbb 3db3 8c3e a1b3
000003d0: b0fb 73b3 3399 5cb3 83c5 7db3 2c1b 54b3
000003e0: 10b1 07b3 147a 6eb3 d49c 1fb3 7701 68b3
000003f0: 7f8f 65b0 fbaf 4a2c e20f 3a2c cb90 492c

fc1.bias f4 [64]
-0.20994183 0.094208956 0.016703479 -2.3206516e-07 0.0021585731 -0.1875631 -0.0004410955 -9.452352e-05
0.15378451 -0.0031225185 0.0048487647 -0.016100477 0.0028414382 0.06765464 -0.12597011 0.0035493937
-2.5445372e-06 0.02499003 -0.0024162435 -8.156501e-12 0.11332844 -4.8982433e-06 -4.8966935e-08 2.9028175e-12
-2.902402e-07 0.119889535 0.004525508 0.0897379 -0.11945767 -3.9558573e-12 -0.0018571181 -7.911003e-14
-0.00019505063 -0.019140981 -0.066261075 -9.463017e-06 0.03153742 -0.054308057 0.00084985653 6.5305525e-05
-4.9459613e-06 0.024774285 0.21419376 -7.8363246e-07 0.19497323 -0.10108321 0.06488144 0.17825237
0.0023368895 -0.0013260981 -0.13114753 -0.27709517 0.0025952454 -0.01625696 0.09314366 -0.23805267
3.7680168e-11 -1.6145293e-27 0.015281753 -6.1730185e-05 -0.11838926 -3.0178211e-05 0.015950449 1.951516e-05
00000000: fefa 56be a0f0 c03d bcd5 883c 962d 79b4
00000010: d976 0d3b 8b10 40be d642 e7b9 ee3a c6b8
00000020: b079 1d3e 2ba3 4cbb 63e2 9e3b 26e5 83bc
00000030: 6c37 3a3b 848e 8a3d 4ffe 00be f29c 683b
00000040: d1c2 2ab6 e4b7 cc3c d759 1ebb 9d7d 0fad
00000050: be18 e83d 975b a4b6 b74f 52b3 8344 4c2c
00000060: 4fd2 9bb4 a588 f53d b64a 943b 81c8 b73d
00000070: 39a6 f4bd 322f 8bac 8b6a f3ba d423 b2a9
00000080: 8186 4cb9 8ccd 9cbc e3b3 87bd 59c3 1eb7
00000090: 622d 013d 2072 5ebd e8c8 5e3a a3f4 8838
000000a0: 7cf5 a5b6 71f3 ca3c 9c55 5b3e d05a 52b5
000000b0: 10a7 473e b704 cfbd 8fe0 843d ca87 363e
000000c0: 8026 193b 78d0 adba 8a4b 06be 6bdf 8dbe
000000d0: fe14 2a3b 512d 85bc 1ac2 be3d 14c4 73be
000000e0: 19b8 252e 17d5 ff92 5160 7a3c 2475 81b8
000000f0: 1176 f2bd 3727 fdb7 84aa 823c 7db4 a337

fc2.weight f4 [32, 64]
-0.08045463 -0.021601552 -0.017760403 3.285211e-08 -0.00078357547 0.100163594 2.0825127e-26 -0.001091781
0.050878294 -2.516257e-13 -0.081317455 0.008255206 0.018788295 0.00045607667 0.06340196 0.054122806
-3.6025843e-31 -0.0025922838 0.0057433443 -1.7148905e-24 0.05152746 -3.9257794e-32 0.000105513915 3.01509e-24
-1.5772413e-05 0.027685886 0.0007623768 -0.022911392 -0.02000897 -2.1228938e-27 -2.3705588e-33 -5.258263e-08
-0.00015594088 -0.008855717 0.0018940878 0.0007503584 -0.044005837 -7.976861e-14 2.0471516e-23 4.968934e-07
1.1606812e-16 0.09034341 0.03760972 -8.36277e-22 -0.020590812 0.05125985 -0.006027339 -0.033426784
0.050473284 -0.0022860079 0.031902816 -0.09069244 0.058242843 0.007166731 -0.04630969 0.010161999
-2.1864792e-33 4.9854e-41 0.03550289 0.00060113776 0.021267071 0.0020393813 -0.00737963 2.1925212e-18
0.05910906 -0.017978968 -0.0066494234 -9.758554e-17 -0.00055518944 0.025700055 -1.1304025e-05 0.00013454098
-0.051617432 0.0047103735 0.0043576993 -0.048893414 -0.051177002 0.00013993395 0.044927664 0.052214086
3.3913454e-07 -0.0025548926 -0.0009926856 9.6195695e-18 0.08540278 4.7536137e-06 -4.916762e-10 2.4280057e-12
9.650261e-12 0.07063356 -9.86006e-05 0.08039529 -0.003351073 -2.4095733e-28 1.1371466e-33 -8.831467e-21
1.2221599e-06 0.049863193 -9.219711e-06 -1.4548908e-07 0.013704847 -5.977021e-33 0.0020759534 -2.418792e-09
-2.9107455e-06 0.028789492 0.026643202 1.1880981e-07 0.056303058 0.06959992 0.079060376 0.025523534
-0.066357836 0.00029483697 -0.016765298 -0.038149502 -0.013517979 0.06797504 0.02905719 0.022081114
2.033457e-12 -1.5200088e-27 -0.05362977 -4.36125e-05 0.09482734 -6.8393415e-06 -0.022166448 -2.1490462e-06
-0.057328854 -1.2000521e-11 -0.009821962 -4.9858e-41 5.984e-41 -0.038647264 -4.969e-41 -5.0728e-41
0.037422713 -4.9771e-41 5.0279e-41 -7.9862686e-05 0.028382689 4.9763e-41 -0.0012918296 0.002875203
-4.9878e-41 0.00010671057 5.1411e-41 -4.9289e-41 -0.03073311 5.0225e-41 -5.3073e-41 -5.7808e-41
-5.0492e-41 0.00436189 -6.836211e-08 0.012308524 -5.0042335e-11 5.0416e-41 -5.2298e-41 5.9349e-41
-6.188e-41 -0.00015456036 -9.849841e-11 -5.0357e-41 -7.2566037e-10 4.9184e-41 -5.063e-41 2.6647848e-19
5.2598e-41 -0.008303991 -0.0003609022 -5.051e-41 -0.034185093 0.005050384 0.010435698 0.009383516
0.008940198 -5.35e-41 -8.842904e-14 0.047773216 0.0017109505 0.009185968 -3.1702179e-09 -0.035521504
-5.4955e-41 5.0129e-41 -0.0131615475 -5.0052e-41 0.007730159 -5.3032e-41 -0.05692904 -6.2031e-41
-5.5976116e-06 4.961e-41 -5.8889224e-20 -5.9838e-41 4.9911e-41 -7.42067e-07 5.2734e-41 -4.9312e-41
-2.0919245e-07 5.0018e-41 -4.9844e-41 7.1031035e-30 -1.7813929e-07 4.9714e-41 -4.1105222e-17 -2.1333461e-17
-4.925e-41 -4.9072e-41 6.153e-41 5.0653e-41 -1.4575561e-08 6.2555e-41 -5.042e-41 -4.9383e-41
-5.8045e-41 4.32894e-29 5.0199e-41 4.9065e-41 -4.95e-41 5.0475e-41 -4.9827e-41 4.9533e-41
-5.1673e-41 1.2769194e-29 5.3049e-41 -5.183e-41 -4.914e-41 -5.2368e-41 1.16337e-40 -4.9812e-41
4.9735e-41 -4.283823e-05 -4.9613e-41 5.1477e-41 -3.284244e-05 -1.613667e-16 -4.3702072e-14 -3.7935766e-12
-1.3815498e-20 5.0416e-41 -6.1588e-41 -3.3180143e-06 -1.1911822e-11 -2.822831e-13 -4.926e-41 -2.2299948e-05
5.2343e-41 4.9278e-41 -2.4175024e-23 -5.3588e-41 -1.06370106e-13 5.2309e-41 -5.4675406e-06 4.9166e-41
00000000: 66c5 a4bd bdf5 b0bc 447e 91bc 4719 0d33
00000010: dc68 4dba 9222 cd3d f83d ce14 171a 8fba
00000020: c265 503d 16a7 8daa c489 a6bd d840 073c
00000030: e9e9 993c 931d ef39 e3d8 813d e0af 5d3d
00000040: 33d2 e98c 4ee3 29bb aa32 bc3b e8ae 0498
00000050: 750e 533d 8fd6 4b8b 5a47 dd38 0348 6918
00000060: 004f 84b7 83cd e23c 3eda 473a acb0 bbbc
00000070: dae9 a3bc 6731 2893 36f0 4489 37d7 61b3
00000080: 1084 23b9 9217 11bc 0a43 f83a b3b3 443a
00000090: 773f 34bd 799f b3a9 05fd c519 4162 0535
000000a0: 43d1 0525 f705 b93d a60c 1a3d cdbf 7c9c
000000b0: 10ae a8bc d9f5 513d fc80 c5bb 86ea 08bd
000000c0: 13bd 4e3d d9d0 15bb 87ac 023d f5bc b9bd
000000d0: 0c90 6e3d e6d6 ea3b 3baf 3dbd 837e 263c
000000e0: 45a5 3589 f98a 0000 7a6b 113d ac95 1d3a
000000f0: 4838 ae3c 24a7 053b d3d0 f1bb 8ec7 2122
00000100: 571c 723d a148 93bc 68e3 d9bb 5604 e1a4
00000110: 228a 11ba ec88 d23c 6ba6 3db7 9213 0d39
00000120: cd6c 53bd 7a59 9a3b 08cb 8e3b 7644 48bd
00000130: fa9e 51bd 3cbb 1239 1206 383d 70de 553d
00000140: 4c12 b634 fc6f 27bb 001d 82ba 2273 3123
00000150: a7e7 ae3d 3b81 9f36 a326 07b0 10db 2a2c
00000160: e9c4 292d 54a8 903d cbc7 ceb8 49a6 a43d
00000170: ad9d 5bbb 90b9 9891 def0 bc08 5bd2 269e
00000180: 1809 a435 593d 4c3d 5bae 1ab7 bc37 1cb4
00000190: 4b8a 603c 9746 f889 b80c 083b d737 26b1
000001a0: 3a56 43b6 f1d7 eb3c d842 da3c 6224 ff33
000001b0: 099e 663d 678a 8e3d 68ea a13d bb16 d13c
000001c0: 9ee6 87bd 5994 9a39 6157 89bc a742 1cbd
000001d0: 837a 5dbc 7f36 8b3d 5809 ee3c 74e3 b43c
000001e0: 8117 0f2c e2da f092 e4aa 5bbd 91ec 36b8
000001f0: d634 c23d 7f7d e5b6 6996 b5bc 5538 10b6
00000200: a9d1 6abd 8b1d 53ad 4bec 20bc fc8a 0080
00000210: cfa6 0000 984c 1ebd 848a 0080 698d 0080
00000220: 8f48 193d be8a 0080 288c 0000 f47b a7b8
00000230: d082 e83c b88a 0000 9c52 a9ba e76d 3c3b
00000240: 0a8b 0080 cdc9 df38 508f 0000 6689 0080
00000250: 01c4 fbbc 028c 0000 f293 0080 25a1 0080
00000260: c08c 0080 2fee 8e3b 78ce 92b3 b1a9 493c
00000270: a916 5cae 8a8c 0000 c991 0080 71a5 0000
00000280: 7fac 0080 7b11 22b9 ad99 d8ae 608c 0080
00000290: cf77 47b0 1b89 0000 238d 0080 174d 9d20
000002a0: 9f92 0000 760d 08bc 7937 bdb9 cd8c 0080
000002b0: ab05 0cbd b17d a53b 7dfa 2a3c 52bd 193c
000002c0: e979 123c 2395 0080 df1f c7a9 d9ad 433d
000002d0: f941 e03a be80 163c 10db 59b1 ff7e 11bd
000002e0: 3199 0080 bd8b 0000 88a3 57bc 868b 0080
000002f0: 464d fd3b d593 0080 6d2e 69bd ebac 0080
00000300: 1ed3 bbb6 4b8a 0000 5a0c 8b9f cea6 0080
00000310: 228b 0000 7532 47b5 0093 0000 7689 0080
00000320: 629e 60b4 6e8b 0000 f28a 0080 6c11 100f
00000330: 8e46 3fb4 958a 0000 7b90 3da4 36c4 c4a3
00000340: 4a89 0080 cb88 0080 85ab 0000 338d 0000
00000350: ff67 7ab2 61ae 0000 8d8c 0080 a989 0080
00000360: cea1 0080 db80 5b10 ef8b 0000 c688 0000
00000370: fc89 0080 b48c 0000 e68a 0080 148a 0000
00000380: 0b90 0080 b97e 810f e193 0000 7b90 0080
00000390: fb88 0080 fb91 0080 4d44 0100 db8a 0080
000003a0: a48a 0000 33ad 33b8 4d8a 0080 7f8f 0000
000003b0: 4dc0 09b8 0b0b 3aa5 0fd1 44a9 8079 85ac
000003c0: d37b 829e 8a8c 0000 afab 0080 0dab 5eb6
000003d0: 148e 51ad 48e9 9eaa 5189 0080 c610 bbb7
000003e0: e991 0000 5e89 0000 76ce e999 6295 0080
000003f0: 3186 efa9 d191 0000 d175 b7b6 0e89 0000

fc2.bias f4 [32]
0.0935307 -0.077926844 0.058846164 -4.1986273e-06 0.07782694 -0.0026977544 -5.4167213e-06 -0.02104591
-7.6917845e-20 -2.6728815e-06 -6.6020425e-09 0.02930966 -6.4010787e-06 0.020760955 -2.7899929e-05 -0.0003140379
-2.49628e-35 0.01258626 -0.003227916 0.034094505 0.011054671 -0.051800795 -0.00071342656 -0.096386254
0.07692806 -4.7888353e-26 -0.056603078 -0.00576672 0.0054217754 -0.008457228 -4.99497e-19 -0.0165264
00000000: 068d bf3d 1c98 9fbd ad08 713d efe1 8cb6
00000010: bb63 9f3d cfcc 30bb 48c1 b5b6 7968 acbc
00000020: fc9d b59f c15f 33b6 2ed8 e2b1 d01a f03c
00000030: d9c8 d6b6 e112 aa3c a40a eab7 74a5 a4b9
00000040: 9ab9 0486 9a36 4e3c 728b 53bb aea6 0b3d
00000050: a71e 353c 122d 54bd 3f05 3bba 2866 c5bd
00000060: 758c 9d3d b321 6d95 a1d8 67bd c1f6 bcbb
00000070: 26a9 b13b 2f90 0abc ed6c 13a1 5f62 87bc

fc3.weight f4 [1, 32]
-0.12670512 0.0325167 -0.026023837 -0.00044872973 0.12042315 -0.014321665 -0.011138487 0.13294545
-6.565273e-10 -1.4979597e-05 2.094867e-12 0.059971083 -1.2762271e-30 0.043101978 0.002399709 -0.008068864
-2.2437597e-07 0.00076183974 0.0121445935 -0.0018053764 -0.08943843 -0.017608462 0.0009813688 -0.07779912
0.0006090323 -6.7332435e-13 -0.02265128 -0.016117575 -0.016357737 -0.00027965065 -0.00083359296 0.024731677
00000000: fdbe 01be 3b30 053d f12f d5bc 7c43 ebb9
00000010: 6aa0 f63d 6ba5 6abc 337e 36bc da22 083e
00000020: 0077 34b0 e150 7bb7 c569 132c 3da4 753d
00000030: 6614 cf8d b38b 303d 7044 1d3b 4533 04bc
00000040: ffeb 70b4 33b6 473a 1efa 463c 61a2 ecba
00000050: 7f2b b7bd 9f3f 90bc 46a1 803a 2555 9fbd
00000060: 77a7 1f3a 2286 3dab 2d8f b9bc 0109 84bc
00000070: a900 86bc 139e 92b9 7a85 5aba 169a ca3c
