model_checkpoint.pth (torch, 280298 bytes, 30 tensors)

raycast_branch.0.weight f4 [16, 1, 3]
0	0x3ec9f27e	0.3944282
1	0x3d42aa92	0.04752595
2	0xbed200ce	-0.4101624
3	0x3f808475	1.0040423
4	0xbe008a1f	-0.12552689
5	0xbd82e860	-0.06391978
6	0xbd9a52ef	-0.075353496
7	0x3e581221	0.21100666
8	0x3e93e517	0.2888572
9	0xbd09dc35	-0.03365727
10	0x3f13b6dc	0.57700896
11	0x3dcfb5e0	0.10142112
12	0x3ec61c7a	0.386936
13	0x3e0d1ab7	0.13779722
14	0xbccb453a	-0.024813283
15	0x80008991	-4.935e-41
16	0x80008a71	-4.9663e-41
17	0x8000891c	-4.9186e-41
18	0x800089a1	-4.9372e-41
19	0x00008a4e	4.9614e-41
20	0x000088ce	4.9076e-41
21	0xbe1366b9	-0.14394654
22	0xbf3483fe	-0.70513904
23	0x3edf336c	0.4359392
24	0x80008aa5	-4.9736e-41
25	0x800089f9	-4.9495e-41
26	0x80008a83	-4.9689e-41
27	0x00008978	4.9314e-41
28	0x800089d0	-4.9438e-41
29	0x80008acd	-4.9792e-41
30	0x3eaa3daa	0.3325017
31	0xbf17dbab	-0.5931956
32	0x3da90f03	0.082548164
33	0x00008a92	4.971e-41
34	0x000088eb	4.9117e-41
35	0x80008992	-4.9351e-41
36	0x80008ad8	-4.9808e-41
37	0x00008a45	4.9602e-41
38	0x00008a63	4.9644e-41
39	0x800089f4	-4.9488e-41
40	0x0000a45e	5.8964e-41
41	0x80008aaf	-4.975e-41
42	0x8000891a	-4.9183e-41
43	0x80008aa0	-4.9729e-41
44	0x80008a1a	-4.9542e-41
45	0x00008965	4.9288e-41
46	0x00008a66	4.9648e-41
47	0x80008a34	-4.9578e-41

raycast_branch.0.bias f4 [16]
0	0x3d13429e	0.035952203
1	0xbec327ae	-0.3811621
2	0xbe8b2c6a	-0.27182323
3	0xbe8f686d	-0.28009358
4	0xbe741974	-0.23837835
5	0x800089be	-4.9413e-41
6	0x0000898b	4.9341e-41
7	0x3eac8b69	0.33700112
8	0x8000893c	-4.923e-41
9	0x000089c0	4.9415e-41
10	0x3e38e86a	0.18057409
11	0x80009363	-5.2872e-41
12	0x00008a04	4.951e-41
13	0x0000894f	4.9257e-41
14	0x800089fa	-4.9497e-41
15	0x800089e6	-4.9469e-41

raycast_branch.3.weight f4 [32, 16, 3]
0	0x80008a43	-4.9599e-41
1	0x8000909a	-5.1873e-41
2	0x80008af2	-4.9844e-41
3	0x800088d4	-4.9085e-41
4	0x800088ed	-4.912e-41
5	0x00008acc	4.9791e-41
6	0x80009172	-5.2176e-41
7	0x000099e8	5.5211e-41
8	0x00009e9e	5.6901e-41
9	0x80008ca2	-5.045e-41
10	0x000089e2	4.9463e-41
11	0x8000899b	-4.9364e-41
12	0x80008ad5	-4.9804e-41
13	0x80008a14	-4.9533e-41
14	0x800088d7	-4.9089e-41
15	0x80008c59	-5.0347e-41
16	0x800088c3	-4.9061e-41
17	0x00008e63	5.1079e-41
18	0x800089d2	-4.944e-41
19	0x80008957	-4.9268e-41
20	0x00008a68	4.9651e-41
21	0x80009a24	-5.5295e-41
22	0x0000a3e1	5.8789e-41
23	0x8000960e	-5.383e-41
24	0x00008c3a	5.0304e-41
25	0x80009a66	-5.5388e-41
26	0x000098d9	5.4831e-41
27	0x80009393	-5.294e-41
28	0x00008d99	5.0796e-41
29	0x8000926c	-5.2526e-41
30	0x00009237	5.2452e-41
31	0x8000a736	-5.9984e-41
32	0x00008b75	5.0028e-41
33	0x00008eb1	5.1188e-41
34	0x000091bf	5.2284e-41
35	0x00008bcc	5.015e-41
36	0x80008a4c	-4.9612e-41
37	0x00008999	4.9361e-41
38	0x800089e6	-4.9469e-41
39	0x000089ff	4.9504e-41
40	0x800088d2	-4.9082e-41
41	0x00008b27	4.9918e-41
42	0x80008952	-4.9261e-41
43	0x800089dd	-4.9456e-41
44	0x8000896c	-4.9298e-41
45	0x00009849	5.463e-41
46	0x80008f4b	-5.1404e-41
47	0x8000af25	-6.283e-41
48	0x000088ee	4.9121e-41
49	0x000089d0	4.9438e-41
50	0x000089c0	4.9415e-41
51	0x93c5f590	-4.9971935e-27
52	0x9a3303c4	-3.7019374e-23
53	0x96361810	-1.4709436e-25
54	0x00008952	4.9261e-41
55	0x80008917	-4.9179e-41
56	0x0000892d	4.921e-41
57	0x905fd259	-4.414104e-29
58	0x96663b04	-1.8597874e-25
59	0x90a00c9a	-6.312829e-29
60	0x00008906	4.9155e-41
61	0x00008a29	4.9563e-41
62	0x000089ac	4.9387e-41
63	0x000088cc	4.9073e-41
64	0x80009b7b	-5.5776e-41
65	0x8000a436	-5.8908e-41
66	0x800089fe	-4.9502e-41
67	0x000089a8	4.9382e-41
68	0x80008ad2	-4.98e-41
69	0x00008904	4.9152e-41
70	0x00009a42	5.5337e-41
71	0x00008923	4.9195e-41
72	0x000095b2	5.37e-41
73	0x00008b90	5.0066e-41
74	0x80009831	-5.4596e-41
75	0x00009baa	5.5842e-41
76	0x000088f6	4.9132e-41
77	0x00008c08	5.0234e-41
78	0x000088ca	4.907e-41
79	0x0000898f	4.9347e-41
80	0x00008982	4.9329e-41
81	0x800088e5	-4.9109e-41
82	0x0000a187	5.7945e-41
83	0x80009950	-5.4998e-41
84	0x80009a5c	-5.5374e-41
85	0x00009b36	5.5679e-41
86	0x80008afa	-4.9855e-41
87	0x000089e1	4.9462e-41
88	0x00009823	5.4576e-41
89	0x80008979	-4.9316e-41
90	0x000089aa	4.9385e-41
91	0x000089bf	4.9414e-41
92	0x800089b1	-4.9394e-41
93	0x0000a179	5.7925e-41
94	0x80000f62	-5.518e-42
95	0x800088f9	-4.9137e-41
96	0x800088ba	-4.9048e-41
97	0x800088fe	-4.9144e-41
98	0x800088f4	-4.913e-41
99	0x800089cc	-4.9432e-41
100	0x800089d7	-4.9448e-41
101	0x800088cc	-4.9073e-41
102	0x0000a8b4	6.0519e-41
103	0x00008903	4.915e-41
104	0x80008997	-4.9358e-41
105	0x80008945	-4.9243e-41
106	0x800089c9	-4.9428e-41
107	0x80008a11	-4.9529e-41
108	0x000088fa	4.9138e-41
109	0x8000893a	-4.9228e-41
110	0x000089dc	4.9455e-41
111	0x80008c4c	-5.0329e-41
112	0x80008bc8	-5.0144e-41
113	0x00008dc2	5.0853e-41
114	0x800088e1	-4.9103e-41
115	0x80008927	-4.9201e-41
116	0x800088dc	-4.9096e-41
117	0x0000890c	4.9163e-41
118	0x8000a069	-5.7544e-41
119	0x00008951	4.926e-41
120	0x0000a015	5.7427e-41
121	0x8000a70b	-5.9924e-41
122	0x8000adbc	-6.2324e-41
123	0x80009413	-5.3119e-41
124	0x80008960	-4.9281e-41
125	0x000092d8	5.2678e-41
126	0x00008a03	4.9509e-41
127	0x8000ad42	-6.2153e-41
128	0x000089c9	4.9428e-41
129	0x00008baf	5.0109e-41
130	0x0000aaa4	6.1214e-41
131	0x80008f18	-5.1332e-41
132	0x0000890c	4.9163e-41
133	0x00008986	4.9334e-41
134	0x000089b6	4.9401e-41
135	0x80009bbb	-5.5866e-41
136	0x00008f2f	5.1365e-41
137	0x0000a786	6.0096e-41
138	0x000089aa	4.9385e-41
139	0x000089ae	4.939e-41
140	0x0000891f	4.919e-41
141	0x8000a458	-5.8955e-41
142	0x8000ac75	-6.1866e-41
143	0x80009182	-5.2198e-41
144	0xba31a4b8	-0.0006776559
145	0xbab2033c	-0.0013581286
146	0xbab6d003	-0.001394749
147	0xba39d78d	-0.00070893095
148	0xba8d69bb	-0.0010788956
149	0xba911f5d	-0.0011071969
150	0xbafed40d	-0.0019441858
151	0xbadac73d	-0.0016691458
152	0xba9e27bc	-0.0012066285
153	0xba915e9e	-0.001109082
154	0xbaa27112	-0.0012393317
155	0xba88768a	-0.0010411304
156	0xba6dbdba	-0.0009069104
157	0xba9efec8	-0.0012130374
158	0xba95455a	-0.0011388466
159	0x800088d9	-4.9092e-41
160	0x800088ee	-4.9121e-41
161	0x00008903	4.915e-41
162	0x00008acd	4.9792e-41
163	0x0000899b	4.9364e-41
164	0x00008bbb	5.0126e-41
165	0xba6bb283	-0.0008991139
166	0xba4994ad	-0.0007689696
167	0xba149310	-0.0005667666
168	0x00009e74	5.6842e-41
169	0x0000a1af	5.8001e-41
170	0x0000a3cc	5.8759e-41
171	0x80008a10	-4.9527e-41
172	0x8000ad7f	-6.2239e-41
173	0x80008b9d	-5.0084e-41
174	0xba210461	-0.0006142315
175	0xba1ec317	-0.00060562923
176	0xba30ef09	-0.0006749486
177	0x8000ab51	-6.1457e-41
178	0x0000a215	5.8144e-41
179	0x80008925	-4.9198e-41
180	0x80008b7d	-5.0039e-41
181	0x80008c23	-5.0272e-41
182	0x80008bd5	-5.0162e-41
183	0x000094f5	5.3436e-41
184	0x00008fa8	5.1534e-41
185	0x80008dd7	-5.0883e-41
186	0x00008928	4.9202e-41
187	0x0000893b	4.9229e-41
188	0x00008a07	4.9515e-41
189	0x00009868	5.4673e-41
190	0x8000a521	-5.9237e-41
191	0x80009ec9	-5.6961e-41
192	0x0000903d	5.1743e-41
193	0x80008fe9	-5.1625e-41
194	0x0000893e	4.9233e-41
195	0x80008c34	-5.0295e-41
196	0x00008b16	4.9895e-41
197	0x800090e4	-5.1977e-41
198	0x8000abf4	-6.1685e-41
199	0x00009f8b	5.7233e-41
200	0x8000a2d7	-5.8416e-41
201	0x80009271	-5.2533e-41
202	0x00009112	5.2041e-41
203	0x00009203	5.2379e-41
204	0x80008e93	-5.1146e-41
205	0x00009561	5.3587e-41
206	0x0000aee1	6.2735e-41
207	0x000089cf	4.9436e-41
208	0x00008a9e	4.9726e-41
209	0x80008b6c	-5.0015e-41
210	0x800088dd	-4.9097e-41
211	0x800088c6	-4.9065e-41
212	0x80008a00	-4.9505e-41
213	0x0000906c	5.1809e-41
214	0x80009909	-5.4899e-41
215	0x80008cb0	-5.0469e-41
216	0x80009c13	-5.5989e-41
217	0x00009891	5.473e-41
218	0x000091c5	5.2292e-41
219	0x80008e18	-5.0974e-41
220	0x0000929a	5.2591e-41
221	0x00009acd	5.5532e-41
222	0x80009147	-5.2116e-41
223	0x00009508	5.3462e-41
224	0x80008a7b	-4.9677e-41
225	0x0000a844	6.0362e-41
226	0x80009d80	-5.65e-41
227	0x8000a616	-5.958e-41
228	0x800088c4	-4.9062e-41
229	0x000097b8	5.4426e-41
230	0x80008976	-4.9312e-41
231	0x80008a44	-4.96e-41
232	0x00009727	5.4223e-41
233	0x00009012	5.1683e-41
234	0x00008986	4.9334e-41
235	0x000089d5	4.9445e-41
236	0x000088d0	4.9079e-41
237	0x8000a4cc	-5.9118e-41
238	0x8000925f	-5.2508e-41
239	0x0000a153	5.7872e-41
240	0x3d179375	0.03700586
241	0x3d6e8873	0.058235597
242	0xbb1caa69	-0.0023905283
243	0x3d942771	0.07234085
244	0x3e01cb31	0.12675168
245	0xbbfbf153	-0.00768868
246	0x3babab0c	0.0052388962
247	0xbbc3241f	-0.0059552337
248	0xbb918922	-0.0044413963
249	0x3d547d1b	0.051877122
250	0xbbe2ee9a	-0.006925416
251	0xbcc1b47c	-0.023645632
252	0x3c9c8058	0.019104168
253	0x3d045495	0.032307226
254	0xbc4e8287	-0.012604362
255	0x800088cf	-4.9078e-41

raycast_branch.3.bias f4 [32]
0	0x80008a48	-4.9606e-41
1	0xb6400c31	-2.8617326e-06
2	0x80008965	-4.9288e-41
3	0xbaab0b29	-0.0013049591
4	0x8000899c	-4.9365e-41
5	0xbda15df6	-0.0787925
6	0x8000ad9f	-6.2284e-41
7	0xab0d107b	-5.0116134e-13
8	0x859d72d9	-1.4806397e-35
9	0x94b423cc	-1.8189475e-26
10	0xb8f3badd	-0.00011621949
11	0xba1d2bb7	-0.0005995589
12	0x800089a2	-4.9373e-41
13	0x975da600	-7.1618473e-25
14	0xb71bf628	-9.296033e-06
15	0x8000a36d	-5.8626e-41
16	0x800089c9	-4.9428e-41
17	0xa7969b50	-4.1801754e-15
18	0x3e21a0d0	0.15784001
19	0xbe505a21	-0.20346881
20	0x800089e5	-4.9467e-41
21	0xb92d3b4b	-0.00016520654
22	0x8000ad41	-6.2152e-41
23	0xb7216c1e	-9.621521e-06
24	0x3daa8064	0.0832527
25	0xb5d3161f	-1.5727163e-06
26	0x800089a3	-4.9375e-41
27	0x80008915	-4.9176e-41
28	0x800089fa	-4.9497e-41
29	0xb5084404	-5.0762924e-07
30	0xa2830df1	-3.5522382e-18
31	0x8000a8b2	-6.0516e-41

common_layers.0.weight f4 [64, 288]
0	0x8000968c	-5.4006e-41
1	0x80008985	-4.9333e-41
2	0x8000aa2a	-6.1043e-41
3	0x800089ec	-4.9477e-41
4	0x000089a0	4.937e-41
5	0x0000a2a0	5.8339e-41
6	0x0000aaf1	6.1322e-41
7	0x80009fa4	-5.7268e-41
8	0x8000897c	-4.932e-41
9	0x80008938	-4.9225e-41
10	0x80008940	-4.9236e-41
11	0x80008996	-4.9357e-41
12	0x800088fb	-4.914e-41
13	0x80008986	-4.9334e-41
14	0x80008932	-4.9216e-41
15	0x0000896b	4.9296e-41
16	0x80008935	-4.922e-41
17	0x800088dd	-4.9097e-41
18	0x000088e8	4.9113e-41
19	0x800089e2	-4.9463e-41
20	0x80008a1e	-4.9547e-41
21	0x8000890d	-4.9165e-41
22	0x800088ba	-4.9048e-41
23	0x800088d9	-4.9092e-41
24	0x80009dfd	-5.6676e-41
25	0x80008a4a	-4.9609e-41
26	0x000089ee	4.948e-41
27	0xbb4a3b56	-0.003085812
28	0xbb55e4d4	-0.0032637613
29	0xbb553ad6	-0.003253629
30	0xbb5ef561	-0.003402077
31	0xbb76225a	-0.0037557096
32	0xbb7fbe88	-0.0039023478
33	0xbb79e9f9	-0.0038133843
34	0xbb76546d	-0.0037586943
35	0xbb616592	-0.0034392816
36	0x800089de	-4.9457e-41
37	0x800089cc	-4.9432e-41
38	0x000094bf	5.336e-41
39	0x8000965a	-5.3936e-41
40	0x800092a3	-5.2603e-41
41	0x0000995a	5.5012e-41
42	0x80008c1f	-5.0266e-41
43	0x00008d90	5.0783e-41
44	0x00008d17	5.0613e-41
45	0x80009043	-5.1751e-41
46	0x3b236f5f	0.0024938209
47	0x3caf52aa	0.021401722
48	0x3b4de0e2	0.0031414558
49	0xbc02a2ff	-0.007973432
50	0xa50238a3	-1.1294892e-16
51	0x3a0b450a	0.0005312717
52	0x3a2c6a1c	0.0006577091
53	0xbc9eaeac	-0.0193704
54	0x800088cb	-4.9072e-41
55	0x8000a23d	-5.82e-41
56	0x800088c7	-4.9066e-41
57	0x800088cd	-4.9075e-41
58	0x8000aa80	-6.1164e-41
59	0x00009fc4	5.7313e-41
60	0x800088c1	-4.9058e-41
61	0x0000ad62	6.2198e-41
62	0x000088c1	4.9058e-41
63	0x2bd70690	1.527849e-12
64	0x2b21ee96	5.7529795e-13
65	0x2b94327b	1.0530044e-12
66	0x2bdc311a	1.5645569e-12
67	0x2b99afac	1.0920063e-12
68	0x2b83ac5e	9.355951e-13
69	0x2ba82f9b	1.1950331e-12
70	0x2a0f3e4e	1.2722568e-13
71	0x2bd85a63	1.537281e-12
72	0x8417768a	-1.7804395e-36
73	0x8416578c	-1.7672615e-36
74	0x8417a96a	-1.7827756e-36
75	0x84179ca2	-1.7821887e-36
76	0x8417a0d3	-1.7823812e-36
77	0x8416d171	-1.7728586e-36
78	0x8416179a	-1.7643253e-36
79	0x84126ebc	-1.7213064e-36
80	0x841790dc	-1.781648e-36
81	0x00008907	4.9156e-41
82	0x00008988	4.9337e-41
83	0x00008942	4.9239e-41
84	0x000089c4	4.9421e-41
85	0x00008900	4.9146e-41
86	0x00008a03	4.9509e-41
87	0x00008994	4.9354e-41
88	0x00008a1a	4.9542e-41
89	0x00008a2d	4.9568e-41
90	0xadc87162	-2.278772e-11
91	0xb139e6f7	-2.7052331e-09
92	0xb0e5c58d	-1.671809e-09
93	0xb05a3381	-7.938113e-10
94	0xaf46de4c	-1.8086971e-10
95	0xaedff432	-1.0184244e-10
96	0xaf212c7d	-1.465867e-10
97	0xb0ae9d0e	-1.2704804e-09
98	0xade4f825	-2.6030797e-11
99	0x00008919	4.9181e-41
100	0x07443b39	1.4762805e-34
101	0x042008a7	1.8811883e-36
102	0x8006572f	-5.82289e-40
103	0x0000892a	4.9205e-41
104	0x00008939	4.9226e-41
105	0x000089e3	4.9464e-41
106	0x8095a276	-1.3741769e-38
107	0x0000895f	4.928e-41
108	0x80008a50	-4.9617e-41
109	0x8000891d	-4.9187e-41
110	0x8000a42a	-5.8891e-41
111	0x00008a2e	4.957e-41
112	0x000088fa	4.9138e-41
113	0x00008a49	4.9607e-41
114	0x000089a4	4.9376e-41
115	0x80008a37	-4.9582e-41
116	0x80008951	-4.926e-41
117	0x15310be6	3.5754252e-26
118	0x1677f4aa	2.0029703e-25
119	0x16763951	1.9889808e-25
120	0x16537ee4	1.7084484e-25
121	0x16057ae9	1.0782438e-25
122	0x15ce3b25	8.329605e-26
123	0x15c317c0	7.8797344e-26
124	0x164df707	1.6637716e-25
125	0x1517f00c	3.068357e-26
126	0x9c6800a4	-7.676319e-22
127	0x9dedd562	-6.295401e-21
128	0x1dfdebd0	6.7212367e-21
129	0x9d64226a	-3.019334e-21
130	0x9dbe5be9	-5.0387614e-21
131	0x9e29e6a9	-8.994485e-21
132	0x9e5c3f9f	-1.16598596e-20
133	0x1d56f8a1	2.8451202e-21
134	0x9d4b3639	-2.6894859e-21
135	0x00008ae9	4.9832e-41
136	0x80008951	-4.926e-41
137	0x00008aab	4.9745e-41
138	0x00008a33	4.9577e-41
139	0x0000894d	4.9254e-41
140	0x800093c5	-5.301e-41
141	0x0000a54f	5.9302e-41
142	0x80008911	-4.917e-41
143	0x000089c8	4.9427e-41
144	0x0000ab0e	6.1363e-41
145	0x8000a7e0	-6.0222e-41
146	0x8000a636	-5.9625e-41
147	0x0000a887	6.0456e-41
148	0x800096f4	-5.4152e-41
149	0x800088c9	-4.9069e-41
150	0x800093c8	-5.3014e-41
151	0x000088c5	4.9064e-41
152	0x80009c4b	-5.6067e-41
153	0xa5a5aea8	-2.874129e-16
154	0xa5b0e9b6	-3.0689502e-16
155	0xa59f8ddb	-2.7678228e-16
156	0xa58e9257	-2.4732237e-16
157	0xa58078c2	-2.228629e-16
158	0xa579cc6b	-2.1666567e-16
159	0xa5890777	-2.377077e-16
160	0xa59c6c81	-2.7135211e-16
161	0xa598e10c	-2.6520295e-16
162	0xbd857eea	-0.065183476
163	0x3d6c8c04	0.057750717
164	0xbde504bc	-0.11182544
165	0xbdd3e654	-0.10346666
166	0x3e04e4b4	0.12977868
167	0x3e66e8a0	0.22549677
168	0xbe40b55f	-0.18819188
169	0xbd932a2f	-0.0718578
170	0x3dc83f2c	0.09777674
171	0x3e2f1321	0.17097141
172	0x3e461e4a	0.19347492
173	0x3da0f222	0.07858683
174	0xbda04795	-0.07826153
175	0xbd19159b	-0.03737412
176	0xbba2c3aa	-0.0049671726
177	0xbc957e17	-0.0182486
178	0xbe03a49e	-0.12855765
179	0xbe2b90d2	-0.16754463
180	0x00009fdb	5.7345e-41
181	0x0000a104	5.7762e-41
182	0x80009fb3	-5.7289e-41
183	0x0000966a	5.3958e-41
184	0x00008e45	5.1037e-41
185	0x00008fac	5.154e-41
186	0x80008f1f	-5.1342e-41
187	0x80009f44	-5.7134e-41
188	0x80009f9d	-5.7258e-41
189	0x000088f5	4.9131e-41
190	0x0000898e	4.9345e-41
191	0x00008901	4.9148e-41
192	0x00008959	4.9271e-41
193	0x000089ae	4.939e-41
194	0x000089d3	4.9442e-41
195	0x000089d3	4.9442e-41
196	0x0000890a	4.916e-41
197	0x000088df	4.91e-41
198	0x00009e08	5.6691e-41
199	0x0000a335	5.8548e-41
200	0x0000aaea	6.1312e-41
201	0x000089a3	4.9375e-41
202	0x80009ec5	-5.6956e-41
203	0x000090bb	5.192e-41
204	0x8000aba4	-6.1573e-41
205	0x0000ab90	6.1545e-41
206	0x80008c47	-5.0322e-41
207	0x00009015	5.1687e-41
208	0x00008f20	5.1344e-41
209	0x00008fc8	5.1579e-41
210	0x80008bb1	-5.0112e-41
211	0x80008d16	-5.0612e-41
212	0x80008ab6	-4.976e-41
213	0x00008ae0	4.9819e-41
214	0x800088de	-4.9099e-41
215	0x00008ac2	4.9777e-41
216	0xbd77f19b	-0.060533147
217	0xbcb35421	-0.021890702
218	0xbc3822e8	-0.011238791
219	0xbd6e19fc	-0.05813025
220	0x3e13faff	0.14451216
221	0x3e35f8c6	0.17770681
222	0xbd2dfa87	-0.04247525
223	0xbd1b5e56	-0.037931763
224	0xbcc5e218	-0.024155661
225	0x00008a03	4.9509e-41
226	0x000088bf	4.9055e-41
227	0x00008a2e	4.957e-41
228	0x80008a74	-4.9668e-41
229	0x80008974	-4.9309e-41
230	0x00008939	4.9226e-41
231	0x80008a51	-4.9619e-41
232	0x80008a33	-4.9577e-41
233	0x80008a1a	-4.9542e-41
234	0x8000a888	-6.0458e-41
235	0x8000960f	-5.3831e-41
236	0x8000a5b8	-5.9449e-41
237	0x80008a82	-4.9687e-41
238	0x8000af06	-6.2787e-41
239	0x0000a019	5.7432e-41
240	0x8000a7db	-6.0215e-41
241	0x00008a34	4.9578e-41
242	0x0000a662	5.9687e-41
243	0x0000a8a7	6.0501e-41
244	0x80009a20	-5.529e-41
245	0x80008d7a	-5.0752e-41
246	0x8000a035	-5.7471e-41
247	0x800090af	-5.1903e-41
248	0x80009e3d	-5.6765e-41
249	0x0000ac2d	6.1765e-41
250	0x8000966e	-5.3964e-41
251	0x8000a809	-6.028e-41
252	0x0000a183	5.794e-41
253	0x80009622	-5.3858e-41
254	0x8000a1d7	-5.8057e-41
255	0x00009d63	5.646e-41

common_layers.0.bias f4 [64]
0	0xbd6ca4c0	-0.057774305
1	0x800088ba	-4.9048e-41
2	0x800088ed	-4.912e-41
3	0xbbe26900	-0.0069094896
4	0xbcf57f35	-0.029967884
5	0x3a7ca94d	0.0009638265
6	0x8000895a	-4.9272e-41
7	0xaa571bcc	-1.910548e-13
8	0xbd05e574	-0.032689527
9	0x80008a18	-4.9539e-41
10	0xbd19202c	-0.037384197
11	0xbd1aa8e4	-0.037758723
12	0xbd5c6256	-0.053804718
13	0xb030d36d	-6.432888e-10
14	0x3c79ab4c	0.015238594
15	0xa2587fba	-2.9341077e-18
16	0x80008988	-4.9337e-41
17	0x92c08f7b	-1.2152274e-27
18	0xbd0a793c	-0.033807024
19	0xb94804e5	-0.0001907531
20	0x80008993	-4.9352e-41
21	0x80008db9	-5.084e-41
22	0x80009789	-5.436e-41
23	0x8e19571d	-1.890065e-30
24	0xba03af94	-0.00050234166
25	0x3b956206	0.0045588044
26	0x8000adbf	-6.2328e-41
27	0xbd044225	-0.032289643
28	0xbc67e69e	-0.0141541045
29	0x8000895e	-4.9278e-41
30	0x800088e4	-4.9107e-41
31	0x3c4523c1	0.01203245
32	0x80008938	-4.9225e-41
33	0x80008a0e	-4.9525e-41
34	0xbb3ffadf	-0.0029293818
35	0xb12efaf9	-2.5462994e-09
36	0xacf0baa7	-6.841933e-12
37	0x800089b8	-4.9404e-41
38	0xbd65c5d2	-0.05609686
39	0x8000894f	-4.9257e-41
40	0xb88ef886	-6.817379e-05
41	0x26cac5f4	1.4070221e-15
42	0x80008919	-4.9181e-41
43	0x800088c0	-4.9057e-41
44	0x800edd28	-1.365033e-39
45	0x800089e6	-4.9469e-41
46	0x800088ce	-4.9076e-41
47	0x8000879b	-4.8646e-41
48	0xb996b8fd	-0.00028748057
49	0x8000ae3f	-6.2508e-41
50	0xbb838745	-0.004013928
51	0x80009b1a	-5.564e-41
52	0x3c114443	0.0088663725
53	0xbc032682	-0.008004786
54	0x800089a9	-4.9383e-41
55	0xbc86f2ce	-0.0164732
56	0xbc8e70dc	-0.0173878
57	0xbd4ce646	-0.050024293
58	0x80008925	-4.9198e-41
59	0x8000899c	-4.9365e-41
60	0x80008ba9	-5.01e-41
61	0xbd46584b	-0.048424046
62	0x8000ac24	-6.1752e-41
63	0xae1f82a3	-3.6268443e-11

common_layers.3.weight f4 [32, 64]
0	0x3e31f982	0.17380336
1	0x80009125	-5.2068e-41
2	0x8000a41a	-5.8869e-41
3	0x3e0e18de	0.13876674
4	0xbcea4a71	-0.02859995
5	0xbc2a2ff2	-0.010387408
6	0x80008de1	-5.0897e-41
7	0xaba61bf2	-1.1802766e-12
8	0x3e36a425	0.17836054
9	0x00008c0b	5.0238e-41
10	0xbce1b0ff	-0.027550219
11	0xbc4a90cf	-0.012363627
12	0x3e362782	0.17788509
13	0x80008954	-4.9264e-41
14	0xbdcaecca	-0.09908445
15	0xa19410ae	-1.0033285e-18
16	0x80009b5a	-5.573e-41
17	0x0000aa29	6.1042e-41
18	0x3db608b0	0.08888376
19	0x07c5c0e1	2.975463e-34
20	0x000088fa	4.9138e-41
21	0x000088f6	4.9132e-41
22	0x80008e5e	-5.1072e-41
23	0x8f168bbe	-7.422484e-30
24	0xb4845cde	-2.4654486e-07
25	0xb9d0910b	-0.00039780917
26	0x000093ee	5.3067e-41
27	0xbcfcb7f6	-0.030849438
28	0x3e05feb4	0.13085443
29	0x80009961	-5.5022e-41
30	0x00008a43	4.9599e-41
31	0xbdc1bfe0	-0.094604254
32	0x800089b8	-4.9404e-41
33	0x8000894d	-4.9254e-41
34	0x3c070b43	0.008242431
35	0x800415e4	-3.75195e-40
36	0x8090f799	-1.3313133e-38
37	0x000089ec	4.9477e-41
38	0xbc92781c	-0.017879538
39	0x00008945	4.9243e-41
40	0xa35c6ff8	-1.1949934e-17
41	0xa7583579	-3.000501e-15
42	0x80009175	-5.218e-41
43	0x80009590	-5.3653e-41
44	0x00003821	2.0135e-41
45	0x80009145	-5.2113e-41
46	0x0000ae71	6.2578e-41
47	0x80009102	-5.2019e-41
48	0xbb2168ca	-0.002462911
49	0x800089a8	-4.9382e-41
50	0xbd508dd0	-0.050916493
51	0x80008b5e	-4.9996e-41
52	0xbdbb8272	-0.0915574
53	0xbd61352d	-0.054982353
54	0x0000ad84	6.2246e-41
55	0xbd227b2c	-0.039668247
56	0xbd396f4f	-0.045272168
57	0xbc8e1776	-0.017345171
58	0x00008d8e	5.078e-41
59	0x800088bc	-4.9051e-41
60	0x000095b9	5.371e-41
61	0x3dcd9ebe	0.10040043
62	0x80008e8f	-5.114e-41
63	0x80008914	-4.9174e-41
64	0x3e2d08d2	0.16897896
65	0x80008df8	-5.0929e-41
66	0x80009571	-5.361e-41
67	0x3e0a584d	0.13510247
68	0xbd0f505b	-0.034988742
69	0xbc2c7bdc	-0.010527577
70	0x80009254	-5.2493e-41
71	0x2a1328e3	1.3070408e-13
72	0x3e2b5fce	0.16735765
73	0x000088ea	4.9116e-41
74	0xbceedf19	-0.029159116
75	0xbc78e273	-0.015190708
76	0x3e1a07be	0.15042016
77	0x800089ce	-4.9435e-41
78	0xbdbdc416	-0.09265916
79	0x210f22a8	4.849615e-19
80	0x80009201	-5.2376e-41
81	0x80008ae5	-4.9826e-41
82	0x3daab6b5	0.0833563
83	0x804df623	-7.15963e-39
84	0x000088c2	4.906e-41
85	0x80008f62	-5.1436e-41
86	0x00008de9	5.0908e-41
87	0x8f2b0247	-8.4313895e-30
88	0x34da4ca8	4.066144e-07
89	0x3ae11d2e	0.0017174834
90	0x00008b7f	5.0042e-41
91	0xbd0ba442	-0.034092195
92	0x3dfc310f	0.12314045
93	0x80009ad6	-5.5545e-41
94	0x800089e9	-4.9473e-41
95	0xbda193b2	-0.07889499
96	0x800088eb	-4.9117e-41
97	0x800089cc	-4.9432e-41
98	0xbb02fc3f	-0.0019986776
99	0x80001a27	-9.382e-42
100	0x0101fadc	2.387354e-38
101	0x80008c3f	-5.0311e-41
102	0xbc683f0e	-0.01417519
103	0x00008fb7	5.1555e-41
104	0xa45583b3	-4.6298566e-17
105	0xa78d430c	-3.9208054e-15
106	0x80008d4a	-5.0685e-41
107	0x00008dbc	5.0845e-41
108	0x00059e6a	5.16006e-40
109	0x80009166	-5.2159e-41
110	0x00008b9b	5.0081e-41
111	0x0000aa24	6.1035e-41
112	0xbb8dd076	-0.004327829
113	0x8000ae5c	-6.2548e-41
114	0xbd65af84	-0.056075588
115	0x8000913d	-5.2102e-41
116	0xbda6b389	-0.08139712
117	0xbd86b1ec	-0.06576905
118	0x80008eea	-5.1268e-41
119	0xbd4fd250	-0.05073768
120	0xbd5e5662	-0.0542816
121	0xbc88e1af	-0.016709177
122	0x00009019	5.1692e-41
123	0x8000896a	-4.9295e-41
124	0x80008b93	-5.007e-41
125	0x3db1be22	0.08678843
126	0x800088c8	-4.9068e-41
127	0x000089c2	4.9418e-41
128	0xbd089d98	-0.033353418
129	0x00008a14	4.9533e-41
130	0x80008952	-4.9261e-41
131	0xbd48f8f7	-0.049065556
132	0x3dead03e	0.114655
133	0x3a7c437e	0.0009623094
134	0x80008d1e	-5.0623e-41
135	0xab007558	-4.563758e-13
136	0xbd23e584	-0.040013805
137	0x000089b7	4.9403e-41
138	0x3dd4978a	0.10380466
139	0x3db59f23	0.088682435
140	0xbcdafb24	-0.026731081
141	0x000088bb	4.905e-41
142	0x3cc98fb3	0.024604654
143	0x21d9ce4d	1.4759099e-18
144	0x800090b3	-5.1908e-41
145	0x000088f6	4.9132e-41
146	0xbd3a2453	-0.045444798
147	0x19972b7d	1.5630599e-23
148	0x80008ec0	-5.1209e-41
149	0x80008a5b	-4.9633e-41
150	0x800090ec	-5.1988e-41
151	0x0c5b3b17	1.6888928e-31
152	0xb0d143f2	-1.5226063e-09
153	0x3bf97846	0.0076132147
154	0x0000894e	4.9256e-41
155	0x3de3b464	0.11118391
156	0xbd550b81	-0.052012924
157	0x000094c4	5.3367e-41
158	0x00008c84	5.0408e-41
159	0x3d4e6ffe	0.050399773
160	0x8000af97	-6.299e-41
161	0x00008a6b	4.9655e-41
162	0xbc23af9f	-0.009990602
163	0x000089b2	4.9396e-41
164	0x8081bf87	-1.1915486e-38
165	0x00009db0	5.6568e-41
166	0x3df5cd2c	0.12002024
167	0x0000974f	5.4279e-41
168	0x1c3f6539	6.3327426e-22
169	0x24a27bf6	7.04663e-17
170	0x00009089	5.185e-41
171	0x8000a257	-5.8237e-41
172	0x0028ad94	3.735688e-39
173	0x80008b91	-5.0067e-41
174	0x800088bf	-4.9055e-41
175	0x8000939e	-5.2955e-41
176	0xbbc913bf	-0.006136387
177	0x00009fa5	5.727e-41
178	0x3da34de2	0.07973839
179	0x800095f0	-5.3787e-41
180	0x3d5b3a6f	0.053522523
181	0x3d92e850	0.07173216
182	0x00008fc8	5.1579e-41
183	0x3dd411a1	0.10354925
184	0x3dca1daa	0.09868939
185	0x3de3a84d	0.11116085
186	0x00008931	4.9215e-41
187	0x800089e2	-4.9463e-41
188	0x80008a70	-4.9662e-41
189	0xbd15a566	-0.03653469
190	0x00008cf2	5.0562e-41
191	0x80008919	-4.9181e-41
192	0x80009065	-5.1799e-41
193	0x00009575	5.3615e-41
194	0x00008fdf	5.1611e-41
195	0x8000ad93	-6.2267e-41
196	0x800092af	-5.262e-41
197	0x8000ab99	-6.1558e-41
198	0x80009595	-5.366e-41
199	0x80009412	-5.3118e-41
200	0x80009bb3	-5.5854e-41
201	0x0000a079	5.7567e-41
202	0x8000960c	-5.3827e-41
203	0x80008e80	-5.112e-41
204	0x80009e21	-5.6726e-41
205	0x8000a97d	-6.0801e-41
206	0x800098ed	-5.486e-41
207	0x80009dfc	-5.6674e-41
208	0x000088f8	4.9135e-41
209	0x0000a83c	6.0351e-41
210	0x8000a939	-6.0706e-41
211	0x80008c06	-5.0231e-41
212	0x0000890e	4.9166e-41
213	0x8000a17b	-5.7928e-41
214	0x80009e12	-5.6705e-41
215	0x80009f9e	-5.726e-41
216	0x80008fe4	-5.1618e-41
217	0x80009965	-5.5028e-41
218	0x0000a348	5.8574e-41
219	0x8000a2a5	-5.8346e-41
220	0x8000a0f6	-5.7742e-41
221	0x00009e84	5.6865e-41
222	0x8000a35a	-5.86e-41
223	0x000089c3	4.942e-41
224	0x0000a12f	5.7822e-41
225	0x0000aedb	6.2726e-41
226	0x0000a3c5	5.875e-41
227	0x800089b7	-4.9403e-41
228	0x800091f5	-5.236e-41
229	0x00009720	5.4213e-41
230	0x00008b99	5.0078e-41
231	0x000088c4	4.9062e-41
232	0x80009959	-5.5011e-41
233	0x0000abd2	6.1638e-41
234	0x80008a0f	-4.9526e-41
235	0x80009932	-5.4956e-41
236	0x800097d7	-5.447e-41
237	0x00008ab4	4.9757e-41
238	0x80009962	-5.5023e-41
239	0x8000a179	-5.7925e-41
240	0x80008b25	-4.9916e-41
241	0x80008a05	-4.9512e-41
242	0x800093cd	-5.3021e-41
243	0x00009e2a	5.6739e-41
244	0x8000a0a0	-5.7621e-41
245	0x800090c2	-5.193e-41
246	0x00008b94	5.0071e-41
247	0x80008b0f	-4.9885e-41
248	0x8000a52a	-5.925e-41
249	0x80009cc2	-5.6234e-41
250	0x8000ac0d	-6.172e-41
251	0x8000ae23	-6.2468e-41
252	0x0000a9ee	6.0959e-41
253	0x000096d6	5.411e-41
254	0x8000a9a8	-6.0861e-41
255	0x00009d0c	5.6338e-41

common_layers.3.bias f4 [32]
0	0x3c43405d	0.011917201
1	0x3c6a2867	0.014291859
2	0x3b50340c	0.0031769304
3	0x800088f5	-4.9131e-41
4	0x3c24b53c	0.010052975
5	0xa601fb97	-4.5096833e-16
6	0x9307c431	-1.7136125e-27
7	0x3b50c8c6	0.0031857952
8	0x3c2c9c20	0.01053527
9	0x3c00de7b	0.0078655435
10	0x918f7353	-2.2632496e-28
11	0x9286293e	-8.466756e-28
12	0x3c37aa2f	0.0112100085
13	0x3bb0d9a3	0.005397038
14	0xbbcdcadc	-0.0062802862
15	0x3b843e9b	0.0040357835
16	0x3bcc1f6f	0.006229333
17	0xa535de80	-1.5774633e-16
18	0x3c7b990b	0.0153563125
19	0x3c3e5bb5	0.011618544
20	0x3b6144ef	0.0034373363
21	0x3be427df	0.006962761
22	0xbabb76cb	-0.0014302371
23	0xb410cf3a	-1.3486434e-07
24	0x3c1ffa20	0.009764224
25	0x3ba99348	0.005175028
26	0x3c51a736	0.012796214
27	0x3c69a948	0.014261551
28	0xb34546a0	-4.593187e-08
29	0x3bc1607a	0.0059013935
30	0x8fea3084	-2.3092869e-29
31	0xb5e94d92	-1.7382429e-06

common_layers.6.weight f4 [2, 32]
0	0x3eccc230	0.39991903
1	0x3ec1190d	0.37714425
2	0xbe9f449d	-0.31107035
3	0x80008cc8	-5.0503e-41
4	0x3ecb63c8	0.39724565
5	0x86b8e79b	-6.955342e-35
6	0x80008a33	-4.9577e-41
7	0xbea1ad5a	-0.3157757
8	0x3eb0076e	0.34380668
9	0xbe919e0e	-0.284409
10	0x000089b0	4.9393e-41
11	0x000088e4	4.9107e-41
12	0x3ec0c27e	0.37648386
13	0xbe98fa6e	-0.29878563
14	0x3cdc9c18	0.0269299
15	0xbea19682	-0.3156014
16	0xbe99e7d3	-0.3005968
17	0xa5744169	-2.1185788e-16
18	0x3ebc393f	0.36762425
19	0x3ece3adc	0.4027928
20	0xbea3710e	-0.3192219
21	0xbe9e8665	-0.3096191
22	0xbb89c32a	-0.0042041736
23	0x9809bc84	-1.7802011e-24
24	0x3ebcc7e6	0.3687126
25	0xbe9a1497	-0.30093834
26	0x3ec3757e	0.38175577
27	0x3ec20176	0.3789174
28	0x800089b2	-4.9396e-41
29	0xbea590de	-0.32337087
30	0x0eec295b	5.8218316e-30
31	0xa3f232ad	-2.6259155e-17
32	0x3a1a691f	0.0005890298
33	0xb9d97bec	-0.00041481794
34	0x39df269a	0.00042562635
35	0x000088f1	4.9125e-41
36	0xb9e77dca	-0.00044153474
37	0x85d5c0f7	-2.0101308e-35
38	0x88ecf452	-1.4261173e-33
39	0x372f113d	1.0434826e-05
40	0x389eb209	7.567189e-05
41	0x3a345a3b	0.00068799005
42	0x0000898c	4.9343e-41
43	0x98ed1cae	-6.1292023e-24
44	0x3a04370d	0.00050436036
45	0xb9bad553	-0.00035635623
46	0xbda204f2	-0.079110995
47	0xb993515d	-0.00028098645
48	0xb90e13fe	-0.00013549623
49	0xa61194f0	-5.050883e-16
50	0xb8972d34	-7.208661e-05
51	0x3acbaaa5	0.0015538527
52	0x3a1a592f	0.0005887923
53	0x3a0334f9	0.0005005147
54	0x3b224322	0.0024759253
55	0xb31cd2d0	-3.6513313e-08
56	0x395e934d	0.00021226444
57	0x3a529ab9	0.000803392
58	0xba0c10aa	-0.00053430593
59	0xba450ef2	-0.00075171806
60	0x3216b5bb	8.77247e-09
61	0x39e06274	0.00042797963
62	0x10528455	4.1517142e-29
63	0x3632eb90	2.6661182e-06

common_layers.6.bias f4 [2]
0	0xbcd072d3	-0.025445377
1	0x3f7ff165	0.99977714

exp_avg f4 [16, 1, 3]
0	0x39651240	0.0002184594
1	0xb92c21f0	-0.00016415841
2	0x3a9e73ba	0.0012088933
3	0x3b8d7bf8	0.0043177567
4	0x3b63e468	0.0034773592
5	0x3b6d1049	0.0036173037
6	0xbad8fde7	-0.0016555161
7	0xba2bde70	-0.0006556278
8	0xba15b1fe	-0.0005710422
9	0xb9494e8e	-0.00019198118
10	0x3a2b5f81	0.00065373635
11	0x398181ed	0.000247016
12	0x3ad1127b	0.0015950942
13	0x3ac29c0c	0.0014847531
14	0x3ac9f062	0.0015406723
15	0x80000000	-0.0
16	0x80000000	-0.0
17	0x80000000	-0.0
18	0x80000000	-0.0
19	0x00000000	0.0
20	0x00000000	0.0
21	0x39ce4016	0.0003933913
22	0xba47736c	-0.0007608447
23	0xba9671d9	-0.0011478021
24	0x80000000	-0.0
25	0x80000000	-0.0
26	0x80000000	-0.0
27	0x00000000	0.0
28	0x80000000	-0.0
29	0x80000000	-0.0
30	0x3a8bf359	0.0010677382
31	0x3a9a392b	0.0011766305
32	0x3a68d357	0.000888159
33	0x00000000	0.0
34	0x00000000	0.0
35	0x80000000	-0.0
36	0x80000000	-0.0
37	0x00000000	0.0
38	0x00000000	0.0
39	0x80000000	-0.0
40	0x00000000	0.0
41	0x80000000	-0.0
42	0x80000000	-0.0
43	0x80000000	-0.0
44	0x80000000	-0.0
45	0x00000000	0.0
46	0x00000000	0.0
47	0x80000000	-0.0

exp_avg_sq f4 [16, 1, 3]
0	0x3761b04c	1.3452092e-05
1	0x375464f4	1.265969e-05
2	0x38309c32	4.2107138e-05
3	0x392068b8	0.000152978
4	0x390617dd	0.00012788126
5	0x3957a314	0.00020564749
6	0x3829128c	4.0310013e-05
7	0x38066455	3.204153e-05
8	0x3808fec0	3.266218e-05
9	0x388a8152	6.6044406e-05
10	0x388cfa93	6.722393e-05
11	0x3880dbc2	6.144449e-05
12	0x382bfa8a	4.100291e-05
13	0x38132028	3.507748e-05
14	0x380c7356	3.3486016e-05
15	0x000001f4	7e-43
16	0x000001f4	7e-43
17	0x000001f4	7e-43
18	0x000001f4	7e-43
19	0x000001f4	7e-43
20	0x000001f4	7e-43
21	0x3998a4a6	0.00029114372
22	0x39115d41	0.00013863017
23	0x392094be	0.000153142
24	0x000001f4	7e-43
25	0x000001f4	7e-43
26	0x000001f4	7e-43
27	0x000001f4	7e-43
28	0x000001f4	7e-43
29	0x000001f4	7e-43
30	0x38f96e85	0.00011893831
31	0x38f163d3	0.00011510369
32	0x390da892	0.00013509605
33	0x000001f4	7e-43
34	0x000001f4	7e-43
35	0x000001f4	7e-43
36	0x000001f4	7e-43
37	0x000001f4	7e-43
38	0x000001f4	7e-43
39	0x000001f4	7e-43
40	0x000001f4	7e-43
41	0x000001f4	7e-43
42	0x000001f4	7e-43
43	0x000001f4	7e-43
44	0x000001f4	7e-43
45	0x000001f4	7e-43
46	0x000001f4	7e-43
47	0x000001f4	7e-43

exp_avg f4 [16]
0	0xb8cbabd9	-9.7118034e-05
1	0x3bd7285a	0.0065660896
2	0xba548964	-0.0008107631
3	0x3a9c463e	0.0011922789
4	0x3b27a7da	0.0025582225
5	0x80000000	-0.0
6	0x00000000	0.0
7	0xbaddf5ea	-0.001693425
8	0x80000000	-0.0
9	0x00000000	0.0
10	0x3a9acb17	0.0011809793
11	0x80000000	-0.0
12	0x00000000	0.0
13	0x00000000	0.0
14	0x80000000	-0.0
15	0x80000000	-0.0

exp_avg_sq f4 [16]
0	0x37d92aeb	2.5888401e-05
1	0x3974654c	0.0002330739
2	0x387023f5	5.7253947e-05
3	0x38b7149b	8.729958e-05
4	0x38676129	5.516518e-05
5	0x000001f4	7e-43
6	0x000001f4	7e-43
7	0x39840469	0.00025180288
8	0x000001f4	7e-43
9	0x000001f4	7e-43
10	0x3959cde0	0.00020771427
11	0x000001f4	7e-43
12	0x000001f4	7e-43
13	0x000001f4	7e-43
14	0x000001f4	7e-43
15	0x000001f4	7e-43

exp_avg f4 [32, 16, 3]
0	0x80000000	-0.0
1	0x80000000	-0.0
2	0x80000000	-0.0
3	0x80000000	-0.0
4	0x80000000	-0.0
5	0x00000000	0.0
6	0x80000000	-0.0
7	0x00000000	0.0
8	0x00000000	0.0
9	0x80000000	-0.0
10	0x00000000	0.0
11	0x80000000	-0.0
12	0x80000000	-0.0
13	0x80000000	-0.0
14	0x80000000	-0.0
15	0x80000000	-0.0
16	0x80000000	-0.0
17	0x00000000	0.0
18	0x80000000	-0.0
19	0x80000000	-0.0
20	0x00000000	0.0
21	0x80000000	-0.0
22	0x00000000	0.0
23	0x80000000	-0.0
24	0x00000000	0.0
25	0x80000000	-0.0
26	0x00000000	0.0
27	0x80000000	-0.0
28	0x00000000	0.0
29	0x80000000	-0.0
30	0x00000000	0.0
31	0x80000000	-0.0
32	0x00000000	0.0
33	0x00000000	0.0
34	0x00000000	0.0
35	0x00000000	0.0
36	0x80000000	-0.0
37	0x00000000	0.0
38	0x80000000	-0.0
39	0x00000000	0.0
40	0x80000000	-0.0
41	0x00000000	0.0
42	0x80000000	-0.0
43	0x80000000	-0.0
44	0x80000000	-0.0
45	0x00000000	0.0
46	0x80000000	-0.0
47	0x80000000	-0.0
48	0x00000000	0.0
49	0x00000000	0.0
50	0x00000000	0.0
51	0x8d6216a2	-6.966887e-31
52	0x93bde949	-4.7940344e-27
53	0x8fc9eb40	-1.9910745e-29
54	0x00000000	0.0
55	0x80000000	-0.0
56	0x00000000	0.0
57	0x8a0638f8	-6.46258e-33
58	0x8fff1208	-2.5151887e-29
59	0x8a3f5882	-9.212962e-33
60	0x00000000	0.0
61	0x00000000	0.0
62	0x00000000	0.0
63	0x00000000	0.0
64	0x80000000	-0.0
65	0x80000000	-0.0
66	0x80000000	-0.0
67	0x00000000	0.0
68	0x80000000	-0.0
69	0x00000000	0.0
70	0x00000000	0.0
71	0x00000000	0.0
72	0x00000000	0.0
73	0x00000000	0.0
74	0x80000000	-0.0
75	0x00000000	0.0
76	0x00000000	0.0
77	0x00000000	0.0
78	0x00000000	0.0
79	0x00000000	0.0
80	0x00000000	0.0
81	0x80000000	-0.0
82	0x00000000	0.0
83	0x80000000	-0.0
84	0x80000000	-0.0
85	0x00000000	0.0
86	0x80000000	-0.0
87	0x00000000	0.0
88	0x00000000	0.0
89	0x80000000	-0.0
90	0x00000000	0.0
91	0x00000000	0.0
92	0x80000000	-0.0
93	0x00000000	0.0
94	0x00000000	0.0
95	0x80000000	-0.0
96	0x80000000	-0.0
97	0x80000000	-0.0
98	0x80000000	-0.0
99	0x80000000	-0.0
100	0x80000000	-0.0
101	0x80000000	-0.0
102	0x00000000	0.0
103	0x00000000	0.0
104	0x80000000	-0.0
105	0x80000000	-0.0
106	0x80000000	-0.0
107	0x80000000	-0.0
108	0x00000000	0.0
109	0x80000000	-0.0
110	0x00000000	0.0
111	0x80000000	-0.0
112	0x80000000	-0.0
113	0x00000000	0.0
114	0x80000000	-0.0
115	0x80000000	-0.0
116	0x80000000	-0.0
117	0x00000000	0.0
118	0x80000000	-0.0
119	0x00000000	0.0
120	0x00000000	0.0
121	0x80000000	-0.0
122	0x80000000	-0.0
123	0x80000000	-0.0
124	0x80000000	-0.0
125	0x00000000	0.0
126	0x00000000	0.0
127	0x80000000	-0.0
128	0x00000000	0.0
129	0x00000000	0.0
130	0x00000000	0.0
131	0x80000000	-0.0
132	0x00000000	0.0
133	0x00000000	0.0
134	0x00000000	0.0
135	0x80000000	-0.0
136	0x00000000	0.0
137	0x00000000	0.0
138	0x00000000	0.0
139	0x00000000	0.0
140	0x00000000	0.0
141	0x80000000	-0.0
142	0x80000000	-0.0
143	0x80000000	-0.0
144	0xb391f66a	-6.796911e-08
145	0xb4121d35	-1.3607935e-07
146	0xb4161232	-1.3976458e-07
147	0xb3986e26	-7.0980875e-08
148	0xb3e7f194	-1.08007185e-07
149	0xb3ee0ec0	-1.1085422e-07
150	0xb452c004	-1.9627629e-07
151	0xb434e58f	-1.6847319e-07
152	0xb4037271	-1.2241959e-07
153	0xb3ee8526	-1.1106958e-07
154	0xb4053f02	-1.2409512e-07
155	0xb3dfeb22	-1.0427017e-07
156	0xb3c33401	-9.0898546e-08
157	0xb402831a	-1.2154888e-07
158	0xb3f52033	-1.14145585e-07
159	0x80000000	-0.0
160	0x80000000	-0.0
161	0x00000000	0.0
162	0x00000000	0.0
163	0x00000000	0.0
164	0x00000000	0.0
165	0xb3c17fcd	-9.01051e-08
166	0xb3a578c3	-7.705378e-08
167	0xb37407aa	-5.6817647e-08
168	0x00000000	0.0
169	0x00000000	0.0
170	0x00000000	0.0
171	0x80000000	-0.0
172	0x80000000	-0.0
173	0x80000000	-0.0
174	0xb3843fd9	-6.158343e-08
175	0xb3825f54	-6.070937e-08
176	0xb39150e1	-6.7668005e-08
177	0x80000000	-0.0
178	0x00000000	0.0
179	0x80000000	-0.0
180	0x80000000	-0.0
181	0x80000000	-0.0
182	0x80000000	-0.0
183	0x00000000	0.0
184	0x00000000	0.0
185	0x80000000	-0.0
186	0x00000000	0.0
187	0x00000000	0.0
188	0x00000000	0.0
189	0x00000000	0.0
190	0x80000000	-0.0
191	0x80000000	-0.0
192	0x00000000	0.0
193	0x80000000	-0.0
194	0x00000000	0.0
195	0x80000000	-0.0
196	0x00000000	0.0
197	0x80000000	-0.0
198	0x80000000	-0.0
199	0x00000000	0.0
200	0x80000000	-0.0
201	0x80000000	-0.0
202	0x00000000	0.0
203	0x00000000	0.0
204	0x80000000	-0.0
205	0x00000000	0.0
206	0x00000000	0.0
207	0x00000000	0.0
208	0x00000000	0.0
209	0x80000000	-0.0
210	0x80000000	-0.0
211	0x80000000	-0.0
212	0x80000000	-0.0
213	0x00000000	0.0
214	0x80000000	-0.0
215	0x80000000	-0.0
216	0x80000000	-0.0
217	0x00000000	0.0
218	0x00000000	0.0
219	0x80000000	-0.0
220	0x00000000	0.0
221	0x00000000	0.0
222	0x80000000	-0.0
223	0x00000000	0.0
224	0x80000000	-0.0
225	0x00000000	0.0
226	0x80000000	-0.0
227	0x80000000	-0.0
228	0x80000000	-0.0
229	0x00000000	0.0
230	0x80000000	-0.0
231	0x80000000	-0.0
232	0x00000000	0.0
233	0x00000000	0.0
234	0x00000000	0.0
235	0x00000000	0.0
236	0x00000000	0.0
237	0x80000000	-0.0
238	0x80000000	-0.0
239	0x00000000	0.0
240	0x3821717a	3.8491075e-05
241	0xb88d5c2b	-6.7405716e-05
242	0x3892ae09	6.994239e-05
243	0x386b56d0	5.6109217e-05
244	0x38b241b3	8.499939e-05
245	0x38ded169	0.000106247906
246	0x373619ee	1.0854083e-05
247	0x365be912	3.2769208e-06
248	0x36c14e8a	5.7609914e-06
249	0x38349963	4.3058197e-05
250	0x3735c0f3	1.0833365e-05
251	0x389c6178	7.456815e-05
252	0x3796f838	1.799698e-05
253	0x37f07486	2.866449e-05
254	0x38618272	5.3765667e-05
255	0x80000000	-0.0

exp_avg_sq f4 [32, 16, 3]
0	0x24c9d034	8.7522564e-17
1	0x24b5fad6	7.892117e-17
2	0x25b652cf	3.162808e-16
3	0x268affea	9.645039e-16
4	0x268ad02d	9.6321e-16
5	0x26274a7b	5.8040704e-16
6	0x23d911b0	2.3534678e-17
7	0x230c9c8a	7.622564e-18
8	0x2211c1f9	1.9753853e-18
9	0x260acd25	4.815639e-16
10	0x25ff147a	4.4249324e-16
11	0x25ba7018	3.2341814e-16
12	0x258ca189	2.439559e-16
13	0x258d89ac	2.455289e-16
14	0x25399a88	1.609855e-16
15	0x000001f4	7e-43
16	0x000001f4	7e-43
17	0x000001f4	7e-43
18	0x000001f4	7e-43
19	0x000001f4	7e-43
20	0x000001f4	7e-43
21	0x23605f1c	1.21632045e-17
22	0x212a6909	5.7737253e-19
23	0x232d51f4	9.395703e-18
24	0x000001f4	7e-43
25	0x000001f4	7e-43
26	0x000001f4	7e-43
27	0x000001f4	7e-43
28	0x000001f4	7e-43
29	0x000001f4	7e-43
30	0x2439d92c	4.0299432e-17
31	0x2498729c	6.611365e-17
32	0x243133d2	3.842465e-17
33	0x000001f4	7e-43
34	0x000001f4	7e-43
35	0x000001f4	7e-43
36	0x000001f4	7e-43
37	0x000001f4	7e-43
38	0x000001f4	7e-43
39	0x000001f4	7e-43
40	0x000001f4	7e-43
41	0x000001f4	7e-43
42	0x000001f4	7e-43
43	0x000001f4	7e-43
44	0x000001f4	7e-43
45	0x000001f4	7e-43
46	0x000001f4	7e-43
47	0x000001f4	7e-43
48	0x29642777	5.06604e-14
49	0x2a0fc08d	1.2767756e-13
50	0x29fe091c	1.1281446e-13
51	0x2abf7018	3.4006196e-13
52	0x2b01bb37	4.608982e-13
53	0x2ad50565	3.7840144e-13
54	0x28618444	1.25186896e-14
55	0x2886469e	1.4907614e-14
56	0x2814d23b	8.261237e-15
57	0x2aa5d5e2	2.94583e-13
58	0x2ad5c355	3.797194e-13
59	0x2aa736ef	2.9703277e-13
60	0x29e9612e	1.03641366e-13
61	0x2a1c8161	1.390047e-13
62	0x29fcb7b5	1.1222916e-13
63	0x000001f4	7e-43
64	0x000001f4	7e-43
65	0x000001f4	7e-43
66	0x000001f4	7e-43
67	0x000001f4	7e-43
68	0x000001f4	7e-43
69	0x2a15c3c2	1.3301776e-13
70	0x2a273944	1.4852448e-13
71	0x29e0242c	9.953873e-14
72	0x000001f4	7e-43
73	0x000001f4	7e-43
74	0x000001f4	7e-43
75	0x000001f4	7e-43
76	0x000001f4	7e-43
77	0x000001f4	7e-43
78	0x29b07ee1	7.83798e-14
79	0x29d74afb	9.560925e-14
80	0x29ba372b	8.2696294e-14
81	0x000001f4	7e-43
82	0x000001f4	7e-43
83	0x000001f4	7e-43
84	0x000001f4	7e-43
85	0x000001f4	7e-43
86	0x000001f4	7e-43
87	0x000001f4	7e-43
88	0x000001f4	7e-43
89	0x000001f4	7e-43
90	0x000001f4	7e-43
91	0x000001f4	7e-43
92	0x000001f4	7e-43
93	0x000001f4	7e-43
94	0x000001f4	7e-43
95	0x000001f4	7e-43
96	0x000001f4	7e-43
97	0x000001f4	7e-43
98	0x000001f4	7e-43
99	0x000001f4	7e-43
100	0x000001f4	7e-43
101	0x000001f4	7e-43
102	0x000001f4	7e-43
103	0x000001f4	7e-43
104	0x000001f4	7e-43
105	0x000001f4	7e-43
106	0x000001f4	7e-43
107	0x000001f4	7e-43
108	0x000001f4	7e-43
109	0x000001f4	7e-43
110	0x000001f4	7e-43
111	0x000001f4	7e-43
112	0x000001f4	7e-43
113	0x000001f4	7e-43
114	0x000001f4	7e-43
115	0x000001f4	7e-43
116	0x000001f4	7e-43
117	0x000001f4	7e-43
118	0x000001f4	7e-43
119	0x000001f4	7e-43
120	0x000001f4	7e-43
121	0x000001f4	7e-43
122	0x000001f4	7e-43
123	0x000001f4	7e-43
124	0x000001f4	7e-43
125	0x000001f4	7e-43
126	0x000001f4	7e-43
127	0x000001f4	7e-43
128	0x000001f4	7e-43
129	0x000001f4	7e-43
130	0x000001f4	7e-43
131	0x000001f4	7e-43
132	0x000001f4	7e-43
133	0x000001f4	7e-43
134	0x000001f4	7e-43
135	0x000001f4	7e-43
136	0x000001f4	7e-43
137	0x000001f4	7e-43
138	0x000001f4	7e-43
139	0x000001f4	7e-43
140	0x000001f4	7e-43
141	0x000001f4	7e-43
142	0x000001f4	7e-43
143	0x000001f4	7e-43
144	0x30ee84a0	1.7354473e-09
145	0x318b2934	4.0501167e-09
146	0x31788cf4	3.6168872e-09
147	0x322e4640	1.0144106e-08
148	0x3260b237	1.3079037e-08
149	0x3234fc78	1.0534784e-08
150	0x2f410561	1.7555159e-10
151	0x2f49f508	1.8367896e-10
152	0x2ea94a3c	7.698417e-11
153	0x31fca8ab	7.3533406e-09
154	0x321c8472	9.11051e-09
155	0x31eadf0b	6.8356534e-09
156	0x314cf875	2.9827139e-09
157	0x31833974	3.8191335e-09
158	0x314c6921	2.9745666e-09
159	0x000001f4	7e-43
160	0x000001f4	7e-43
161	0x000001f4	7e-43
162	0x000001f4	7e-43
163	0x000001f4	7e-43
164	0x000001f4	7e-43
165	0x31670f26	3.3623535e-09
166	0x3180de64	3.750573e-09
167	0x312d8255	2.5248899e-09
168	0x000001f4	7e-43
169	0x000001f4	7e-43
170	0x000001f4	7e-43
171	0x000001f4	7e-43
172	0x000001f4	7e-43
173	0x000001f4	7e-43
174	0x311dc2dd	2.2957274e-09
175	0x31379027	2.6711946e-09
176	0x31233639	2.3750444e-09
177	0x000001f4	7e-43
178	0x000001f4	7e-43
179	0x000001f4	7e-43
180	0x000001f4	7e-43
181	0x000001f4	7e-43
182	0x000001f4	7e-43
183	0x000001f4	7e-43
184	0x000001f4	7e-43
185	0x000001f4	7e-43
186	0x000001f4	7e-43
187	0x000001f4	7e-43
188	0x000001f4	7e-43
189	0x000001f4	7e-43
190	0x000001f4	7e-43
191	0x000001f4	7e-43
192	0x0000462c	2.5173e-41
193	0x000093e7	5.3057e-41
194	0x000077af	4.2934e-41
195	0x0000b6c3	6.5563e-41
196	0x0000f564	8.803e-41
197	0x0000c2a6	6.9827e-41
198	0x0000041e	1.477e-42
199	0x00000409	1.448e-42
200	0x000001f4	7e-43
201	0x0000682d	3.7371e-41
202	0x000081ca	4.656e-41
203	0x00005787	3.1399e-41
204	0x00002ac1	1.5337e-41
205	0x0000388a	2.0282e-41
206	0x00002c84	1.5969e-41
207	0x000001f4	7e-43
208	0x000001f4	7e-43
209	0x000001f4	7e-43
210	0x000001f4	7e-43
211	0x000001f4	7e-43
212	0x000001f4	7e-43
213	0x00004f89	2.8532e-41
214	0x0000574c	3.1316e-41
215	0x000040a3	2.3187e-41
216	0x000001f4	7e-43
217	0x000001f4	7e-43
218	0x000001f4	7e-43
219	0x000001f4	7e-43
220	0x000001f4	7e-43
221	0x000001f4	7e-43
222	0x00003a58	2.093e-41
223	0x00004622	2.5159e-41
224	0x000037bf	1.9998e-41
225	0x000001f4	7e-43
226	0x000001f4	7e-43
227	0x000001f4	7e-43
228	0x000001f4	7e-43
229	0x000001f4	7e-43
230	0x000001f4	7e-43
231	0x000001f4	7e-43
232	0x000001f4	7e-43
233	0x000001f4	7e-43
234	0x000001f4	7e-43
235	0x000001f4	7e-43
236	0x000001f4	7e-43
237	0x000001f4	7e-43
238	0x000001f4	7e-43
239	0x000001f4	7e-43
240	0x33b7941b	8.548542e-08
241	0x3526bc6e	6.211402e-07
242	0x3327782c	3.8992013e-08
243	0x34f409dd	4.5455718e-07
244	0x3503fe85	4.917168e-07
245	0x33df2a22	1.03919106e-07
246	0x32102695	8.390676e-09
247	0x30a2d197	1.184662e-09
248	0x303a2189	6.771406e-10
249	0x348860f5	2.540252e-07
250	0x340e636d	1.3260951e-07
251	0x333512ff	4.2159623e-08
252	0x33ef0d13	1.1131683e-07
253	0x33ed0df0	1.1038708e-07
254	0x32d545e8	2.4828253e-08
255	0x000001f4	7e-43

exp_avg f4 [32]
0	0x80000000	-0.0
1	0xafa2c359	-2.960643e-10
2	0x80000000	-0.0
3	0xb40c25dd	-1.305229e-07
4	0x80000000	-0.0
5	0x38f54bdb	0.000116966396
6	0x80000000	-0.0
7	0xa8092aac	-7.614281e-15
8	0x00004af9	2.6895e-41
9	0x8e4c249e	-2.5162572e-30
10	0xb2481e9a	-1.164849e-08
11	0xb381ff2e	-6.0534475e-08
12	0x80000000	-0.0
13	0x9006c306	-2.657708e-29
14	0xb08daf83	-1.0308984e-09
15	0x80000000	-0.0
16	0x80000000	-0.0
17	0x20b300c2	3.032428e-19
18	0xbae780d1	-0.0017662292
19	0x3b018699	0.0019764064
20	0x80000000	-0.0
21	0xb2901f0a	-1.6777921e-08
22	0x80000000	-0.0
23	0xb08ac6ae	-1.009729e-09
24	0xbb01f4aa	-0.001982967
25	0xaf342098	-1.6382484e-10
26	0x80000000	-0.0
27	0x80000000	-0.0
28	0x80000000	-0.0
29	0xae66704c	-5.2395685e-11
30	0x9c02102a	-4.3034283e-22
31	0x80000000	-0.0

exp_avg_sq f4 [32]
0	0x28382dbf	1.02239714e-14
1	0x2d80fedf	1.46651e-11
2	0x000001f4	7e-43
3	0x34c216d6	3.615193e-07
4	0x001e8eeb	2.806334e-39
5	0x36b970dd	5.5265687e-06
6	0x26b96fb1	1.2867228e-15
7	0x28a88185	1.8707917e-14
8	0x29da7eac	9.703119e-14
9	0x2ac493c2	3.4919122e-13
10	0x314daab3	2.9928457e-09
11	0x2f3d4d24	1.7216856e-10
12	0x293c604e	4.1827917e-14
13	0x29bbb3a6	8.335632e-14
14	0x2c05dad2	1.9021906e-12
15	0x000001f4	7e-43
16	0x14ed08d8	2.3934373e-26
17	0x298c358f	6.22654e-14
18	0x3957958a	0.00020559705
19	0x39d232f2	0.00040092279
20	0x000001f4	7e-43
21	0x2e9482fd	6.753529e-11
22	0x27e481e7	6.3423553e-15
23	0x2d04c7bb	7.54768e-12
24	0x3a0c2038	0.0005345377
25	0x2d35fd5f	1.03449185e-11
26	0x0eb12303	4.3667584e-30
27	0x28c9bc48	2.2397137e-14
28	0x000001f4	7e-43
29	0x2d93b2bc	1.679134e-11
30	0x2b450814	6.999967e-13
31	0x000001f4	7e-43

exp_avg f4 [64, 288]
0	0x80000000	-0.0
1	0x80000000	-0.0
2	0x80000000	-0.0
3	0x80000000	-0.0
4	0x00000000	0.0
5	0x00000000	0.0
6	0x00000000	0.0
7	0x80000000	-0.0
8	0x80000000	-0.0
9	0x80000000	-0.0
10	0x80000000	-0.0
11	0x80000000	-0.0
12	0x80000000	-0.0
13	0x80000000	-0.0
14	0x80000000	-0.0
15	0x00000000	0.0
16	0x80000000	-0.0
17	0x80000000	-0.0
18	0x00000000	0.0
19	0x80000000	-0.0
20	0x80000000	-0.0
21	0x80000000	-0.0
22	0x80000000	-0.0
23	0x80000000	-0.0
24	0x80000000	-0.0
25	0x80000000	-0.0
26	0x00000000	0.0
27	0xb4a6d0a2	-3.107171e-07
28	0xb4b02657	-3.281045e-07
29	0xb4afa278	-3.2714502e-07
30	0xb4b7b66f	-3.4219144e-07
31	0xb4cae9bf	-3.7795505e-07
32	0xb4d2e022	-3.9278626e-07
33	0xb4ce0c7f	-3.8379582e-07
34	0xb4caf313	-3.7802292e-07
35	0xb4b9f84e	-3.46396e-07
36	0x80000000	-0.0
37	0x80000000	-0.0
38	0x00000000	0.0
39	0x80000000	-0.0
40	0x80000000	-0.0
41	0x00000000	0.0
42	0x80000000	-0.0
43	0x00000000	0.0
44	0x00000000	0.0
45	0x80000000	-0.0
46	0x348ad165	2.5856858e-07
47	0x37dcbcc2	2.631394e-05
48	0x37e0ff8f	2.6821885e-05
49	0x37a13a87	1.921995e-05
50	0x9eb189c4	-1.8797582e-20
51	0x3364940a	5.3220027e-08
52	0x37333f7d	1.0684013e-05
53	0x3825eb8e	3.9558443e-05
54	0x80000000	-0.0
55	0x80000000	-0.0
56	0x80000000	-0.0
57	0x80000000	-0.0
58	0x80000000	-0.0
59	0x00000000	0.0
60	0x80000000	-0.0
61	0x00000000	0.0
62	0x00000000	0.0
63	0x23271312	9.0571264e-18
64	0xa4b0cbad	-7.667287e-17
65	0xa4850924	-5.769504e-17
66	0xa3e11c69	-2.4406581e-17
67	0x24408e97	4.1754142e-17
68	0x246ab779	5.089607e-17
69	0xa465d193	-4.9833976e-17
70	0xa4bca0d6	-8.180447e-17
71	0xa3c94f04	-2.1825928e-17
72	0x80003307	-1.8305e-41
73	0x8000136e	-6.97e-42
74	0x8000289b	-1.4566e-41
75	0x80002bfb	-1.5777e-41
76	0x80002922	-1.4756e-41
77	0x8000181d	-8.65e-42
78	0x80001143	-6.192e-42
79	0x000002e4	1.037e-42
80	0x80002ee0	-1.6816e-41
81	0x00000000	0.0
82	0x00000000	0.0
83	0x00000000	0.0
84	0x00000000	0.0
85	0x00000000	0.0
86	0x00000000	0.0
87	0x00000000	0.0
88	0x00000000	0.0
89	0x00000000	0.0
90	0xa734b568	-2.5078359e-15
91	0xaaa381fc	-2.904481e-13
92	0xaa4a9187	-1.7991694e-13
93	0xa9c11817	-8.575101e-14
94	0xa8b15057	-1.968579e-14
95	0xa84848f9	-1.1118054e-14
96	0xa88fe078	-1.5973537e-14
97	0xaa1a29af	-1.369241e-13
98	0xa74e4e77	-2.8630779e-15
99	0x00000000	0.0
100	0x011dc473	2.897729e-38
101	0x00052700	4.73168e-40
102	0x80000055	-1.19e-43
103	0x00000000	0.0
104	0x00000000	0.0
105	0x00000000	0.0
106	0x80000379	-1.246e-42
107	0x00000000	0.0
108	0x80000000	-0.0
109	0x80000000	-0.0
110	0x80000000	-0.0
111	0x00000000	0.0
112	0x00000000	0.0
113	0x00000000	0.0
114	0x00000000	0.0
115	0x80000000	-0.0
116	0x80000000	-0.0
117	0x0f996eed	1.5129692e-29
118	0x0fd8aa40	2.1364822e-29
119	0x0fc8e11c	1.9808232e-29
120	0x0fa7788d	1.6513906e-29
121	0x0f8f90e8	1.4156705e-29
122	0x0f9d6f10	1.5524175e-29
123	0x0fb8d6b8	1.8226507e-29
124	0x0fd059cf	2.0544977e-29
125	0x0f96d2c6	1.4872329e-29
126	0x175ec662	7.1982463e-25
127	0x9797c935	-9.808938e-25
128	0x176e6364	7.7027396e-25
129	0x1715c6e7	4.8395547e-25
130	0x976113ee	-7.2726576e-25
131	0x9774ff1a	-7.9162636e-25
132	0x972308b1	-5.267911e-25
133	0x978019d8	-8.27833e-25
134	0x173fcfe4	6.1977823e-25
135	0x00000000	0.0
136	0x80000000	-0.0
137	0x00000000	0.0
138	0x00000000	0.0
139	0x00000000	0.0
140	0x80000000	-0.0
141	0x00000000	0.0
142	0x80000000	-0.0
143	0x00000000	0.0
144	0x00000000	0.0
145	0x80000000	-0.0
146	0x80000000	-0.0
147	0x00000000	0.0
148	0x80000000	-0.0
149	0x80000000	-0.0
150	0x80000000	-0.0
151	0x00000000	0.0
152	0x80000000	-0.0
153	0x1e2051cb	8.487244e-21
154	0x1e7a4448	1.324901e-20
155	0x1e4f8eec	1.0988044e-20
156	0x1e26bf99	8.827588e-21
157	0x1e01a146	6.862554e-21
158	0x1de494de	6.0505023e-21
159	0x1dfedb6c	6.7460117e-21
160	0x1e2fa83b	9.299212e-21
161	0x1dd85225	5.725966e-21
162	0x38f9298f	0.00011880986
163	0x39370bc3	0.00017456622
164	0x395b6d9e	0.00020926303
165	0x39e24314	0.00043156056
166	0x3a83c2c3	0.001005255
167	0x3a8a3b9b	0.0010546328
168	0x38a22b9e	7.732886e-05
169	0x38919669	6.942155e-05
170	0x3985a04e	0.00025487173
171	0x3992ba97	0.0002798631
172	0x39d729e6	0.00041039212
173	0x39905dc0	0.0002753567
174	0x38baee64	8.913575e-05
175	0x3784653a	1.5782764e-05
176	0x37f6a457	2.9402012e-05
177	0x39cfdfe1	0.0003964892
178	0x39c47fe9	0.00037479334
179	0x3922658a	0.0001548735
180	0x00000000	0.0
181	0x00000000	0.0
182	0x80000000	-0.0
183	0x00000000	0.0
184	0x00000000	0.0
185	0x00000000	0.0
186	0x80000000	-0.0
187	0x80000000	-0.0
188	0x80000000	-0.0
189	0x00000000	0.0
190	0x00000000	0.0
191	0x00000000	0.0
192	0x00000000	0.0
193	0x00000000	0.0
194	0x00000000	0.0
195	0x00000000	0.0
196	0x00000000	0.0
197	0x00000000	0.0
198	0x00000000	0.0
199	0x00000000	0.0
200	0x00000000	0.0
201	0x00000000	0.0
202	0x80000000	-0.0
203	0x00000000	0.0
204	0x80000000	-0.0
205	0x00000000	0.0
206	0x80000000	-0.0
207	0x00000000	0.0
208	0x00000000	0.0
209	0x00000000	0.0
210	0x80000000	-0.0
211	0x80000000	-0.0
212	0x80000000	-0.0
213	0x00000000	0.0
214	0x80000000	-0.0
215	0x00000000	0.0
216	0x38a24a50	7.738604e-05
217	0x363e3358	2.8342092e-06
218	0x37d25845	2.5075055e-05
219	0xb6ec6a34	-7.0457118e-06
220	0x3a0ee603	0.00054511445
221	0x3a0eeb19	0.00054519024
222	0x381a9079	3.6851012e-05
223	0xb67e7006	-3.7914156e-06
224	0xb621611e	-2.40474e-06
225	0x00000000	0.0
226	0x00000000	0.0
227	0x00000000	0.0
228	0x80000000	-0.0
229	0x80000000	-0.0
230	0x00000000	0.0
231	0x80000000	-0.0
232	0x80000000	-0.0
233	0x80000000	-0.0
234	0x80000000	-0.0
235	0x80000000	-0.0
236	0x80000000	-0.0
237	0x80000000	-0.0
238	0x80000000	-0.0
239	0x00000000	0.0
240	0x80000000	-0.0
241	0x00000000	0.0
242	0x00000000	0.0
243	0x00000000	0.0
244	0x80000000	-0.0
245	0x80000000	-0.0
246	0x80000000	-0.0
247	0x80000000	-0.0
248	0x80000000	-0.0
249	0x00000000	0.0
250	0x80000000	-0.0
251	0x80000000	-0.0
252	0x00000000	0.0
253	0x80000000	-0.0
254	0x80000000	-0.0
255	0x00000000	0.0
