model_checkpoint.pth (torch, 279850 bytes, 30 tensors)

raycast_branch.0.weight f4 [16, 1, 3]
00000000: aabe 0180 5992 1780 9528 3580 8699 bd3f
00000010: 1804 14bf 1f38 133e e43f 96be 14ef 103f
00000020: 3ecf 993f 703a 49bf 986a a73f 4f63 3f3d
00000030: 2095 5b3f 2ea3 de3e 2afc 9b3e 87b1 58bf
00000040: f43e a13e 3b63 24be 5076 bcbe df69 9ebe
00000050: 2638 15bf 78ce 12bf 6aab 74bf acd5 6c3f
00000060: 4ae2 2080 73ed 2080 59f8 3780 e7d3 4680
00000070: 5b46 3280 de50 0c00 d6f3 983f 8961 cfbf
00000080: beb5 983f f752 2880 f5b5 3a80 7201 4580
00000090: c501 1100 30fb 0700 aa7d 5380 7a78 0a80
000000a0: 8552 0480 2104 2680 f2d4 1480 adca 1880
000000b0: 9eba 2080 d165 2280 cba9 0100 62f6 0480
-1.60233e-40 -2.164716e-39 -4.88184e-39 1.4812477 -0.57818747 0.14376877 -0.2934562 0.56614804
1.201637 -0.78604794 1.3079405 0.046725567 0.8577442 0.4348387 0.30465823 -0.84645885
0.31493342 -0.16053478 -0.36809015 -0.30940148 -0.582888 -0.57346296 -0.9557406 0.9251354
-3.019913e-39 -3.023917e-39 -5.140043e-39 -6.504501e-39 -4.617014e-39 1.131036e-39 1.1949413 -1.620164
1.1930463 -3.703182e-39 -5.391733e-39 -6.337168e-39 1.561838e-39 7.32958e-40 -7.667426e-39 -9.61574e-40
-3.96944e-40 -3.49123e-39 -1.9131e-39 -2.276758e-39 -3.005682e-39 -3.158932e-39 1.52746e-40 -4.55727e-40

raycast_branch.0.bias f4 [16]
00000000: 7d47 2880 be52 1bbf 5e5d 60bf 9208 a9be
00000010: 2460 5bbf c3de da3e c05a 433f bb70 f53e
00000020: 1278 1880 9262 2480 86a6 e8be 67e4 1a80
00000030: 9e1a 4880 03d6 1880 88b3 2080 3106 1b80
-3.699065e-39 -0.6067313 -0.8764247 -0.3301435 -0.85693574 0.4274808 0.7631035 0.4793757
-2.247125e-39 -3.341438e-39 -0.45439547 -2.469658e-39 -6.621704e-39 -2.280825e-39 -3.00314e-39 -2.48178e-39

raycast_branch.3.weight f4 [32, 16, 3]
00000000: 13c6 4980 d486 1780 6d54 1c80 639e 30b9
00000010: 3e2a f1b9 2f97 acb9 229e 1eba 07b3 73ba
00000020: c361 cbb9 3cd0 04ba 0640 53ba a9df 3eb8
00000030: e03b 8dba f84c c3ba 721b afba c1dd 93b8
00000040: 3a78 deb9 a2f9 d2b3 7bdf 67b0 d66d c0b8
00000050: 8838 a1b7 d393 60ba 774e 84ba 0707 dfb9
00000060: 00ec 7a01 368c e101 1c86 6801 00cd 0f80
00000070: 00a5 3780 0005 1b00 949c 79b8 7500 0fb9
00000080: e02d 4bb9 403f b381 40ea 9b01 00b8 2380
00000090: 3a53 0000 801f ac81 801f ac81 f027 8481
000000a0: c6ba 0382 8c56 b001 007b 2780 00e8 3780
000000b0: 0032 2180 9848 1580 5076 2680 7048 af00
000000c0: 438c 3e00 60b8 3c81 c009 0480 b16b a3bb
000000d0: 376c c1bb f992 f4bb ec7c d4bb 9c6c dfbb
000000e0: d4eb c7bb 8904 d6bb c33a e1bb df91 d4bb
000000f0: 2cb3 a8bb c850 c8bb 1e10 dfbb c8df bcbb
00000100: 6f88 c5bb ef67 5fbb feed a3bb f302 81bb
00000110: ba33 90bb 7452 c7bb 5ae6 cabb 3452 b0bb
00000120: cd69 3a80 ee8e 0800 7cad 0980 34f6 4480
00000130: 1c80 0680 227c 0180 7f86 92bb 3b83 c2bb
00000140: ec59 d7bb de53 0700 3ab7 0b00 8804 3580
00000150: 9186 0700 a580 0180 139f 0b80 08ce a600
00000160: 6029 f581 4e1f 9601 0058 3280 0058 3280
00000170: 8559 0400 70a6 4500 3405 e381 aeca af01
00000180: 7169 1380 988b 6181 7671 ae81 ad84 653b
00000190: 0761 e63b 5a82 e43b 1714 893b cef9 ae3b
000001a0: eab6 8a3b b855 b23b 7213 dd3b 2613 b83b
000001b0: 6088 153b 865c 873b 6721 873b 69ee bd3b
000001c0: ac19 fa3b 1cf4 293c 07cf 2b3c b071 0b3c
000001d0: 6f0c fa3b ee62 893b 1aa7 c73b aad5 b33b
000001e0: 0025 9201 0041 3281 0049 9d81 d7e5 3e00
000001f0: 26e5 4900 f267 1c00 f2c7 963b 7932 f93b
00000200: aa81 023c dd27 0100 dd69 0680 67b8 0200
00000210: 23a7 be81 e87e 9481 82a3 f481 b3fa 0800
00000220: a0ce 1282 3c8f 1d80 a9d5 1a00 22ee 1700
00000230: 4075 3700 ea7b 4280 7016 fa81 9483 ed81
00000240: 75f7 db81 73b7 0300 d43b 0900 9934 2680
00000250: 6b2d 2580 eb60 2080 ea08 2980 e035 2a80
00000260: 4fb0 2880 bdd4 2480 f562 2880 9168 2280
00000270: 418f 3280 0d8b 3180 c7ff 2e80 984c 2180
00000280: a149 2080 7ead 0e80 8780 1980 1d3e 1d80
00000290: 9101 1f80 88d3 2e80 f291 2d80 b9ad 2b80
000002a0: 00ed 0a80 40a4 d881 003b 7181 bb5d 1f00
000002b0: 684a 0582 4b07 2300 ef31 2880 a185 2880
000002c0: b9d2 1f80 0067 7e00 0075 0581 0039 d280
000002d0: 00b2 0080 00df 0b80 00df 0b80 487a 4380
000002e0: 5e60 3f00 fc1e 1200 005b 4d01 002e 4501
000002f0: 804c ac81 20a1 1380 b424 1280 cc48 1100
00000300: 4ea7 0080 c203 0500 9c0b 0c00 ca0f 58be
00000310: a7cd 25bf f4b8 043f b749 adbd 9f35 373e
00000320: f531 2b3f e952 57bd dc2d 20be 0a74 083f
00000330: ee6b ebbe cde2 d5be f5a1 8f3e c752 ac3e
00000340: f7e9 97bd 772c 823e 2fac d13e 6e60 9b3d
00000350: 54bc 993d 9243 0d3f 6325 343f ae11 9cbe
00000360: 2726 2080 ea02 2380 df65 2b80 7fc4 4680
00000370: 24c7 2480 0719 2600 f600 ad3e 8d33 81be
00000380: 9a95 2cbc 1c48 1e80 e1fc 1b80 e128 2080
00000390: ddde 1d80 5844 3300 f012 1900 cac6 0780
000003a0: 2a7b 4100 5f82 2400 64f8 2100 4fea 1980
000003b0: 38b6 2500 f1dd 3580 3e00 2580 04e8 2680
000003c0: 668d 2500 4bae 1680 c8d5 0000 ee7e ecbd
000003d0: e302 2fbf 0424 f83e 16f2 16be f80e 243f
000003e0: 65ed 8a3c d749 07bf b3ec a83c f73d 4c3e
000003f0: d6f7 233f 4dad 5d3e ebc1 5cbe 3cab f23e
-6.775047e-39 -2.160584e-39 -2.60168e-39 -0.00016843672 -0.00045998575 -0.00032919037 -0.00060507853 -0.00092963915
-0.00038792015 -0.000506643 -0.00080585515 -4.550783e-05 -0.001077529 -0.0014900258 -0.001335962 -7.050811e-05
-0.00042432715 -9.824295e-08 -8.4354895e-10 -9.175732e-05 -1.921902e-05 -0.00085669494 -0.0010094185 -0.0004253911
4.608707e-38 8.285314e-38 4.270789e-38 -1.451073e-39 -5.110143e-39 2.481352e-39 -5.951205e-05 -0.00013637713
-0.00019376678 -6.5844975e-38 5.727414e-38 -3.280249e-39 2.9856e-41 -6.322802e-38 -6.322802e-38 -4.854645e-38
-9.677961e-38 6.477638e-38 -3.625708e-39 -5.134178e-39 -3.048508e-39 -1.954587e-39 -3.532191e-39 1.6097198e-38
5.744117e-39 -3.466243e-38 -3.7084e-40 -0.004987203 -0.005902793 -0.0074638096 -0.0064846184 -0.006818367
-0.006101111 -0.0065313024 -0.00687346 -0.0064871158 -0.005148312 -0.0061131455 -0.0068073412 -0.0057639815
-0.006028227 -0.003408905 -0.005002736 -0.003937119 -0.0044006975 -0.006082827 -0.006192011 -0.005380893
-5.364413e-39 7.85957e-40 -8.88754e-40 -6.333135e-39 -5.9697e-40 -1.36366e-40 -0.0044715996 -0.005936054
-0.006571999 6.72934e-40 1.07592e-39 -4.868907e-39 6.91122e-40 -1.37984e-40 -1.067256e-39 1.5318602e-38
-9.0058156e-38 5.514622e-38 -4.623343e-39 -4.623343e-39 3.99456e-40 6.396356e-39 -8.3394097e-38 6.457568e-38
-1.7827e-39 -4.1426127e-38 -6.4080314e-38 0.0035021708 0.0070306095 0.006973547 0.004183303 0.0053398376
0.004233231 0.0054423474 0.006746703 0.005617517 0.0022816882 0.0041309027 0.004123855 0.005796243
0.007632455 0.010373142 0.010486371 0.008510992 0.0076308767 0.0041927015 0.006092918 0.005488117
5.368502e-38 -3.2740072e-38 -5.777744e-38 5.776252e-39 6.786194e-39 2.608682e-39 0.004601472 0.0076048938
0.007965485 1.06136e-40 -5.8899e-40 2.49822e-40 -7.0034807e-38 -5.4548715e-38 -8.9866066e-38 8.24618e-40
-1.0785684e-37 -2.714612e-39 2.46437e-39 2.197642e-39 5.093014e-39 -6.105595e-39 -9.186769e-38 -8.7248856e-38
-8.080298e-38 3.41316e-40 8.47982e-40 -3.508617e-39 -3.414206e-39 -2.973503e-39 -3.768453e-39 -3.876418e-39
-3.736667e-39 -3.382394e-39 -3.708919e-39 -3.159918e-39 -4.643165e-39 -4.549821e-39 -4.316188e-39 -3.058048e-39
-2.965149e-39 -1.347934e-39 -2.341994e-39 -2.685511e-39 -2.847462e-39 -4.300316e-39 -4.184953e-39 -4.011246e-39
-1.003375e-39 -7.9581556e-38 -4.430704e-38 2.880525e-39 -9.79265e-38 3.216859e-39 -3.691333e-39 -3.721357e-39
-2.922493e-39 1.1608222e-38 -2.4512185e-38 -1.9305902e-38 -6.3854e-41 -1.090188e-39 -1.090188e-39 -6.196844e-39
5.820206e-39 1.664154e-39 3.7717843e-38 3.621619e-38 -6.3292593e-38 -1.802675e-39 -1.666206e-39 1.587318e-39
-6.0018e-41 4.60526e-40 1.10619e-39 -0.21099773 -0.64766926 0.51844716 -0.084613256 0.17891549
0.66873103 -0.052569304 -0.15642494 0.5330206 -0.4598078 -0.41774598 0.2805325 0.33656904
-0.07417672 0.2542455 0.40951678 0.07586752 0.07506624 0.5518123 0.7036955 -0.3048224
-2.952422e-39 -3.215288e-39 -3.985471e-39 -6.498974e-39 -3.377516e-39 3.498727e-39 0.33789796 -0.25234643
-0.010533715 -2.780933e-39 -2.570274e-39 -2.9534e-39 -2.743178e-39 4.708127e-39 2.302681e-39 -7.1416e-40
6.01349e-39 3.352846e-39 3.119677e-39 -2.379941e-39 3.463281e-39 -4.946899e-39 -3.398e-39 -3.57298e-39
3.448638e-39 -2.082905e-39 7.669e-41 -0.115476474 -0.6836378 0.48464978 -0.14740786 0.6408534
0.016958902 -0.52847046 0.02062068 0.19945513 0.6405004 0.2164814 -0.21558349 0.47396266

raycast_branch.3.bias f4 [32]
00000000: 6658 50bb 5331 ccbb 8e39 733b a6b0 4b80
00000010: 20cd e2be 0602 103e abf8 c7be bf3d 0b3d
00000020: 21ea 4a80 9777 f3bb 579d 3680 c1c9 ab80
00000030: cd14 6cba e2eb db80 00d5 aabb 612f 5480
00000040: dc00 7b80 46b5 313d 1d4f cb3e 3629 33bc
00000050: f262 8c80 6f5c 8880 77a2 fcbb 1034 6ea7
00000060: 32d9 de3e f0ee c0ba 0575 8d3e 536d 5280
00000070: 27ff d3bd e3df 5e80 8b1c 5ebe d78d f880
-0.003179097 -0.006231466 0.0037113163 -6.951032e-39 -0.44297123 0.14063272 -0.39056906 0.033994433
-6.879816e-39 -0.0074300277 -5.01556e-39 -1.5776246e-38 -0.0009005785 -2.0196592e-38 -0.00521338 -7.731178e-39
-1.1296074e-38 0.043385766 0.39708796 -0.010935118 -1.2892464e-38 -1.2522786e-38 -0.007709797 -3.3057358e-15
0.43525082 -0.0014719646 0.2762834 -7.569729e-39 -0.10351401 -8.712852e-39 -0.21690576 -2.2826086e-38

common_layers.0.weight f4 [64, 288]
00000000: 6646 bbab 2908 cd9d 0244 90a2 ddcb 3497
00000010: a559 cc11 e06f c998 b4d3 dc9e cae1 44a2
00000020: a42e cc96 87de 5bbc 5153 6cbc 426d 3cbc
00000030: 7ac5 35bc 8428 3bbc b1b3 42bc af8e 53bc
00000040: e722 62bc 4573 51bc c714 85bb 6862 15bb
00000050: 8c0b 41bb 0409 3abb eccb 10bb 7823 81ba
00000060: 17bb 61ba 0970 90ba 2c6a eeba df90 3000
00000070: ffc6 3600 839e 2600 124b 2900 42d4 2f00
00000080: 4e1b 4600 ad65 3b00 2105 3700 fe51 3000
00000090: 7efe b9bd 943c 0e3e 6060 8c3b f49c 70ba
000000a0: ee26 30bc decc 183d 8792 0fbe 4d9b 03be
000000b0: 89c4 a380 fd22 a1bb 8f73 583d 40e4 83be
000000c0: 24a5 3ebb fd3b 903d 001b aebb ae23 1f3d
000000d0: 20c7 51bd f6bd d43c 948c ebbb 0ea8 9dbd
000000e0: 74a0 61be 9d75 a0bd 8713 11be b207 0a3c
000000f0: 6cab 85bd 1841 323e 8724 9aba 8553 3200
00000100: d718 0a00 319d adbb 5c0a 443e 0fdd 79bd
00000110: f519 ce3c cab9 6e80 ad28 3980 359e 53bd
00000120: 9ff4 2a00 9b40 0d00 1cc6 1600 9f74 3200
00000130: b8ed 4800 ee60 4a00 7e43 3000 48be 2300
00000140: 5b08 2a00 fddc ecbb dd67 e7bb 57f7 d5bb
00000150: a58b fdbb 094e 24bc af42 41bc 4ba7 23bc
00000160: f925 0cbc b3f0 febb 06be 4500 a22a 4a00
00000170: 0916 3f00 60da 3400 2b39 3400 757f 4400
00000180: ff9f 3a00 0d82 2a00 dfe0 3000 ff00 6880
00000190: 6579 6580 fddb 6080 42db 3700 906b 1000
000001a0: 436c 0000 19e8 3480 67ae 0a80 6358 2180
000001b0: 97d8 06b9 809f 87b9 ed2d 52b7 f3ac eab6
000001c0: d9c2 4bb7 3826 04b8 cb36 84b8 2a5a b2b8
000001d0: 18ee 8ab7 80cd 7180 a813 2f80 08a5 1581
000001e0: a051 4c80 e049 9e00 88b2 0300 3890 2780
000001f0: c821 1980 0852 0101 a2df b334 d2e1 2e34
00000200: 2309 3e30 f9b7 422f d513 eb2f 5af1 9a31
00000210: 361a 0f33 6ddd 6533 c002 8e30 6ee6 2680
00000220: 9a58 3380 a2d6 3480 1212 3e80 923e 4680
00000230: 1013 4780 60d3 4180 cc48 3880 e8f0 3980
00000240: 7282 3000 284c 0c00 d132 4000 bd4a 3300
00000250: d2ed 2480 9684 9500 913f 1780 7199 3680
00000260: 4234 6200 11af abbd 1aa5 1cbe ed52 c4bd
00000270: 1abd 213d 6e74 633e 97a4 863c 5e15 88be
00000280: 744a fb3d 17aa 5700 9828 d53d 6685 1a3d
00000290: bdde 83be b056 c33d fbe8 713e 1a6b 503d
000002a0: b9ae 97bd 418e 12be 0c71 c43c eada 2eb4
000002b0: 4802 54b4 d773 93af 1f52 bfae 5b2c f2af
000002c0: 13a1 ceb1 0990 d1b2 7eda fcb2 a312 fdaf
000002d0: 536f 3600 27a0 1600 5c20 0280 b7b3 0e00
000002e0: 750c 1e00 abc2 2500 3365 2e00 5d2e 2700
000002f0: bf05 1900 c2a7 0000 ca54 0f80 bf40 3080
00000300: d4c9 2880 f593 1280 5744 0700 b040 0680
00000310: bbf5 0680 c325 0d80 f674 3438 f1a4 f738
00000320: c46b a2b8 4b37 9037 b8a5 1638 52bb eb37
00000330: 4707 4fb7 f658 c1b8 4804 c1b8 e1f3 7f00
00000340: ce07 6b00 c2eb aa00 93cf b100 15ec a700
00000350: 5e8e 9000 e019 8b00 836e 8c00 b3f9 a400
00000360: 554c d63c ef76 983d 5ae0 e7bc 782c 45bd
00000370: ba02 b6be ab94 8f3d 6478 2dbd 8889 073d
00000380: b0fe 0abd bfc2 ef9c 5887 1800 3672 9f03
00000390: b0c9 1000 a159 1100 af1f e38b 4b2f b093
000003a0: 44a0 ce8d b05e 1f00 f0f3 a33d 3b3d 663d
000003b0: ba81 c5bc b011 833d 637b 753e 5caf 8fbb
000003c0: 6591 36bd 1560 88be cc44 30be 45f1 2880
000003d0: f541 1080 8928 0680 d8d9 3980 28db 4680
000003e0: 5726 4780 e545 2a80 079d 0f80 cc50 1980
000003f0: 2bb1 75bd c1ca a33d b6de 20bd 09d6 463d
-1.3306689e-12 -5.4271486e-21 -3.9103284e-18 -5.841845e-25 3.2240773e-28 -5.2070247e-24 -2.3380964e-20 -2.6682485e-18
-3.2987412e-25 -0.013419754 -0.014424161 -0.0115006585 -0.011094445 -0.011423234 -0.011883662 -0.012912436
-0.013802267 -0.01278383 -0.0040613147 -0.002279425 -0.0029456345 -0.0028386721 -0.0022094203 -0.000985249
-0.00086109474 -0.0011019717 -0.0018189601 4.460074e-39 5.030503e-39 3.546612e-39 3.792185e-39 4.392412e-39
6.43828e-39 5.454769e-39 5.052792e-39 4.437517e-39 -0.09081744 0.13890296 0.0042839497 -0.0009178661
-0.010751469 0.03730475 -0.1402074 -0.12852211 -1.503969e-38 -0.004917501 0.05284458 -0.25760078
-0.002909013 0.07042692 -0.0053132772 0.038852386 -0.05121529 0.025969487 -0.007188389 -0.076980695
-0.22033864 -0.07834933 -0.14167605 0.008424686 -0.06526837 0.17407644 -0.0011760154 4.621736e-39
9.27266e-40 -0.0052982797 0.19144577 -0.061001834 0.025158862 -1.0168553e-38 -5.249215e-39 -0.05166455
3.944844e-39 1.217038e-39 2.091449e-39 4.63361e-39 6.697433e-39 6.830599e-39 4.432315e-39 3.282502e-39
3.860088e-39 -0.0072284923 -0.007061942 -0.0065297293 -0.007737594 -0.010028371 -0.011795684 -0.009988616
-0.008553975 -0.0077801584 6.404817e-39 6.81112e-39 5.793541e-39 4.853784e-39 4.795954e-39 6.290537e-39
5.383855e-39 3.903744e-39 4.488772e-39 -9.551249e-39 -9.318933e-39 -8.895125e-39 5.129607e-39 1.507954e-39
3.8837e-41 -4.858707e-39 -9.80919e-40 -3.062279e-39 -0.00012859922 -0.00025868043 -1.2527668e-05 -6.9938774e-06
-1.2145109e-05 -3.1506846e-05 -6.3044565e-05 -8.504496e-05 -1.6561753e-05 -1.045113e-38 -4.32332e-39 -2.7485382e-38
-7.008779e-39 1.453651e-38 3.39551e-40 -3.63332e-39 -2.308006e-39 2.3752413e-38 3.3504062e-07 1.6287166e-07
6.913458e-10 1.7709557e-10 4.2760342e-10 4.5094284e-09 3.331862e-08 5.3519603e-08 1.0332641e-09 -3.572411e-39
-4.715395e-39 -4.852442e-39 -5.700283e-39 -6.450931e-39 -6.527159e-39 -6.045134e-39 -5.168902e-39 -5.321044e-39
4.454899e-39 1.129346e-39 5.895701e-39 4.710421e-39 -3.391392e-39 1.3731052e-38 -2.13502e-39 -5.014161e-39
9.018625e-39 -0.08383001 -0.15297356 -0.09586129 0.039486982 0.22212383 0.016435904 -0.26578802
0.1227006 8.050705e-39 0.10408133 0.037724875 -0.25755873 0.09538019 0.23624031 0.05088339
-0.074063726 -0.14312078 0.023979686 -1.6284653e-07 -1.9744868e-07 -2.6821453e-10 -8.700262e-11 -4.405106e-10
-6.013701e-09 -2.4396302e-08 -2.943602e-08 -4.6033674e-10 4.999052e-39 2.077833e-39 -1.9528e-40 1.350166e-39
2.759534e-39 3.467747e-39 4.260736e-39 3.598216e-39 2.297949e-39 6.018e-41 -1.407949e-39 -4.43133e-39
-3.745822e-39 -1.706116e-39 6.67364e-40 -5.74218e-40 -6.39164e-40 -1.207408e-39 4.3024273e-05 0.000118086005
-7.744835e-05 1.7191885e-05 3.5917124e-05 2.810141e-05 -1.2339856e-05 -9.2195274e-05 -9.2037546e-05 1.1750595e-38
9.829198e-39 1.5696608e-38 1.6329346e-38 1.5421218e-38 1.3275383e-38 1.2774416e-38 1.2896614e-38 1.5150597e-38
0.026159445 0.0744456 -0.028305221 -0.04813811 -0.35548955 0.07010778 -0.04235114 0.033090144
-0.033934295 -1.5866034e-21 2.252604e-39 9.371402e-37 1.54172e-39 1.593356e-39 -8.748489e-32 -4.447528e-27
-1.2734313e-30 2.880868e-39 0.08005512 0.056210738 -0.02410971 0.06399858 0.2397285 -0.004384918
-0.044572253 -0.26635805 -0.17213744 -3.759971e-39 -1.493029e-39 -5.65554e-40 -5.312771e-39 -6.507103e-39
-6.534074e-39 -3.882164e-39 -1.433863e-39 -2.324872e-39 -0.059983414 0.079976566 -0.039274894 0.048543964

common_layers.0.bias f4 [64]
00000000: 88cc 89bb ed51 bcbd 9efd 00b8 9b33 b9be
00000010: c441 2a3c 72cc 3a3d 2eeb 12b4 4605 643d
00000020: 8a3c 483c cea0 39bc 872e 173c fbfd 3abc
00000030: 6363 98bd 2a7a 0abd 7662 39bc bd1d 223a
00000040: ae61 61bc 544f 45b9 ac7e 1e3c bf76 25be
00000050: 9cdb 1bbd 71b7 a4bb 6fd7 87bd 5224 7c3d
00000060: aaba 83bd adbd f03c 0e63 9fbd 0332 a03d
00000070: a173 cbbc 7a03 8d3c 1deb bfbd 7ac7 4abc
00000080: 7a50 84bd 99aa 303d 6a49 92bc 4afb 423d
00000090: 8bb2 dfbc f70a 3cbd 6253 86bd e68f 18be
000000a0: 78e6 17bc 3431 e5ab e190 13be b897 aebd
000000b0: 4e6a 9eba 3add 9ea0 5a38 a23c f4c0 d43c
000000c0: e8d7 26be c657 87bd a394 7dbd fcdb 103c
000000d0: db55 92be bcf8 0ebc 7633 c9bb 1d90 f43c
000000e0: 859d 8abc 150f b7bc 7744 e0b6 7262 f2bc
000000f0: 4838 5c3c d227 b6bd 6ed6 3bbb eb87 d03c
-0.00420529 -0.091953136 -3.0753778e-05 -0.36172184 0.010391656 0.04560513 -1.3682867e-07 0.05566909
0.012221465 -0.011329843 0.009227402 -0.011413093 -0.074408315 -0.03380791 -0.011314979 0.0006184241
-0.013756199 -0.00018816936 0.009673756 -0.1615858 -0.038051233 -0.0050267507 -0.066328876 0.061558075
-0.06432088 0.02938732 -0.07782565 0.07822039 -0.02483541 0.017213572 -0.09371016 -0.0123766605
-0.06460662 0.043131445 -0.017857272 0.04760293 -0.027306816 -0.045908894 -0.06558873 -0.14898643
-0.009271257 -1.6285085e-12 -0.14410736 -0.08525032 -0.0012086125 -2.6912637e-19 0.019802261 0.025970913
-0.16293299 -0.06608538 -0.06190933 0.008841511 -0.28581128 -0.008726295 -0.006140168 0.029853875
-0.016920814 -0.022346059 -6.6836906e-06 -0.029587958 0.013441153 -0.08894314 -0.0028661746 0.025455436

common_layers.3.weight f4 [32, 64]
00000000: 5270 c6bd 5dd5 2dbd 2832 7f90 70c5 833a
00000010: 9a1c 89bd ef98 2ebe 88de 7b80 0b93 22bd
00000020: 736f e9bc 2797 a03d 07ad ebbd b4de b8bd
00000030: a0eb 6bbd 602d 063c f676 b4bd a367 e7bd
00000040: 4487 d8bd 74fb 8924 8e2f abbd 4201 bb3d
00000050: bafe 9ebd 9f75 a6b5 4d2b 223e 49a7 4f3d
00000060: 0e6c 2b3d a525 71bd 23c8 3dbd 7598 80bd
00000070: 5cbd 233e 7ff5 4c3d acd7 623c 4ed6 efba
00000080: 6650 753d 319b febd 9317 a23d c5e8 aeba
00000090: ea13 4e3e 9ecd 8dbd 1ed0 6b3e dc76 dbbd
000000a0: fda8 cb3c 1530 b080 ab4d 993e 93e5 9e3d
000000b0: 7903 02bc 8fb8 2180 79c6 34be 52a8 8bbc
000000c0: 6cac 3bba 6acb 16bb ba5b a0bd 5dc4 4ebd
000000d0: 585f 13bd 59d2 223e 142d dd3d 3726 3cbd
000000e0: 26fc 863b de3a b0bd fa18 2780 f80d 13be
000000f0: 3479 01bd 4e1e 863e 87c5 8033 8cb0 1c3d
00000100: b189 5a3d 7829 5ebc 3d3c c49d 41dc 1080
00000110: 86fe fdbb 212d 08be 7fa2 6280 52d6 35be
00000120: 285b 88be 86c5 b9bd 072a 833d 182d f03c
00000130: 4098 82bd adc4 21be bb63 453d fea9 613c
00000140: 752b 5dbc b778 85aa d7a8 8bbd 7f1d a5bc
00000150: 808b 8abc c186 88ba 55f9 133d 0609 4dbe
00000160: 4722 28be f668 cdbb 36ab 0bbd 7e90 4dbe
00000170: e17a abbd 942a 42be ef3a f5bd 544d 9fbe
00000180: 607d 0ebd 90df 0fbe 83d5 cdbc 7141 0cbf
00000190: 6b45 6ebd 635a f1bc 6822 b4bc e577 dabb
000001a0: a8b4 86be 5ec6 0a81 92d9 b43c db37 23bd
000001b0: e619 8ebe eba3 6f00 1c76 2fbe e0d3 6fbe
000001c0: b793 6bbd 5fc7 29be 35c0 76bc d827 053c
000001d0: 44df a4bb b050 bcbd d0f4 08be e11f 84be
000001e0: e13d babe cf91 b2bc 240c 1e98 6d66 39bd
000001f0: 0baf 79be 3722 52bd 4674 c839 3ad4 63be
00000200: b437 fa3d aecd 26bd c13e 7e15 3a21 3c3c
00000210: 41ca c83d 6bb8 94bd f0f0 4900 8e2f 1ebe
00000220: 69a3 b13b 11a1 113c b301 203d 43db 173e
00000230: 7809 a9bd 4838 c9bd 7c46 0a3e 79ac 113e
00000240: c0b6 5a3e 0d74 ff2b 2c1a 60bd 6377 f73c
00000250: 6d1f 20bd c073 263a 5698 b43b 2a62 4abe
00000260: 2570 fbbd cb89 d5bd f3e7 f5bd f9ca 37be
00000270: f583 113b aa65 933c b267 86bd d237 acbc
00000280: 999f abbc d45d 35be f84b 3cbb f7d9 f13b
00000290: 2970 c63d 2f1f adbd e269 12bc 4922 423b
000002a0: 8d5c 33be 5802 7380 681c ae3c 4e05 973c
000002b0: 569a 70bc b377 6380 d8bd 86bc e441 1dbe
000002c0: d008 3f3c 4db0 733a 4705 1b3d 77df dfbd
000002d0: d9fe bebc 390e 7bbd 74fe 32bd 6753 253d
000002e0: c789 90be 7aa5 243e da3f 1c80 895c 06bd
000002f0: a2f0 62bd 4637 ad3d a983 7a38 faf7 9ebd
00000300: de69 dfbd ca4e 6dbc 0445 0618 e482 34bd
00000310: 7517 8d3e 6042 523d 566e 6d00 8942 013e
00000320: 991f be3c c1c2 7abd 8388 1fbe fea5 eabd
00000330: 53ba d83d fc84 02be 8d59 c1bd 98fa e7bd
00000340: f7fc e8bd 09a1 6b15 8861 623e 1b7c bf3d
00000350: da27 b63d 641a 9db8 f428 89bc ffd8 e8bd
00000360: 8229 833d ae42 153e b70c 333e b0cf b7bb
00000370: e25d 67bd eef0 ebbb 7e7c 06be 7ed9 d9bc
00000380: c7a4 acbd 684e a43c aec2 98bc 3127 acbd
00000390: 7569 babd 0183 9a3d e691 8bbd 9a87 babd
000003a0: 856d e03c 3ccc d480 134f e2bd 8f6e e53d
000003b0: 7f34 f6bd 3ad6 2a80 8b20 a03c 2778 0a3e
000003c0: da54 6c3c 3b75 80bd 6928 6a3e 4255 e9bd
000003d0: bbfa a13d 9af6 d63c 40f3 b6bd e2b2 963c
000003e0: b85e 3d3b e104 05be ab68 0680 e607 913d
000003f0: 0d8d b7bd ee9e f9bd c6a1 6a2e bb08 6ebd
-0.09689392 -0.042439807 -5.0328522e-29 0.0010053348 -0.066949084 -0.17050527 -1.1375595e-38 -0.039691012
-0.028495526 0.0784133 -0.11507612 -0.09026852 -0.057597756 0.008189529 -0.088117525 -0.11299064
-0.10572675 5.984026e-17 -0.0835868 0.09131099 -0.07763429 -1.2402196e-06 0.1583683 0.050696645
0.041851096 -0.05887379 -0.046333443 -0.06279079 0.15990204 0.05003881 0.0138453655 -0.0018298121
0.059891127 -0.12431944 0.07914653 -0.0013344517 0.20124784 -0.06923984 0.23028609 -0.1071603
0.024860853 -1.6180296e-38 0.29942068 0.077586316 -0.007935398 -3.096779e-39 -0.17653836 -0.017048035
-0.0007159177 -0.0023009428 -0.078299955 -0.050480235 -0.0359796 0.15900554 0.107996136 -0.045934882
0.004119414 -0.08604978 -3.590544e-39 -0.14360797 -0.03160973 0.26194996 5.9963945e-08 0.038254306
0.05335397 -0.013559692 -5.1943053e-21 -1.54838e-39 -0.007751289 -0.13298465 -9.058171e-39 -0.17757538
-0.26632047 -0.09070878 0.064045005 0.029318377 -0.06376696 -0.15797682 0.048190814 0.013773439
-0.0134991305 -2.370931e-13 -0.06819313 -0.020155666 -0.016912222 -0.0010416136 0.036126453 -0.20022973
-0.16419326 -0.006268616 -0.034098826 -0.2007465 -0.08373047 -0.18961555 -0.11974131 -0.31113684
-0.034787536 -0.14050126 -0.025126224 -0.54787356 -0.05817167 -0.029462045 -0.021989062 -0.0066671246
-0.26309705 -2.5488918e-38 0.022076402 -0.03984819 -0.27754134 1.0252543e-38 -0.17134899 -0.23420668
-0.05751392 -0.1657996 -0.015060474 0.008127175 -0.005031498 -0.091950774 -0.13374639 -0.25805572
-0.36375335 -0.021798043 -2.042715e-24 -0.045263696 -0.2438318 -0.05130216 0.00038233603 -0.22248927
0.12217656 -0.040723495 5.1344396e-26 0.011482531 0.09804202 -0.072617374 6.790423e-39 -0.15447828
0.0054210913 0.008888499 0.03906412 0.14829735 -0.08253759 -0.09825188 0.1350345 0.1422595
0.21358776 1.815105e-12 -0.05471246 0.030208295 -0.03909247 0.00063496456 0.005511324 -0.19764009
-0.12277249 -0.104266725 -0.120071314 -0.17948522 0.0022203897 0.017992813 -0.06562747 -0.021022711
-0.020950126 -0.17711574 -0.0028731804 0.0073807198 0.096893616 -0.084532134 -0.008936377 0.0029622486
-0.17515774 -1.0561923e-38 0.02125378 0.018435147 -0.014685234 -9.134654e-39 -0.016447946 -0.15357167
0.011659816 0.0009295985 0.03784683 -0.109312944 -0.02331488 -0.06129286 -0.043699697 0.04036274
-0.28230116 0.1607875 -2.5943e-39 -0.032803092 -0.055405267 0.08457808 5.9727263e-05 -0.077621415
-0.109088644 -0.014484117 1.7353938e-24 -0.04407014 0.2755696 0.05133283 1.004965e-38 0.12623037
0.023208426 -0.061220888 -0.15579419 -0.11457442 0.105824135 -0.12746042 -0.094409086 -0.11327094
-0.11376374 4.7584906e-26 0.22107518 0.09349843 0.0889432 -7.491259e-05 -0.01674316 -0.11369514
0.06404401 0.14576218 0.17485319 -0.005609475 -0.056486018 -0.007200352 -0.13133428 -0.026592966
-0.08429866 0.020056918 -0.018647518 -0.08405913 -0.091021456 0.07544518 -0.06814937 -0.09107895
0.027395973 -1.954239e-38 -0.110502385 0.11202728 -0.120217316 -3.933941e-39 0.019546768 0.13522397
0.014424527 -0.0627236 0.22866978 -0.11393215 0.07909151 0.026240636 -0.08933115 0.018395845
0.0028895568 -0.12990142 -5.88561e-40 0.07081585 -0.0896245 -0.121885166 5.3349124e-11 -0.058113795

common_layers.3.bias f4 [32]
00000000: 0cda 8e3c 95fa 5c3d a389 df3c a566 a83c
00000010: 54e9 243d b1ba eb3c 42d5 0d3d c650 083d
00000020: 35e1 b93c b313 0a3d 6117 b23c d299 853c
00000030: 519f d83a 19ec 953c e2d5 cf3c c355 333d
00000040: 0871 b63c 1708 1c3d cfdf 033c bca3 1e3d
00000050: 2c45 863c c3a5 d4bb 451b 543d 6cbd 6b3c
00000060: ba3f 2f3d b1c9 b53c acf8 313d fafb 0b3d
00000070: 465d 1f3c f928 ee3c 34b2 c53c 007a d63c
0.017437957 0.05394991 0.02728731 0.020556757 0.04026158 0.028775545 0.034627207 0.033280157
0.022690395 0.033710193 0.021739664 0.016308699 0.0016526972 0.018301057 0.025370542 0.04378296
0.022270694 0.038093653 0.008048966 0.038730368 0.016390406 -0.006489487 0.05178382 0.014388423
0.042785384 0.0221909 0.043450043 0.03417585 0.009726828 0.029072272 0.024132825 0.026181221

common_layers.6.weight f4 [2, 32]
00000000: b893 353f 376c a9bb 1924 fbbb b188 34bf
00000010: 7ad2 5b3b 0b64 cabd 5321 11be 658f 5c3e
00000020: b344 3d3f b3dc a5bd 2313 29bf 03c5 363f
00000030: 70d7 40bf b9f0 2d3f 249f 3f3f 9afc babb
00000040: b404 a33e 3083 ab3d 0552 3cbf aa53 f2bc
00000050: 447e 313f 0a57 32bf 4337 443b 390f 343f
00000060: 8c5a 8d3b a390 cbbd b947 f53b 0311 0e3d
00000070: 1199 2bbf 39ab 2fb9 a153 f4bc 5c8b 37bf
00000080: d4c3 7abd 42c4 803f 8c4a 0c3f 5ce0 c9bd
00000090: 5425 973f f244 72bf a432 34bf 0296 37bf
000000a0: b1b8 00be 6fba 15bf 8931 edbd 64d6 dd3c
000000b0: 94ba d63b 4e44 afbd 27b8 2fbe 1146 953f
000000c0: 4b93 273f f081 42bf 761d d0bc 872d 5ebf
000000d0: abbd 86bd 6676 1d3d cced 923f f3f4 84bd
000000e0: fb4e 423f 259d 313f a144 983f 5b8e 1d3f
000000f0: f9cd 67bc 6ca8 2c3f 398b 0e3f 95ff 07be
0.70928526 -0.005170371 -0.0076642153 -0.70521075 0.0033542202 -0.09882363 -0.14172868 0.21539076
0.7393295 -0.08098736 -0.66044825 0.71394366 -0.7532873 0.6794544 0.74852204 -0.005706382
0.31839526 0.083746314 -0.7356265 -0.02958091 0.6933329 -0.6966406 0.0029940165 0.7033573
0.0043137725 -0.09939697 0.0074853566 0.034684192 -0.67030436 -0.00016753086 -0.029825034 -0.7169702
-0.061221913 1.0059893 0.5480125 -0.09857246 1.1808267 -0.9463645 -0.7038977 -0.7171327
-0.12570454 -0.584876 -0.11581714 0.027079768 0.0065530036 -0.0855795 -0.17160092 1.1662008
0.65459126 -0.7597952 -0.025404673 -0.8678822 -0.06579145 0.03844299 1.147882 -0.06492033
0.75901765 0.6938041 1.1895944 0.6154534 -0.014148229 0.6744449 0.55681187 -0.1328109

common_layers.6.bias f4 [2]
00000000: 147e c4bc 4af0 cf3e
-0.0239859 0.40613014

exp_avg f4 [16, 1, 3]
00000000: 0f00 0080 9600 0080 5801 0080 614b f3bc
00000010: c68d c8bc 27fc 4cbc 7f94 93bd c779 95bd
00000020: 664a 8dbd 8b08 2dbd c500 26bd 1fe0 6abd
00000030: 550f 33bc e97c 2ebc 0ff5 54bc 6f25 10bc
00000040: 5eaf bf3a b7da 9bbb 8453 ed3b f0b4 a73b
00000050: af36 483c a9be 6cbc 1b54 fbbc 5c93 ffbc
00000060: dc00 0080 dc00 0080 7301 0080 d401 0080
00000070: 4d01 0080 5500 0000 b8fa a93a 2793 b9bb
00000080: 1a78 03ba 0c01 0080 8501 0080 c801 0080
00000090: 7300 0000 3000 0000 2702 0080 4900 0080
000000a0: 1800 0080 f500 0080 8d00 0080 a600 0080
000000b0: da00 0080 e500 0080 0700 0000 2500 0080
-2.1e-44 -2.1e-43 -4.82e-43 -0.02969903 -0.024481665 -0.01251129 -0.07206058 -0.07298618
-0.06898956 -0.042244475 -0.040528078 -0.057342645 -0.010928948 -0.010649898 -0.01299788 -0.008797987
0.0014624407 -0.0047562975 0.007242622 0.005118005 0.012220069 -0.014449754 -0.030679753 -0.031198196
-3.08e-43 -3.08e-43 -5.2e-43 -6.56e-43 -4.67e-43 1.19e-43 0.0012968397 -0.005663294
-0.000501515 -3.76e-43 -5.45e-43 -6.39e-43 1.61e-43 6.7e-44 -7.72e-43 -1.02e-43
-3.4e-44 -3.43e-43 -1.98e-43 -2.33e-43 -3.05e-43 -3.21e-43 1e-44 -5.2e-44

exp_avg_sq f4 [16, 1, 3]
00000000: f401 0000 f401 0000 f401 0000 1a01 4c3c
00000010: 096b 323c 603a 4c3c e5be 9e3c 9f67 a43c
00000020: 2f6a be3c a1c6 ff3b db04 0a3c abc3 303c
00000030: 04fd b13c b9ff 983c 5fb5 9f3c f504 633b
00000040: acda 733b ace5 803b 2b78 4f3c 98cc 3d3c
00000050: 259b 6b3c d478 523c ed97 423c d644 6f3c
00000060: f401 0000 f401 0000 f401 0000 f401 0000
00000070: f401 0000 f401 0000 8fca 323c 0ac8 223c
00000080: 7b68 333c f401 0000 f401 0000 f401 0000
00000090: f401 0000 f401 0000 f401 0000 f401 0000
000000a0: f401 0000 f401 0000 f401 0000 f401 0000
000000b0: f401 0000 f401 0000 f401 0000 f401 0000
7e-43 7e-43 7e-43 0.0124514345 0.010889777 0.01246509 0.019378135 0.020068942
0.023243992 0.007805661 0.008424009 0.010788838 0.021727093 0.018676626 0.019495664 0.0034640406
0.0037209196 0.003933629 0.012662928 0.0115844235 0.014380251 0.0128461905 0.011877042 0.014603814
7e-43 7e-43 7e-43 7e-43 7e-43 7e-43 0.010912552 0.009935388
0.010950203 7e-43 7e-43 7e-43 7e-43 7e-43 7e-43 7e-43
7e-43 7e-43 7e-43 7e-43 7e-43 7e-43 7e-43 7e-43

exp_avg f4 [16]
00000000: 0401 0080 8dd5 10bd 08ac e9bd 9bf8 91bd
00000010: 7a0f a9bc 2835 3abc 615b 2a3c 4402 53bd
00000020: a400 0080 f200 0080 7045 8dbc b400 0080
00000030: dd01 0080 a700 0080 da00 0080 b500 0080
-3.64e-43 -0.035359908 -0.114097655 -0.07127496 -0.020637263 -0.0113652125 0.010397763 -0.051515833
-2.3e-43 -3.39e-43 -0.017245024 -2.52e-43 -6.68e-43 -2.34e-43 -3.05e-43 -2.54e-43

exp_avg_sq f4 [16]
00000000: f401 0000 ab72 ea3c 0882 673d bc3c c03c
00000010: 13f0 593d 1f14 1a3c bb0a 113d 2304 133d
00000020: f401 0000 f401 0000 e616 f33c f401 0000
00000030: f401 0000 f401 0000 f401 0000 f401 0000
7e-43 0.028619131 0.05652049 0.02346646 0.05320747 0.009404211 0.035410624 0.035892617
7e-43 7e-43 0.029674005 7e-43 7e-43 7e-43 7e-43 7e-43

exp_avg f4 [32, 16, 3]
00000000: df01 0080 9e00 0080 be00 0080 2a7c 95b2
00000010: 4e73 4ab3 b374 11b3 13a8 84b3 7ccf cab3
00000020: ac9f 2ab3 e0d1 5eb3 fff7 afb3 de8b a3b1
00000030: a192 eab3 8ebd 21b4 843e 11b4 16ff fcb1
00000040: 2184 3ab3 fb68 41ad 5ab2 e0a9 bd77 23b2
00000050: 142d 0bb1 e9d6 bab3 5790 dbb3 348b 3ab3
00000060: c701 0000 5706 0000 2c03 0000 6c00 0080
00000070: 7101 0080 b500 0000 c08d d5b1 7df6 72b2
00000080: 324f acb2 4603 0000 a505 0000 e600 0080
00000090: 0600 0000 2b02 0080 2b02 0080 7b01 0000
000000a0: 6004 0000 be07 0000 0701 0080 7201 0080
000000b0: de00 0080 8f00 0080 0001 0080 7904 0000
000000c0: 9e01 0000 8b00 0000 1e00 0080 1509 06b5
000000d0: b59d 1eb5 0595 48b5 8736 2eb5 6b2a 37b5
000000e0: f7f2 23b5 a976 2fb5 fba5 38b5 6065 2eb5
000000f0: 2348 0ab5 f02e 24b5 b3d7 36b5 25ed 1ab5
00000100: da04 22b5 c7cb b7b4 e3be 06b5 7fb8 d3b4
00000110: 67c7 ecb4 5462 23b5 ac50 26b5 2b92 10b5
00000120: 8301 0080 3c00 0000 3b00 0080 c001 0080
00000130: 2700 0080 0e00 0080 ef67 f0b4 068e 1fb5
00000140: 0ca9 30b5 3400 0000 5100 0000 5701 0080
00000150: 3500 0000 0600 0080 5000 0080 4104 0000
00000160: 8405 0080 3701 0000 4601 0080 4601 0080
00000170: 1900 0000 c401 0000 8e02 0080 f605 0080
00000180: 7b00 0080 3e03 0000 6802 0080 fab2 a13a
00000190: 8f2b ba3a 23fb a43a 3bd3 e23a 5a80 f83a
000001a0: 6bd3 b83a b5a6 e03a a61c e63a 926f 703a
000001b0: 0d48 1f3b c620 373b e314 213b 0c0a 8b3a
000001c0: 4786 8d3a 45be b639 ba03 e639 5766 763a
000001d0: 499f 483a 2395 203b 2919 1e3b f2b8 e13a
000001e0: b303 0000 1c08 0000 6000 0080 a001 0000
000001f0: e801 0000 b600 0000 e78d 833a a913 8c3a
00000200: 5004 813a 0c00 0000 2600 0080 1600 0000
00000210: 0d01 0080 f105 0080 ce04 0000 3700 0000
00000220: 2a05 0080 be00 0080 b400 0000 a100 0000
00000230: 6f01 0000 b001 0080 cb01 0000 b200 0080
00000240: 3904 0080 1c00 0000 4100 0000 fe00 0080
00000250: f800 0080 d800 0080 1101 0080 1901 0080
00000260: 0f01 0080 f500 0080 0d01 0080 e500 0080
00000270: 4f01 0080 4901 0080 3801 0080 de00 0080
00000280: d800 0080 6400 0080 ab00 0080 c400 0080
00000290: cf00 0080 3701 0080 2f01 0080 2201 0080
000002a0: 4c00 0080 ed01 0080 a807 0080 ca00 0000
000002b0: 7804 0000 e200 0000 0b01 0080 0e01 0080
000002c0: d500 0080 3803 0000 d106 0080 5e05 0080
000002d0: 0100 0080 4a00 0080 4a00 0080 b601 0080
000002e0: 9b01 0000 7300 0000 7405 0080 7e06 0000
000002f0: 6106 0080 8500 0080 7b00 0080 7500 0000
00000300: 0800 0080 1d00 0000 5300 0000 51a9 6739
00000310: 99f3 3539 51cb 03bb 4966 ddba 67b3 55bb
00000320: e910 1fbb fc2c 1a3a 9405 82bb 4a55 15bb
00000330: ecc5 72ba 4431 3fbb 84b5 5bbb ea9e 853a
00000340: 9b49 f4ba 847f bd37 805a ee39 b893 b1b8
00000350: 287e 4fba a74d b4ba 027b 7fbb 3670 bcb7
00000360: cf00 0080 e100 0080 1801 0080 cc01 0080
00000370: ed00 0080 f600 0000 65da 87ba d952 78ba
00000380: 4f36 a0b8 c200 0080 bb00 0080 d700 0080
00000390: c000 0080 4c01 0000 a800 0000 3700 0080
000003a0: a901 0000 eb00 0000 db00 0000 ae00 0080
000003b0: fb00 0000 6401 0080 ee00 0080 0301 0080
000003c0: f200 0000 9300 0080 0900 0000 7dc8 19ba
000003d0: 7ed2 8ebb 0bc1 dfbb 671e e6bb 0c6a babb
000003e0: 5f51 93bb 8cb3 91ba 5ae2 bcbb 61e1 79bb
000003f0: f0d9 aabb 1e81 10bc 5cc0 2dbc c0c0 d03a
-6.71e-43 -2.21e-43 -2.66e-43 -1.7402346e-08 -4.713666e-08 -3.386658e-08 -6.1773015e-08 -9.444099e-08
-3.972643e-08 -5.1879283e-08 -8.194183e-08 -4.7598254e-09 -1.0923146e-07 -1.5063253e-07 -1.352692e-07 -7.363165e-09
-4.342667e-08 -1.099409e-11 -9.9785374e-14 -9.515074e-09 -2.0252786e-09 -8.700392e-08 -1.02242375e-07 -4.3433104e-08
6.38e-43 2.274e-42 1.138e-42 -1.51e-43 -5.17e-43 2.54e-43 -6.215231e-09 -1.4142299e-08
-2.005945e-08 1.174e-42 2.025e-42 -3.22e-43 8e-45 -7.78e-43 -7.78e-43 5.31e-43
1.57e-42 2.777e-42 -3.69e-43 -5.18e-43 -3.11e-43 -2e-43 -3.59e-43 1.604e-42
5.8e-43 1.95e-43 -4.2e-44 -4.9932106e-07 -5.908908e-07 -7.472266e-07 -6.48994e-07 -6.823454e-07
-6.107579e-07 -6.5365253e-07 -6.8786875e-07 -6.496757e-07 -5.151398e-07 -6.1163064e-07 -6.8114167e-07 -5.771456e-07
-6.035676e-07 -3.4234674e-07 -5.0196667e-07 -3.943605e-07 -4.410351e-07 -6.086532e-07 -6.195721e-07 -5.385688e-07
-5.42e-43 8.4e-44 -8.3e-44 -6.28e-43 -5.5e-44 -2e-44 -4.4779105e-07 -5.9438787e-07
-6.5811105e-07 7.3e-44 1.14e-43 -4.8e-43 7.4e-44 -8e-45 -1.12e-43 1.526e-42
-1.979e-42 4.36e-43 -4.57e-43 -4.57e-43 3.5e-44 6.33e-43 -9.16e-43 -2.138e-42
-1.72e-43 1.163e-42 -8.63e-43 0.0012336664 0.0014203655 0.0012587052 0.0017305383 0.001895915
0.0014101093 0.0017139526 0.0017556145 0.0009171899 0.002430442 0.0027943118 0.00245791 0.0010607853
0.0010797464 0.00034855507 0.00043871795 0.0009399405 0.000765313 0.0024502955 0.0024123883 0.0017221256
1.327e-42 2.909e-42 -1.35e-43 5.83e-43 6.84e-43 2.55e-43 0.0010036797 0.0010687012
0.0009843204 1.7e-44 -5.3e-44 3.1e-44 -3.77e-43 -2.131e-42 1.724e-42 7.7e-44
-1.853e-42 -2.66e-43 2.52e-43 2.26e-43 5.14e-43 -6.05e-43 6.43e-43 -2.5e-43
-1.515e-42 3.9e-44 9.1e-44 -3.56e-43 -3.48e-43 -3.03e-43 -3.83e-43 -3.94e-43
-3.8e-43 -3.43e-43 -3.77e-43 -3.21e-43 -4.7e-43 -4.61e-43 -4.37e-43 -3.11e-43
-3.03e-43 -1.4e-43 -2.4e-43 -2.75e-43 -2.9e-43 -4.36e-43 -4.25e-43 -4.06e-43
-1.06e-43 -6.91e-43 -2.747e-42 2.83e-43 1.603e-42 3.17e-43 -3.74e-43 -3.78e-43
-2.98e-43 1.155e-42 -2.445e-42 -1.925e-42 -1e-45 -1.04e-43 -1.04e-43 -6.14e-43
5.76e-43 1.61e-43 -1.956e-42 2.329e-42 -2.288e-42 -1.86e-43 -1.72e-43 1.64e-43
-1.1e-44 4e-44 1.16e-43 0.00022092952 0.00017352252 -0.00201102 -0.0016891445 -0.0032608153
-0.0024271554 0.0005881337 -0.00396795 -0.0022786432 -0.000926106 -0.0029173652 -0.003352494 0.0010194455
-0.0018637659 2.2589935e-05 0.00045462325 -8.4675325e-05 -0.0007915222 -0.0013756052 -0.003898323 -2.2463599e-05
-2.9e-43 -3.15e-43 -3.92e-43 -6.45e-43 -3.32e-43 3.45e-43 -0.0010364769 -0.00094727945
-7.63951e-05 -2.72e-43 -2.62e-43 -3.01e-43 -2.69e-43 4.65e-43 2.35e-43 -7.7e-44
5.96e-43 3.3e-43 3.07e-43 -2.44e-43 3.52e-43 -4.99e-43 -3.34e-43 -3.63e-43
3.39e-43 -2.06e-43 1.3e-44 -0.0005866362 -0.0043585887 -0.0068284324 -0.007022667 -0.0056889113
-0.004495784 -0.0011116131 -0.005764288 -0.003812872 -0.0052139685 -0.008819846 -0.010604944 0.0015926585

exp_avg_sq f4 [32, 16, 3]
00000000: f401 0000 f401 0000 f401 0000 17bc 8b2e
00000010: a49b f32e dca2 b62e a931 282f 0a00 8f2f
00000020: 8e33 002f e24b 012f bec1 7f2f c382 182e
00000030: 7b38 be2f 4522 1430 5f62 e32f 7206 232e
00000040: 453e 072f 4099 e92c a5a8 732c 74e4 632e
00000050: 01bb e42d d59e 942f f31a d72f e48d 262f
00000060: f401 0000 f401 0000 f401 0000 f401 0000
00000070: f401 0000 f401 0000 7a96 222e 7eb3 632e
00000080: 2177 792e f401 0000 f401 0000 f401 0000
00000090: f401 0000 f401 0000 f401 0000 f401 0000
000000a0: f401 0000 f401 0000 f401 0000 f401 0000
000000b0: f401 0000 f401 0000 f401 0000 f401 0000
000000c0: f401 0000 f401 0000 f401 0000 9b22 3833
000000d0: 54c4 7833 ca16 5033 c00c c633 c2aa ef33
000000e0: ad8e 6d33 d59b d033 e196 e633 3a2a f232
000000f0: 147a 3934 db39 7934 99f2 3934 e6f0 1e33
00000100: 28fa 2e33 c4f3 6c31 fc25 bc31 9c3e c532
00000110: 35f0 5e32 3bae 3334 96a7 3934 bf08 a833
00000120: f401 0000 f401 0000 f401 0000 f401 0000
00000130: f401 0000 f401 0000 7b3f 0633 37ce 1933
00000140: 1e17 0b33 f401 0000 f401 0000 f401 0000
00000150: f401 0000 f401 0000 f401 0000 f401 0000
00000160: f401 0000 f401 0000 f401 0000 f401 0000
00000170: f401 0000 f401 0000 f401 0000 f401 0000
00000180: f401 0000 f401 0000 f401 0000 c4d3 9634
00000190: abc7 d034 ab4a a234 66ce 0b35 2a4f 1f35
000001a0: 08ec a934 fcc8 1435 e39d 1235 c794 1634
000001b0: 91e5 9035 676e bf35 dbec 9235 2f12 4834
000001c0: a5bf 5434 1753 9332 e059 f632 d9df 0534
000001d0: c91e 9c33 b75c 7335 29d9 6c35 a0e7 eb34
000001e0: f401 0000 f401 0000 f401 0000 f401 0000
000001f0: f401 0000 f401 0000 dc11 6134 9d84 8c34
00000200: 26c8 7d34 f401 0000 f401 0000 f401 0000
00000210: f401 0000 f401 0000 f401 0000 f401 0000
00000220: f401 0000 f401 0000 f401 0000 f401 0000
00000230: f401 0000 f401 0000 f401 0000 f401 0000
00000240: f401 0000 f401 0000 f401 0000 f401 0000
00000250: f401 0000 f401 0000 f401 0000 f401 0000
00000260: f401 0000 f401 0000 f401 0000 f401 0000
00000270: f401 0000 f401 0000 f401 0000 f401 0000
00000280: f401 0000 f401 0000 f401 0000 f401 0000
00000290: f401 0000 f401 0000 f401 0000 f401 0000
000002a0: f401 0000 f401 0000 f401 0000 f401 0000
000002b0: f401 0000 f401 0000 f401 0000 f401 0000
000002c0: f401 0000 f401 0000 f401 0000 f401 0000
000002d0: f401 0000 f401 0000 f401 0000 f401 0000
000002e0: f401 0000 f401 0000 f401 0000 f401 0000
000002f0: f401 0000 f401 0000 f401 0000 f401 0000
00000300: f401 0000 f401 0000 f401 0000 6798 1837
00000310: 913d 9737 148b e738 a1d2 4239 0178 8939
00000320: aad6 2339 7c92 a139 421e ac39 7f0f e838
00000330: 6a12 cf38 4da7 5039 f868 9d39 91e7 8639
00000340: 7418 5b39 5526 b436 6700 e137 a064 9837
00000350: 42b2 3f38 98c0 c539 258c b839 d63e 9338
00000360: f401 0000 f401 0000 f401 0000 f401 0000
00000370: f401 0000 f401 0000 5b3b 4338 a4db 5938
00000380: 44b9 2238 f401 0000 f401 0000 f401 0000
00000390: f401 0000 f401 0000 f401 0000 f401 0000
000003a0: f401 0000 f401 0000 f401 0000 f401 0000
000003b0: f401 0000 f401 0000 f401 0000 f401 0000
000003c0: f401 0000 f401 0000 f401 0000 b4c8 b738
000003d0: c96d 5939 a9ec 9339 0c66 4b39 6b35 0139
000003e0: 5d76 1039 4918 c138 0db8 c538 eb04 da38
000003f0: 461a 3639 f6d3 8839 6dbf fa39 fbc4 a038
7e-43 7e-43 7e-43 6.3543996e-11 1.1078008e-10 8.3053314e-11 1.5297154e-10 2.6011576e-10
1.1659848e-10 1.175944e-10 2.3260946e-10 3.467694e-11 3.460093e-10 5.3890786e-10 4.1360956e-10 3.7067634e-11
1.2300301e-10 6.6392725e-12 3.4625993e-12 5.181673e-11 2.6003645e-11 2.70339e-10 3.912742e-10 1.5148022e-10
7e-43 7e-43 7e-43 7e-43 7e-43 7e-43 3.6968185e-11 5.1773245e-11
5.6721853e-11 7e-43 7e-43 7e-43 7e-43 7e-43 7e-43 7e-43
7e-43 7e-43 7e-43 7e-43 7e-43 7e-43 7e-43 7e-43
7e-43 7e-43 7e-43 4.2872312e-08 5.792056e-08 4.84495e-08 9.222413e-08 1.11603654e-07
5.5310625e-08 9.7141005e-08 1.0737654e-07 2.819171e-08 1.727388e-07 2.321098e-07 1.7317724e-07 3.7006338e-08
4.0740048e-08 3.4481085e-09 5.4758384e-09 2.296229e-08 1.29767175e-08 1.6734059e-07 1.7290435e-07 7.8247005e-08
7e-43 7e-43 7e-43 7e-43 7e-43 7e-43 3.125704e-08 3.581064e-08
3.2384484e-08 7e-43 7e-43 7e-43 7e-43 7e-43 7e-43 7e-43
7e-43 7e-43 7e-43 7e-43 7e-43 7e-43 7e-43 7e-43
7e-43 7e-43 7e-43 2.8093757e-07 3.8888297e-07 3.022918e-07 5.2081884e-07 5.9347315e-07
3.1650438e-07 5.542677e-07 5.4618994e-07 1.4023964e-07 1.0795649e-06 1.426274e-06 1.0946782e-06 1.8633067e-07
1.9813758e-07 1.7150837e-08 2.867904e-08 1.2468026e-07 7.269916e-08 9.065947e-07 8.823286e-07 4.394069e-07
7e-43 7e-43 7e-43 7e-43 7e-43 7e-43 2.0961255e-07 2.617352e-07
2.3635275e-07 7e-43 7e-43 7e-43 7e-43 7e-43 7e-43 7e-43
7e-43 7e-43 7e-43 7e-43 7e-43 7e-43 7e-43 7e-43
7e-43 7e-43 7e-43 7e-43 7e-43 7e-43 7e-43 7e-43
7e-43 7e-43 7e-43 7e-43 7e-43 7e-43 7e-43 7e-43
7e-43 7e-43 7e-43 7e-43 7e-43 7e-43 7e-43 7e-43
7e-43 7e-43 7e-43 7e-43 7e-43 7e-43 7e-43 7e-43
7e-43 7e-43 7e-43 7e-43 7e-43 7e-43 7e-43 7e-43
7e-43 7e-43 7e-43 7e-43 7e-43 7e-43 7e-43 7e-43
7e-43 7e-43 7e-43 9.09539e-06 1.8029272e-05 0.00011040844 0.00018579747 0.00026220086
0.0001562486 0.00030817452 0.0003282894 0.000110655084 9.873959e-05 0.0001989875 0.0003002358 0.00025731002
0.00020894577 5.3688805e-06 2.6822278e-05 1.816667e-05 4.5703964e-05 0.00037718262 0.0003519963 7.02121e-05
7e-43 7e-43 7e-43 7e-43 7e-43 7e-43 4.6546902e-05 5.1941388e-05
3.8796352e-05 7e-43 7e-43 7e-43 7e-43 7e-43 7e-43 7e-43
7e-43 7e-43 7e-43 7e-43 7e-43 7e-43 7e-43 7e-43
7e-43 7e-43 7e-43 8.763504e-05 0.00020735631 0.0002821435 0.00019397604 0.00012322298
0.00013777004 9.2074806e-05 9.427974e-05 0.00010395966 0.0001736666 0.00026097865 0.0004782634 7.666085e-05

exp_avg f4 [32]
00000000: 1a0a abb4 9b4a 27b5 0a37 743c f401 0080
00000010: ea84 40bc 16e1 febc a4a7 b3bc d4e6 0b3d
00000020: ef01 0080 4d74 47b5 6a01 0080 6a04 0080
00000030: 8c89 c1b3 a505 0080 e768 0cb5 2c02 0080
00000040: 2a03 0080 1e92 663d 8661 59bc 6018 93b5
00000050: 9c03 0080 8203 0080 4dbf 49b5 b4eb e5a0
00000060: b373 03bc 7eb1 1eb4 fd61 433d 2002 0080
00000070: 5f6a 0abd 7202 0080 923d b23c 6106 0080
-3.1858582e-07 -6.2320913e-07 0.0149057 -7e-43 -0.011750439 -0.031113189 -0.021930523 0.03415568
-6.94e-43 -7.4302517e-07 -5.07e-43 -1.583e-42 -9.0122825e-08 -2.025e-42 -5.230672e-07 -7.79e-43
-1.135e-42 0.056291692 -0.01326788 -1.0959448e-06 -1.295e-42 -1.258e-42 -7.5156714e-07 -3.8950084e-19
-0.00802319 -1.4779468e-07 0.04770087 -7.62e-43 -0.03379285 -8.77e-43 0.021757875 -2.288e-42

exp_avg_sq f4 [32]
00000000: c11f 6d32 f2de cd36 962d 1538 f401 0000
00000010: 5ce6 943b 2589 953b b1b3 633c dfec 263c
00000020: f401 0000 1ff6 8f38 f401 0000 a0b2 9c26
00000030: a913 0034 8fcb 1728 63d1 c331 7c63 712a
00000040: f401 0000 58e4 463c 6382 633b 66bf 5832
00000050: 1106 5d27 bb4c 8a27 7a6e c731 c1ce 7c2c
00000060: 3bc0 353c 5dca 8231 50ec 1f3c f401 0000
00000070: e9c8 4a3c f401 0000 9984 bb3b 0472 2927
1.3802436e-08 6.1354303e-06 3.5566823e-05 7e-43 0.0045440625 0.004563468 0.013897822 0.01018831
7e-43 6.864615e-05 7e-43 1.0873091e-15 1.1928081e-07 8.4263236e-15 5.6990515e-09 2.1439615e-13
7e-43 0.012139402 0.0034715168 1.2616374e-08 3.06732e-15 3.8385886e-15 5.804222e-09 3.5926125e-12
0.011093195 3.806504e-09 0.009760931 7e-43 0.012377002 7e-43 0.005722594 2.351527e-15

exp_avg f4 [64, 288]
00000000: 4f87 46a5 d241 bf97 793a 479c 18a3 7610
00000010: 667e 3a0c 4286 9892 6425 b298 3448 079c
00000020: 5b11 7790 a8b9 b4b5 3d20 c2b5 3d1a 9bb5
00000030: a8ad 95b5 881a 9ab5 9539 a0b5 8601 aeb5
00000040: 55e6 b9b5 e755 acb5 ddcb d638 24af ec38
00000050: d336 8238 caff 6738 10b3 6638 a28a 6c38
00000060: 4d2d 7838 dd94 9a38 f16b 7b38 4201 0000
00000070: 6b01 0000 0101 0000 1301 0000 3d01 0000
00000080: cf01 0000 8901 0000 6d01 0000 4101 0000
00000090: e329 4db7 c81e a0b9 ac20 e734 a6fa aeb3
000000a0: 4e04 d538 1295 06b9 850d 76b9 2353 193a
000000b0: 2d04 0080 ff1e 05b5 644f 79b8 a083 1939
000000c0: f58b a039 fcd2 a739 3434 4438 2ca3 d039
000000d0: b037 9539 4d7a 08b9 16b5 41b5 56c6 1eb9
000000e0: 46ff 19b9 7b34 a334 317e 8bb8 1086 50ba
000000f0: 2557 9d38 fe82 4db7 e55b 01b4 4601 0000
00000100: 4600 0000 f47c 7a38 3602 2b39 84f6 9ab8
00000110: 114a 1ab7 da02 0080 7301 0080 51ca 0db9
00000120: 1601 0000 5300 0000 9100 0000 4701 0000
00000130: e201 0000 e301 0000 3801 0000 e600 0000
00000140: 0f01 0000 9521 42b5 caa5 3db5 4067 2fb5
00000150: 0edc 4fb5 09b1 86b5 d969 9eb5 ed22 86b5
00000160: 0bbc 65b5 acfc 50b5 c501 0000 e201 0000
00000170: a101 0000 5e01 0000 5a01 0000 c501 0000
00000180: 7c01 0000 1301 0000 3c01 0000 a602 0080
00000190: 9d02 0080 7f02 0080 6a01 0000 6800 0000
000001a0: 0100 0080 5701 0080 4a00 0080 df00 0080
000001b0: 3601 63b2 907c e3b2 8e3b b3b0 97ce 48b0
000001c0: 6cd3 adb0 f32d 60b1 6759 dfb1 a660 16b2
000001d0: 6555 ecb0 e602 0080 3101 0080 a507 0080
000001e0: f801 0080 0904 0000 1c00 0000 ff00 0080
000001f0: a100 0080 9b06 0000 3967 1b2e 69b0 972d
00000200: 7c59 aa29 8af2 af28 792b 5329 9f43 092b
00000210: a2df 7a2c 4c03 c92c cbe5 fd29 0301 0080
00000220: 4d01 0080 5601 0080 9b01 0080 d001 0080
00000230: ce01 0080 ab01 0080 6d01 0080 8001 0080
00000240: 3a01 0000 5500 0000 a901 0000 5401 0000
00000250: f600 0080 d003 0000 9c00 0080 6a01 0080
00000260: 8002 0000 0310 b0b8 b7d2 c3b8 c794 2139
00000270: 70c6 26b8 fe4a b739 dd6f afb9 7580 5339
00000280: 727a b239 4302 0000 46fc 4db9 9895 7bb9
00000290: 81a7 1539 6991 153a 158f 1e3a 4ec6 cf39
000002a0: 0da4 e4b7 a94b 15b9 a7ea cd39 438a 98ad
000002b0: 33ad b8ad 947d 05a9 218c 2ea8 f0de 5aa9
000002c0: 59e3 37ab 72e7 38ac f1c1 5eac 207b 64a9
000002d0: 6901 0000 9800 0000 0a00 0080 6400 0000
000002e0: c900 0000 fb00 0000 3401 0000 0501 0000
000002f0: a800 0000 0800 0000 6000 0080 3801 0080
00000300: 0701 0080 7600 0080 3400 0000 2500 0080
00000310: 2a00 0080 5200 0080 198f 4530 e8ea ec30
00000320: 8ac6 07b2 f773 b9b1 1c3d 82b1 a975 3db1
00000330: f1ff ceb1 f2eb b4b1 9709 d2b1 4b03 0000
00000340: c102 0000 6404 0000 9104 0000 5004 0000
00000350: b703 0000 9403 0000 9c03 0000 3d04 0000
00000360: 0b05 1fba ace0 a6b9 6e09 12b8 a7d5 5ab8
00000370: d506 633a 443c 813a d391 84b7 6a15 163a
00000380: 66ec 023a 8ebc 8296 cf00 0000 1de7 0100
00000390: 7200 0000 c401 0000 f685 b185 6a19 5d8d
000003a0: baa9 9587 db00 0000 834c 2eb9 c870 3d39
000003b0: f97f 8fb6 3d5b 4039 28cf 1b3a dfeb 12b7
000003c0: 1f38 fe38 f0c0 5ab9 d2ac 923a 0801 0080
000003d0: 6700 0080 2400 0080 7701 0080 cc01 0080
000003e0: ce01 0080 1101 0080 6200 0080 a200 0080
000003f0: ec21 9e38 0f35 15ba a62d b338 8e5a 8bb8
-1.7219607e-16 -1.2359701e-24 -6.591915e-22 4.864059e-29 1.4366955e-31 -9.625646e-28 -4.6049676e-24 -4.4761073e-22
-4.872553e-29 -1.3465078e-06 -1.4463509e-06 -1.1556036e-06 -1.1151906e-06 -1.1481616e-06 -1.1937688e-06 -1.2964454e-06
-1.385061e-06 -1.284e-06 0.00010242288 0.000112859794 6.209095e-05 5.5312914e-05 5.5003038e-05 5.6395897e-05
5.9169997e-05 7.37102e-05 5.994359e-05 4.51e-43 5.09e-43 3.6e-43 3.85e-43 4.44e-43
6.49e-43 5.51e-43 5.11e-43 4.5e-43 -1.2228705e-05 -0.00030540512 4.3050875e-07 -8.148099e-08
0.00010157433 -0.00012834769 -0.00023465425 0.0005848875 -1.498e-42 -4.9591466e-07 -5.9440164e-05 0.00014640251
0.00030621854 0.00032009918 4.677866e-05 0.00039794424 0.00028460985 -0.00013015531 -7.216162e-07 -0.0001514194
-0.00014686314 3.03993e-07 -6.6515415e-05 -0.0007954547 7.502575e-05 -1.2249451e-05 -1.2047492e-07 4.57e-43
9.8e-44 5.9721016e-05 0.00016308654 -7.389209e-05 -9.19636e-06 -1.023e-42 -5.2e-43 -0.00013522177
3.9e-43 1.16e-43 2.03e-43 4.58e-43 6.75e-43 6.77e-43 4.37e-43 3.22e-43
3.8e-43 -7.23195e-07 -7.064924e-07 -6.534283e-07 -7.743373e-07 -1.0035302e-06 -1.1802723e-06 -9.993943e-07
-8.5582786e-07 -7.7853724e-07 6.35e-43 6.75e-43 5.84e-43 4.9e-43 4.85e-43 6.35e-43
5.32e-43 3.85e-43 4.43e-43 -9.5e-43 -9.37e-43 -8.95e-43 5.07e-43 1.46e-43
-1e-45 -4.8e-43 -1.04e-43 -3.12e-43 -1.3213414e-08 -2.6482923e-08 -1.3040891e-09 -7.305316e-10
-1.2647496e-09 -3.262241e-09 -6.500318e-09 -8.7531244e-09 -1.719553e-09 -1.04e-42 -4.27e-43 -2.742e-42
-7.06e-43 1.448e-42 3.9e-44 -3.57e-43 -2.26e-43 2.37e-42 3.53346e-11 1.7245054e-11
7.5650396e-14 1.9534087e-14 4.6889118e-14 4.876602e-13 3.5651278e-12 5.7131296e-12 1.127532e-13 -3.63e-43
-4.67e-43 -4.79e-43 -5.76e-43 -6.5e-43 -6.47e-43 -5.98e-43 -5.11e-43 -5.38e-43
4.4e-43 1.19e-43 5.96e-43 4.76e-43 -3.45e-43 1.368e-42 -2.19e-43 -5.07e-43
8.97e-43 -8.3953164e-05 -9.337573e-05 0.0001540958 -3.9762293e-05 0.00034960354 -0.00033461946 0.00020170382
0.00034042035 8.11e-43 -0.00019644303 -0.00023992953 0.00014272147 0.0005705567 0.00060485426 0.00039629865
-2.725611e-05 -0.00014237933 0.00039275477 -1.73418e-11 -2.0995294e-11 -2.9640854e-14 -9.689326e-15 -4.859909e-14
-6.533017e-13 -2.627645e-12 -3.1655757e-12 -5.0732964e-14 5.06e-43 2.13e-43 -1.4e-44 1.4e-43
2.82e-43 3.52e-43 4.32e-43 3.66e-43 2.35e-43 1.1e-44 -1.35e-43 -4.37e-43
-3.69e-43 -1.65e-43 7.3e-44 -5.2e-44 -5.9e-44 -1.15e-43 7.1871537e-10 1.7238024e-09
-7.903177e-09 -5.3973923e-09 -3.7904453e-09 -2.7570002e-09 -6.0244862e-09 -5.2655134e-09 -6.1128946e-09 1.181e-42
9.88e-43 1.575e-42 1.638e-42 1.547e-42 1.333e-42 1.284e-42 1.295e-42 1.52e-42
-0.000606612 -0.0003182938 -3.4817895e-05 -5.217423e-05 0.0008660381 0.000985988 -1.5803531e-05 0.0005725237
0.00049943326 -2.1121627e-25 2.9e-43 1.74743e-40 1.6e-43 6.33e-43 -1.669421e-35 -6.8131474e-31
-2.2518785e-34 3.07e-43 -0.00016622436 0.00018066459 -4.27663e-06 0.00018344536 0.00059436494 -8.757196e-06
0.00012122117 -0.00020861975 0.001119042 -3.7e-43 -1.44e-43 -5e-44 -5.25e-43 -6.45e-43
-6.47e-43 -3.83e-43 -1.37e-43 -2.27e-43 7.5403455e-05 -0.0005691805 8.543888e-05 -6.6449036e-05
