model_checkpoint.pth (torch, 15330 bytes, 6 tensors)

fc1.weight f4 [64, 15]
00000000: 0972 053e fe4c a93e 09fd 9d3d ae1d 6e3e
00000010: 72ce 4cbd efe7 913e 9764 a23c 8d11 9dbe
00000020: 423e 98be d0cc d6bc 15fe 80be 7a38 8f3e
00000030: 3815 67be acb9 c4be bad6 a0be 9944 033e
00000040: 39a3 823b d7a6 6a3e 3fdc a13e f088 113d
00000050: febf f83d a920 4e3e 4161 903e 091b 76bd
00000060: 4c66 653e 98b2 703c 394b 18be 93f8 99be
00000070: f246 ac3e 968e eb3d c713 8a3c 4026 563e
00000080: 9091 1f3e 6c38 afbd 7645 c0be 13c0 b2be
00000090: eefe 93be 0ef3 86be a5d8 e83b 87d0 6c3e
000000a0: ad3b ef3d 09f5 963e 1507 99be fc32 f73d
000000b0: c791 0dbe 0445 55be 944b 83be 6d68 e03c
000000c0: 011a 5cbd 74b4 8abe 3b38 1dbe e04e 5b3d
000000d0: 66a6 993e 278a 893e 3ab8 563e 7182 7d3d
000000e0: b4e7 e63d ebec 94be ddfe a83e d6dd a2be
000000f0: d823 1cbd 6644 723e 1f1e c23e 295c a73d
00000100: a5d5 21be 5e2b c1be 18ce 193e bcf9 a53e
00000110: 75c2 8d3e 3100 6c3d 9a48 463e 6171 273e
00000120: 6f63 9c3e 5575 133d 7c79 833e 8537 3b3e
00000130: 29ce 0e3d fe4d a43d 5afd 98bc a2be d1bd
00000140: 0766 823e 7e35 903d ad42 b3be 4ff9 aabe
00000150: 4aa4 aebe b0db 76bd d4f6 81be acb6 7dbe
00000160: 4e3e a0be c482 e6bd c47e 833e e50f 74bd
00000170: 3046 883e be6d 0e3d 45eb 893e 4879 693e
00000180: 2a71 7d3e cdfb 8b3d ae0d fc3d e9a2 a1be
00000190: 0091 32be 51db 72be e7e4 3b3e 7cde b23e
000001a0: a129 7ebd 4487 51be 3062 6bbe 5c1a 473d
000001b0: a2f2 8bbc 0cd5 0c3d d90a 5a3e a486 853e
000001c0: 2407 bf3d d101 9fbe 578a 68bd caa6 f3bd
000001d0: 92e2 33bb acea ae3e 79e5 5b3e 0a7a adbd
000001e0: 648d ea3d fb3e 763e 78ef 153e 946e be3e
000001f0: 2309 af3c 10ef a93e 86b0 523e 0f7f 0c3c
00000200: ba3a 4dbe 09ff 74be 33bf 95be 6c4b 00be
00000210: 3968 05be 4a1b 9dbe 37d3 a6be 944c 1b3d
00000220: 59c9 a83e 782b f3bc d42f 9f3e 010e f1bd
00000230: 23bc 793e cdfe 71be b255 933e 0e9b 9f3e
00000240: 66c7 aa3d 0ca9 51be c6b7 e23d 3204 1c3d
00000250: 66c7 d03d 6c1e 743d a005 f83d b077 8b3e
00000260: 22fd b73e 7b24 a43e 8403 9bbb 3410 7c3e
00000270: bbf9 c6bc 3506 8dbd be07 a1be 6c1d 77be
00000280: 1f04 5c3d c1dc 223e 11ff 24be a182 66be
00000290: d8c8 973e a451 26be 847d 8c3e 2684 563e
000002a0: 61e8 653e 9b61 c73e ef12 ae3d bd50 983e
000002b0: b3c2 9a3d da27 993d 70b0 7b3e 9870 453e
000002c0: 49fb c33e 5f7e aabe f28d e03d 9919 afbe
000002d0: ee9c 083e 4229 a53d 348b 153e 6aaa d73d
000002e0: 7696 8f3e b19b d1bd da58 81be 26f6 32be
000002f0: 91cb 8b3e 3286 d4bd e1b4 453e 43f9 b63e
00000300: 4ccc 8f3e 5fb0 b73e aae7 c13e 5a5f 53be
00000310: 4848 973e 6513 6e3e efb8 bb3e 4826 373d
00000320: 1ab7 813e 6c42 4d3e 6520 093e 030a 68be
00000330: 4666 a4be 9212 203e 857d cb3e 668a 563e
00000340: afa0 5e3e 5b7e 65be 9a75 9c3e dcb4 5e3e
00000350: 7f6d a53e e1bf 843d 9baa bebd 1b7d 88be
00000360: ba03 47be f1ef 77be 924c 933e 5fb1 553e
00000370: c6ed 563e ac4c 3bbd 6d21 b13d 2685 82be
00000380: 86bb ca3d 1213 743e dc6a 1d3e ff24 99bd
00000390: db11 9c3e 6e27 743e b89c 743e ac9c a43e
000003a0: 667a 793e 8b27 ac3c 06a6 94be 2f85 2f3c
000003b0: c816 6e3e 18ff a4be a0ff 893e 0d94 0c3d
000003c0: 94d8 a63e 65b3 b83e 15ae b83d 76b4 b83e
000003d0: 9938 263e 63f6 b73e 1a2f 8c3d 3be9 c4be
000003e0: 2855 a0be 45f6 90bd b0f4 acbe 1286 3fbe
000003f0: 6327 babe be2c 3dbd e5fb 22be 3467 9a3e
0.13031782 0.33066553 0.07714278 0.2325351 -0.05000157 0.28497264 0.019823356 -0.30677453
-0.29735 -0.02622071 -0.2519385 0.27972776 -0.22566688 -0.38422906 -0.31413823 0.12819137
0.003986743 0.22915207 0.31613347 0.035530984 0.121459946 0.20129646 0.281992 -0.060084376
0.22402304 0.014691018 -0.14872445 -0.3007246 0.33647877 0.115018055 0.016855134 0.20913029
0.15582871 -0.085556835 -0.37552994 -0.34912166 -0.28905433 -0.2635731 0.007105904 0.23126422
0.11681304 0.29483822 -0.29888216 0.120702714 -0.13825141 -0.20827109 -0.256436 0.027393544
-0.053735737 -0.270908 -0.15353481 0.053542018 0.30009764 0.26863214 0.20968714 0.061891977
0.112746626 -0.29087004 0.33006945 -0.31809872 -0.03812012 0.23658904 0.37913606 0.08171875
-0.15804155 -0.377284 0.15020025 0.32417095 0.2768742 0.05761737 0.19363633 0.16351844
0.30544612 0.03600057 0.25678623 0.18282898 0.03486458 0.08022688 -0.018675495 -0.102414384
0.25468466 0.07041453 -0.35011807 -0.33393332 -0.34109718 -0.060268104 -0.25383627 -0.24776715
-0.31297535 -0.1125541 0.25682652 -0.05958547 0.2661605 0.034772627 0.2693731 0.22800171
0.247502 0.068351366 0.12307297 -0.31569603 -0.17438126 -0.23716475 0.18349038 0.34935367
-0.06205142 -0.20461756 -0.22986674 0.048609123 -0.01708347 0.034382865 0.212932 0.26079285
0.09327534 -0.31056073 -0.056772556 -0.11897047 -0.002744828 0.34163415 0.21474256 -0.08470543
0.11452749 0.24047463 0.14642131 0.3719374 0.021366661 0.33190203 0.20575151 0.008575215
-0.20041934 -0.23925413 -0.29247436 -0.12528771 -0.13028039 -0.30684882 -0.3258302 0.037914827
0.32966116 -0.029683813 0.31091177 -0.11770249 0.24388175 -0.23632355 0.28776318 0.31172985
0.083388135 -0.20474643 0.11070208 0.03808994 0.10194282 0.059599325 0.12110448 0.27239752
0.35935313 0.32059082 -0.0047306437 0.24615556 -0.024289003 -0.068859495 -0.3145122 -0.24132317
0.053714868 0.15904523 -0.16112925 -0.22510768 0.2964542 -0.16242081 0.2743951 0.20948848
0.22451927 0.38941655 0.08499705 0.29749098 0.07556667 0.07478304 0.24579024 0.19281232
0.38277653 -0.33299538 0.10964574 -0.34199217 0.13341114 0.0806451 0.14603883 0.10530551
0.2804448 -0.10234774 -0.252631 -0.1747671 0.27303746 -0.10377158 0.19307281 0.35737047
0.28085554 0.35876748 0.37872058 -0.20641842 0.29547334 0.23249586 0.3666453 0.044714242
0.25335008 0.20044869 0.13391264 -0.22660069 -0.32109278 0.15632084 0.397442 0.20951232
0.21740983 -0.22411482 0.30558473 0.2174868 0.323101 0.064819105 -0.09309884 -0.26657948
-0.19435015 -0.24212624 0.28769356 0.20868443 0.20989141 -0.045727417 0.086489536 -0.2549221
0.098990485 0.238354 0.15372795 -0.074777596 0.30482373 0.23843166 0.23887908 0.3215078
0.24363098 0.02101495 -0.29032916 0.010712906 0.23250878 -0.3222587 0.2695284 0.03432088
0.3258711 0.36074367 0.090175785 0.3607518 0.16232528 0.35930166 0.068449214 -0.3845919
-0.3131497 -0.07078222 -0.33780432 -0.18703488 -0.36358175 -0.046185248 -0.15916403 0.30156863

fc1.bias f4 [64]
00000000: 8b12 673d 61fc 723e 5ec7 363e 9549 9b3d
00000010: db51 123e b510 883e a722 e43c 1603 7d3e
00000020: ce11 3bbd f03a 283e 8e65 27bd 60e3 993d
00000030: e833 a83e 4ab5 b33e 9c94 8b3e 3905 b43e
00000040: 8a16 293d 985b b93e 230b 6cbd b0a7 353e
00000050: 81d1 113d 3e68 7ebd 5bfc d6bd a1d1 393e
00000060: e2f5 20bc 5f2f 1f3e b1fe a83d 4368 3d3d
00000070: 219b 8f3e f674 aa3e 18ad 9b3e 8cc4 693e
00000080: 2315 ee3d 7079 53bc 2189 9f3e 6b0c c03d
00000090: d2e4 4b3d c126 a13e c3cf c7bd caf5 9c3d
000000a0: a4d6 723e 800b 783e f13f 893e 5f3a a73e
000000b0: 214d bebd 82d4 0dbd c192 353e ed04 b4bc
000000c0: 48a7 e6bd 1b11 583e 9310 cbbc bbac 0a3e
000000d0: 56ab 7cbd d786 7a3e 92af 9c3e 5d30 9d3e
000000e0: 1a7d bd3e 5f8c 28bd e93b 8c3e 513c 753e
000000f0: b668 583e 9e3d af3e b39c af3d 9c46 963e
0.05641417 0.23729087 0.1784949 0.07582394 0.14289038 0.26575246 0.027848555 0.24708208
-0.045671277 0.16428733 -0.040868334 0.075140715 0.328521 0.3509925 0.27261817 0.35160235
0.04128126 0.36202693 -0.05762781 0.17739749 0.03560019 -0.06211113 -0.10497352 0.18146373
-0.009824248 0.15545414 0.082517035 0.04624201 0.2804804 0.3329236 0.30405498 0.22828883
0.11625125 -0.012907371 0.3115931 0.093773685 0.049778767 0.3147488 -0.09756424 0.07664068
0.23714691 0.24223137 0.26806596 0.3266172 -0.09292055 -0.03462649 0.17731763 -0.021975005
-0.11262375 0.21100275 -0.024788177 0.13542454 -0.061686836 0.244655 0.306027 0.3070096
0.37009507 -0.041149493 0.27389458 0.2394879 0.21133694 0.34226698 0.0857481 0.29350746

fc2.weight f4 [32, 64]
00000000: 9b5b 2c3c 6a78 a1bd e977 1a3b e13b a73d
00000010: fd7f a73d d1e1 b7bd 1a3c 8f3d ee3b aa3d
00000020: a38f 5abc 83e3 1e3b b2d8 b43c dbb3 ea3c
00000030: 5b1c a63d de17 f0bd d3a1 0cbe b171 0b3d
00000040: 911b 1b3c 01df 113d 30af f4bc 0e19 0dbe
00000050: 6e48 8fbd 9898 3e3d 322e 053d d013 c9bd
00000060: dfdb bc3c 04af 9c3c 1553 a3bd 8dd4 f9bc
00000070: 5865 8d3d c918 213d c570 c13d 3743 e2bd
00000080: 9cb4 003d c44a dbb9 b8e5 8a3d 238f 85bd
00000090: d3d4 f9bd 8b30 72bd 5dc6 88bd ee70 743d
000000a0: bb62 9b3d ea17 93bc b42d 3f3c 1c05 11be
000000b0: d6e1 383d b715 dfbd 804a bcbc d2bc 18bd
000000c0: 7553 963d 9467 803d d77b c5bc fbe0 c0bd
000000d0: 5314 c2bd 3d3f c23d 5fce bbbd 39da 0f3d
000000e0: 876b 99bc 13ef e0bd 38a0 af39 3937 a23d
000000f0: 9e20 ae3d 4c98 bcbd 5589 733d a0ee c1bd
00000100: 5902 f7bd 1ab5 ebbd 3516 a23c df8b bfbd
00000110: 931a 5cbd 52a2 bf3d e318 1b3d a496 1f3d
00000120: 98d8 c7bb f246 423c 1618 a3bd 6cac 16bd
00000130: 193b a43d 9b1b f9bd 0a6c c0bd 9d29 ffbd
00000140: 7bcc dbbd 5be2 c43d 3c18 c7bd fc18 8fbd
00000150: 935c b5bd 122c acbc 411a b33c 4d6c ff3c
00000160: 864e 4b3d 0420 30bd 535a 0bbc fa60 ce3c
00000170: 6e39 563c d950 a0bd d8ce 653c 9464 a63d
00000180: b80b afbd f789 9bbc 2e77 33bc 958f ccbc
00000190: 7e01 c23d 19ce ba3d da7a 32bc e25e afbb
000001a0: 00c5 a93d 6ce9 173c 377e bfbc e8f9 8bbc
000001b0: 4cd2 e9bd b86b 3cbd a102 e9bc 9371 87bd
000001c0: 5376 c3bd befb d2bd 056c aabd 7d49 8d3d
000001d0: d386 3abd 7148 f7bd 16bf c3bd 6a69 643b
000001e0: 14c2 2b3d df1d a93d 44af bbbd 74d9 9ebd
000001f0: 2064 8fbc 1ad0 583d 7d9c ebbd 3861 09be
00000200: f89c 5e3e 9d36 6f3e 76b2 0c3e f7b0 2e3e
00000210: 7e45 243e 6a72 383d 9dea 4b3e b885 073a
00000220: 9e21 2d3e bbe6 463c aaa3 763e 9cab 1f3e
00000230: 5894 bb3c 1193 753e df89 183e e118 263e
00000240: 4c3d eb3d 6a62 693e 4ddf 603e 28f2 4a3e
00000250: a197 bd3c e578 323d f351 5e3e 4478 ef3d
00000260: 2dbb b23d b543 073e 51fb 293e c580 633e
00000270: 66c1 543e 7328 c53c 6f73 383c c7ec 7d3d
00000280: 59d4 243e e377 533d 68ad f73d 402d 093e
00000290: 9d9a 763e 57f5 423e 0233 063e 9cef 693e
000002a0: 4862 f03d 2398 573e d0ef bc3c a752 ca3d
000002b0: 5762 7b3e 0f78 583c 9eeb c53d 85dd 4d3e
000002c0: 0193 713e f5f1 793e 18ae 673e 423b c53c
000002d0: 9626 123d 0b31 113e 3f3b 8e3d 9533 053e
000002e0: 50c9 793e 9876 113e 8e20 a83c 0a9a 613d
000002f0: 2258 473e c8ef 6a3e 139b dd3d 2682 983d
00000300: 7a46 603e 492e 6c3e bfaf 023e 0e7d 013e
00000310: ceb3 193e 6588 dd3d 0dd1 0e3e 6ec5 f33b
00000320: d990 323d 390f 263e 29bd f93d 7a12 ab3d
00000330: fa9f 173e d32e 6c3c 8de6 683d f70f 783e
00000340: f753 143e 64e5 0d3e ed34 e03d becb d73c
00000350: 837e b73d 1ae3 863c 3567 843e e81b 273e
00000360: cb21 963d e03f b63c 5a45 0a3e 1d83 023e
00000370: 6dac 143e 3650 9a3c ea29 b53d a9ba 773e
00000380: fc42 0d3e 111b 243e c750 0f3e 24dc de3c
00000390: c18b 823e 2597 213e 9a22 7a3e a4e4 043e
000003a0: 9317 a83d 73d2 253e 051d ee3d e5ad 2a3e
000003b0: e0a7 3a3d 3ccd ad3d 3cc9 363d 5551 823e
000003c0: 64a2 7a3d 32c6 963d e28c 1c3e 54c5 c03d
000003d0: 17cf 683e cd32 5f3e 6633 6b3d 5ccc 513e
000003e0: f9e9 933d a06b 363e 1ac8 863d f614 3d3e
000003f0: d096 843e a571 763e a523 f93d 4500 103e
0.010519887 -0.07884295 0.0023570007 0.08165718 0.08178709 -0.08978618 0.06993885 0.08312212
-0.01333991 0.0024244494 0.022075985 0.028650215 0.08110877 -0.11723302 -0.13733606 0.03404397
0.009467022 0.035613064 -0.029868692 -0.13779089 -0.06996237 0.046532243 0.03251476 -0.09818232
0.023054061 0.019126423 -0.07974831 -0.03049686 0.069040954 0.039330278 0.09445337 -0.110479765
0.031422243 -0.0004182664 0.067820966 -0.06521442 -0.12198796 -0.059128325 -0.0667846 0.05967801
0.07587191 -0.017955739 0.011668611 -0.14162105 0.04513725 -0.10892814 -0.022984743 -0.037289448
0.07340137 0.06269756 -0.024106903 -0.094179116 -0.09476533 0.09484718 -0.091702215 0.035120223
-0.01872803 -0.109831 0.00033497973 0.07920689 0.08502315 -0.09208736 0.059457142 -0.09469342
-0.12060995 -0.11509152 0.01978598 -0.0935285 -0.05373628 0.09357132 0.03786553 0.03896202
-0.006098818 0.011857735 -0.079635784 -0.036785528 0.080190845 -0.121634685 -0.09395607 -0.12459109
-0.10732361 0.096134864 -0.09721419 -0.06987187 -0.08855548 -0.021017108 0.021863105 0.031179572
0.049635433 -0.042999282 -0.008505422 0.025192726 0.013075216 -0.078279205 0.014026366 0.081246525
-0.08547157 -0.018986685 -0.010953708 -0.024970809 0.09472941 0.09121341 -0.010893548 -0.005351887
0.08289528 0.009271961 -0.023375614 -0.017086938 -0.11417064 -0.046001166 -0.028443636 -0.066134594
-0.09544053 -0.10301922 -0.08321384 0.068987824 -0.045538735 -0.12074364 -0.09557931 0.003485287
0.041933134 0.082576506 -0.09164289 -0.0775632 -0.017503798 0.052932836 -0.11504457 -0.13415992
0.21739566 0.23360677 0.13739952 0.17059694 0.16042134 0.04503099 0.19913717 0.0005169767
0.16907355 0.012139971 0.2408587 0.15592808 0.022897884 0.23981883 0.14896344 0.16220428
0.11486301 0.22791448 0.21960182 0.19818938 0.023143591 0.043572325 0.21710949 0.11692861
0.08727107 0.13209422 0.16599776 0.2221709 0.207769 0.02406714 0.01125799 0.061993387
0.16096629 0.051628005 0.120936215 0.13396168 0.24082418 0.19038902 0.13105395 0.2284531
0.11737496 0.2105413 0.02306357 0.09879046 0.24549232 0.013212218 0.09664081 0.20104034
0.23591234 0.24408706 0.22625005 0.024076108 0.03568133 0.14178865 0.06944894 0.13007958
0.24393201 0.14205396 0.020523336 0.055078544 0.19467214 0.22943032 0.10820594 0.07446699
0.21901885 0.23064531 0.12762354 0.12645361 0.15009996 0.10817031 0.13946934 0.007439307
0.04359517 0.16216744 0.121942826 0.083531335 0.1480712 0.014415461 0.056860495 0.2422484
0.14485155 0.13857037 0.10947595 0.026342269 0.08959677 0.016465712 0.2585999 0.16319239
0.07330664 0.022247255 0.13503018 0.12745328 0.145189 0.018837076 0.08845885 0.24192299
0.13795084 0.1602595 0.13995658 0.02720458 0.2549725 0.15780313 0.24427262 0.12977844
0.082076214 0.16193561 0.11626629 0.16667898 0.045570254 0.08486411 0.044625506 0.25452676
0.061190024 0.073620215 0.15288118 0.09412637 0.22735249 0.21796723 0.057422064 0.20488113
0.07222361 0.17814493 0.06581135 0.18465027 0.2589631 0.2406679 0.12165002 0.14062603

fc2.bias f4 [32]
00000000: 5deb d7bd 3453 ba3d a797 273d a1f9 233d
00000010: 84a2 fd3c 431c 133d 51f8 053e bf7f 073c
00000020: 3449 1fbd 0f23 2b3e 2393 0d3e ed95 f93d
00000030: 2fe8 cc3d dcbf 813c 58c3 9fbb edc2 693e
00000040: adf8 f23d bcf9 313e 8e87 e43c 0d90 8bbd
00000050: 74a2 01be b482 efbb 6860 01bc eda0 cdbd
00000060: f478 a23c aa75 d8bd ddd3 6bbd 4e06 773d
00000070: 4256 40ba cf6c 243d c7f9 c93d d9ea a73d
-0.10542939 0.09097901 0.04091611 0.040032987 0.030961283 0.035915624 0.13083006 0.008270203
-0.03888817 0.16712593 0.1382566 0.12186799 0.10005223 0.015838556 -0.0048755817 0.22828265
0.118638374 0.17380422 0.027896669 -0.06814585 -0.12659627 -0.007309282 -0.00789652 -0.1004046
0.019833066 -0.10569318 -0.057575095 0.060308747 -0.0007337072 0.04014283 0.09862094 0.081990905

fc3.weight f4 [2, 32]
00000000: 4838 8ebd c60f 1bbe e751 693e 6fa5 473e
00000010: 6f20 4d3e c1ed bdbd ad0d 8d3e 8c5a 7c3e
00000020: 23ee c8bc dbef 853e 8b1c 8d3e 6a4e 0b3e
00000030: 403e 523c bc8d 10bd 5471 8abd 6852 203e
00000040: d277 8f3e d168 363e 080a f4bb c692 2abd
00000050: e864 f4bd 8ac5 11be b175 8fbd db59 5ebc
00000060: 934c 293e 5396 b8bd e556 8bbd c961 943e
00000070: 6e90 693e e093 0ebe 00ae e9ba 4999 93bd
00000080: f5e7 f0bd b519 033e 7ddb 4e3c fe83 71bd
00000090: e2bb 5bbd 0181 073d f5a3 eebc fdd9 f93d
000000a0: 0342 02bd 68d0 3dbd 3440 bc3d 042a 1e3d
000000b0: 4a34 b6bd 1c3a d03d c836 013e 9d94 25bd
000000c0: b880 28be 05d8 123e a005 e3bd 92a8 b83d
000000d0: b4c6 2e3c eb42 b43d 7964 063e ca9b 113e
000000e0: 7ad5 67bd 58ac 5fbd f739 1dbe f199 7e3c
000000f0: 3451 c13c 63a4 d4bd 986b a6bc 04ad 10be
-0.069443285 -0.15142736 0.2278515 0.19496702 0.20031904 -0.092738636 0.27549496 0.24643916
-0.024527615 0.26159558 0.2756084 0.13604131 0.012832224 -0.03529142 -0.06759897 0.15656435
0.28021103 0.17813422 -0.007447485 -0.04164388 -0.11933309 -0.14235511 -0.0700487 -0.013571228
0.16533117 -0.09013047 -0.06803683 0.28980854 0.22809002 -0.13923597 -0.0017828345 -0.07206971
-0.11762992 0.12802775 0.012625572 -0.05896377 -0.053645976 0.033082012 -0.029130915 0.12199781
-0.031801235 -0.04634133 0.09191933 0.038614288 -0.08896692 0.101673335 0.12618554 -0.04042493
-0.16455352 0.14340217 -0.11085057 0.09016527 0.010667492 0.08801826 0.13124265 0.14219585
-0.05660007 -0.05460772 -0.15354143 0.015539632 0.023598291 -0.10382917 -0.020314977 -0.141285

fc3.bias f4 [2]
00000000: 213f 593e bb07 f1bd
0.21215488 -0.117690526
