model_checkpoint.pth (torch, 280298 bytes, 30 tensors)

raycast_branch.0.weight f4 [16, 1, 3]
00000000: 5bd5 003f 755c bebb 6afb 04bf 66b9 823f
00000010: 413b 12be c520 85bd 7d0d 92bd dd00 533e
00000020: ab1c 8a3e affa fdbc 390c 253f d64b 173e
00000030: 0512 ed3e 1563 4a3e f248 f3bc 9189 0080
00000040: 718a 0080 1c89 0080 a189 0080 4e8a 0000
00000050: ce88 0000 c153 2bbe 44c4 30bf f787 df3e
00000060: a58a 0080 f989 0080 838a 0080 7889 0000
00000070: d089 0080 cd8a 0080 66bd aa3e a514 1abf
00000080: e1b4 c43d 928a 0000 eb88 0000 9289 0080
00000090: d88a 0080 458a 0000 638a 0000 f489 0080
000000a0: 5ea4 0000 af8a 0080 1a89 0080 a08a 0080
000000b0: 1a8a 0080 6589 0000 668a 0000 348a 0080
0.50325555 -0.0058093616 -0.5194613 1.0212829 -0.14280416 -0.06500391 -0.07131479 0.20605798
0.26974997 -0.031003324 0.64471775 0.14775023 0.4630281 0.1976436 -0.029697869 -4.935e-41
-4.9663e-41 -4.9186e-41 -4.9372e-41 4.9614e-41 4.9076e-41 -0.16731168 -0.6904948 0.4365842
-4.9736e-41 -4.9495e-41 -4.9689e-41 4.9314e-41 -4.9438e-41 -4.9792e-41 0.33347625 -0.6018775
0.096048124 4.971e-41 4.9117e-41 -4.9351e-41 -4.9808e-41 4.9602e-41 4.9644e-41 -4.9488e-41
5.8964e-41 -4.975e-41 -4.9183e-41 -4.9729e-41 -4.9542e-41 4.9288e-41 4.9648e-41 -4.9578e-41

raycast_branch.0.bias f4 [16]
00000000: 2e38 923d 481d d9be 5c68 82be 13a6 4bbe
00000010: 35d6 21be be89 0080 8b89 0000 008e d03e
00000020: 3c89 0080 c089 0000 7aa7 5f3e 6393 0080
00000030: 048a 0000 4f89 0000 fa89 0080 e689 0080
0.07139622 -0.42405152 -0.25470245 -0.19887571 -0.1580437 -4.9413e-41 4.9341e-41 0.40733337
-4.923e-41 4.9415e-41 0.21841231 -5.2872e-41 4.951e-41 4.9257e-41 -4.9497e-41 -4.9469e-41

raycast_branch.3.weight f4 [32, 16, 3]
00000000: 438a 0080 9a90 0080 f28a 0080 d488 0080
00000010: ed88 0080 cc8a 0000 7291 0080 e899 0000
00000020: 9e9e 0000 a28c 0080 e289 0000 9b89 0080
00000030: d58a 0080 148a 0080 d788 0080 598c 0080
00000040: c388 0080 638e 0000 d289 0080 5789 0080
00000050: 688a 0000 249a 0080 e1a3 0000 0e96 0080
00000060: 3a8c 0000 669a 0080 d998 0000 9393 0080
00000070: 998d 0000 6c92 0080 3792 0000 36a7 0080
00000080: 758b 0000 b18e 0000 bf91 0000 cc8b 0000
00000090: 4c8a 0080 9989 0000 e689 0080 ff89 0000
000000a0: d288 0080 278b 0000 5289 0080 dd89 0080
000000b0: 6c89 0080 4998 0000 4b8f 0080 25af 0080
000000c0: 3bd3 0b3d 50c2 ebbb d6d2 9dbc d307 25bd
000000d0: 3eab 803b aff4 6cbc bccc 3835 8657 73bc
000000e0: 7704 903c 684c c8bd 269a 14be 903d cabd
000000f0: 9ed8 7fbd 5e15 edbd 2e71 fbbd cc88 0000
00000100: 7b9b 0080 36a4 0080 fe89 0080 a889 0000
00000110: d28a 0080 feb7 813d 30fb 833d 92e9 b63d
00000120: b295 0000 908b 0000 3198 0080 aa9b 0000
00000130: f688 0000 088c 0000 cc4f 503d 5203 833d
00000140: c597 a93d e588 0080 87a1 0000 a88b 0000
00000150: 5c9a 0080 2ca2 0080 fa8a 0080 e189 0000
00000160: d58c 0080 7f9b 0000 aa89 0000 bf89 0000
00000170: b189 0080 79a1 0000 dea1 0080 63a1 0080
00000180: ba88 0080 fe88 0080 f488 0080 cc89 0080
00000190: d789 0080 cc88 0080 b4a8 0000 0389 0000
000001a0: 9789 0080 4589 0080 c989 0080 118a 0080
000001b0: fa88 0000 3a89 0080 dc89 0000 4c8c 0080
000001c0: c88b 0080 c28d 0000 e188 0080 2789 0080
000001d0: dc88 0080 0c89 0000 69a0 0080 5189 0000
000001e0: 15a0 0000 0ba7 0080 bcad 0080 1394 0080
000001f0: 6089 0080 d892 0000 038a 0000 42ad 0080
00000200: c989 0000 af8b 0000 a4aa 0000 188f 0080
00000210: 0c89 0000 8689 0000 b689 0000 bb9b 0080
00000220: 2f8f 0000 86a7 0000 aa89 0000 ae89 0000
00000230: 1f89 0000 58a4 0080 75ac 0080 8291 0080
00000240: 4c89 0080 de88 0080 1389 0080 f788 0080
00000250: 638b 0080 0b8e 0080 4d89 0080 6a89 0080
00000260: 3a89 0080 5f89 0080 568b 0080 208d 0000
00000270: 1989 0080 2f89 0080 7689 0080 d988 0080
00000280: ee88 0080 0389 0000 cd8a 0000 9b89 0000
00000290: bb8b 0000 8b89 0080 b389 0080 ea88 0080
000002a0: 749e 0000 afa1 0000 cca3 0000 108a 0080
000002b0: 7fad 0080 9d8b 0080 9489 0080 0d89 0080
000002c0: a289 0080 51ab 0080 15a2 0000 2589 0080
000002d0: 7d8b 0080 238c 0080 d58b 0080 f594 0000
000002e0: a88f 0000 d78d 0080 2889 0000 3b89 0000
000002f0: 078a 0000 6898 0000 21a5 0080 c99e 0080
00000300: f288 0080 b803 1397 4b2a d08b b0e8 0daa
00000310: 3a80 14ad bb40 26ac 6b89 0000 1389 0080
00000320: 438a 0080 63a2 38b3 d6c8 18b4 d4f6 94b3
00000330: fba4 4fb1 6da2 83b2 313f 0ab2 cf89 0000
00000340: 9e8a 0000 6c8b 0080 dd88 0080 c688 0080
00000350: 008a 0080 8bcf 1ea1 528a 019f 0068 0598
00000360: 139c 0080 9198 0000 c591 0000 188e 0080
00000370: 9a92 0000 cd9a 0000 6469 429b 1704 6f9a
00000380: 1281 e210 44a8 0000 809d 0080 16a6 0080
00000390: c488 0080 b897 0000 7689 0080 448a 0080
000003a0: 2797 0000 1290 0000 8689 0000 d589 0000
000003b0: d088 0000 cca4 0080 5f92 0080 53a1 0000
000003c0: 7edf fa3d a671 f23d 5479 e5bc 1101 ec3d
000003d0: c663 553e 9b48 90bd ba55 b43d e700 17be
000003e0: 9625 9bbd b409 d03d 583a d2bd f2e1 7fbd
000003f0: 920a 153d 4145 b33d 0b66 8dbd cf88 0080
-4.9599e-41 -5.1873e-41 -4.9844e-41 -4.9085e-41 -4.912e-41 4.9791e-41 -5.2176e-41 5.5211e-41
5.6901e-41 -5.045e-41 4.9463e-41 -4.9364e-41 -4.9804e-41 -4.9533e-41 -4.9089e-41 -5.0347e-41
-4.9061e-41 5.1079e-41 -4.944e-41 -4.9268e-41 4.9651e-41 -5.5295e-41 5.8789e-41 -5.383e-41
5.0304e-41 -5.5388e-41 5.4831e-41 -5.294e-41 5.0796e-41 -5.2526e-41 5.2452e-41 -5.9984e-41
5.0028e-41 5.1188e-41 5.2284e-41 5.015e-41 -4.9612e-41 4.9361e-41 -4.9469e-41 4.9504e-41
-4.9082e-41 4.9918e-41 -4.9261e-41 -4.9456e-41 -4.9298e-41 5.463e-41 -5.1404e-41 -6.283e-41
0.034136992 -0.0071947947 -0.019265573 -0.040290665 0.0039266637 -0.014462634 6.884327e-07 -0.01485241
0.017580254 -0.09780198 -0.14511928 -0.09875023 -0.06246244 -0.11576341 -0.12277447 4.9073e-41
-5.5776e-41 -5.8908e-41 -4.9502e-41 4.9382e-41 -4.98e-41 0.06333922 0.064443946 0.08931269
5.37e-41 5.0066e-41 -5.4596e-41 5.5842e-41 4.9132e-41 5.0234e-41 0.05085735 0.06397118
0.08280901 -4.9109e-41 5.7945e-41 5.0099e-41 -5.5374e-41 -5.8176e-41 -4.9855e-41 4.9462e-41
-5.0521e-41 5.5781e-41 4.9385e-41 4.9414e-41 -4.9394e-41 5.7925e-41 -5.8067e-41 -5.7895e-41
-4.9048e-41 -4.9144e-41 -4.913e-41 -4.9432e-41 -4.9448e-41 -4.9073e-41 6.0519e-41 4.915e-41
-4.9358e-41 -4.9243e-41 -4.9428e-41 -4.9529e-41 4.9138e-41 -4.9228e-41 4.9455e-41 -5.0329e-41
-5.0144e-41 5.0853e-41 -4.9103e-41 -4.9201e-41 -4.9096e-41 4.9163e-41 -5.7544e-41 4.926e-41
5.7427e-41 -5.9924e-41 -6.2324e-41 -5.3119e-41 -4.9281e-41 5.2678e-41 4.9509e-41 -6.2153e-41
4.9428e-41 5.0109e-41 6.1214e-41 -5.1332e-41 4.9163e-41 4.9334e-41 4.9401e-41 -5.5866e-41
5.1365e-41 6.0096e-41 4.9385e-41 4.939e-41 4.919e-41 -5.8955e-41 -6.1866e-41 -5.2198e-41
-4.9253e-41 -4.9099e-41 -4.9173e-41 -4.9134e-41 -5.0003e-41 -5.0955e-41 -4.9254e-41 -4.9295e-41
-4.9228e-41 -4.928e-41 -4.9984e-41 5.0626e-41 -4.9181e-41 -4.9212e-41 -4.9312e-41 -4.9092e-41
-4.9121e-41 4.915e-41 4.9792e-41 4.9364e-41 5.0126e-41 -4.9341e-41 -4.9397e-41 -4.9116e-41
5.6842e-41 5.8001e-41 5.8759e-41 -4.9527e-41 -6.2239e-41 -5.0084e-41 -4.9354e-41 -4.9165e-41
-4.9373e-41 -6.1457e-41 5.8144e-41 -4.9198e-41 -5.0039e-41 -5.0272e-41 -5.0162e-41 5.3436e-41
5.1534e-41 -5.0883e-41 4.9202e-41 4.9229e-41 4.9515e-41 5.4673e-41 -5.9237e-41 -5.6961e-41
-4.9127e-41 -4.7502955e-25 -8.018232e-32 -1.2604045e-13 -8.441298e-12 -2.3625951e-12 4.9296e-41 -4.9173e-41
-4.9599e-41 -4.298853e-08 -1.4229167e-07 -6.936685e-08 -3.0216245e-09 -1.532427e-08 -8.047025e-09 4.9436e-41
4.9726e-41 -5.0015e-41 -4.9097e-41 -4.9065e-41 -4.9505e-41 -5.3807163e-19 -2.743123e-20 -1.7242354e-24
-5.5989e-41 5.473e-41 5.2292e-41 -5.0974e-41 5.2591e-41 5.5532e-41 -1.6081357e-22 -4.9427345e-23
8.9340147e-29 6.0362e-41 -5.65e-41 -5.958e-41 -4.9062e-41 5.4426e-41 -4.9312e-41 -4.96e-41
5.4223e-41 5.1683e-41 4.9334e-41 4.9445e-41 4.9079e-41 -5.9118e-41 -5.2508e-41 5.7872e-41
0.12249659 0.11838083 -0.028011955 0.11523641 0.20838842 -0.070450984 0.088054135 -0.14746438
-0.07575528 0.10158101 -0.102650344 -0.062471338 0.036387034 0.087534435 -0.06904229 -4.9078e-41

raycast_branch.3.bias f4 [32]
00000000: 488a 0080 e472 0c3d 6589 0080 3789 0080
00000010: a274 2cb8 9c07 abbd 9fad 0080 7436 18ad
00000020: 1389 0080 4af9 62ba 430b 84ba de88 0080
00000030: a289 0080 b656 2db6 337f 0f81 6da3 0080
00000040: 33a2 0080 b200 5bb4 ad69 453e f66d 73be
00000050: e589 0080 1dd7 7bb9 510e 2c9d c388 0080
00000060: 4ac7 c83d 7589 0080 a389 0080 1589 0080
00000070: 0e9f 97b6 7840 1e3d 9afd a8ba b2a8 0080
-4.9606e-41 0.034289256 -4.9288e-41 -4.9223e-41 -4.111662e-05 -0.08351061 -6.2284e-41 -8.652291e-12
-4.9173e-41 -0.0008658363 -0.0010074157 -4.9099e-41 -4.9373e-41 -2.5829481e-06 -2.6356213e-38 -5.8626e-41
-5.8186e-41 -2.0396217e-07 0.19278593 -0.23772416 -4.9467e-41 -0.00024017361 -2.2771412e-21 -4.9061e-41
0.09803636 -4.931e-41 -4.9375e-41 -4.9176e-41 -4.518667e-06 0.0386357 -0.0012892962 -6.0516e-41

common_layers.0.weight f4 [64, 288]
00000000: 8c96 0080 8589 0080 2aaa 0080 ec89 0080
00000010: a089 0000 a0a2 0000 f1aa 0000 a49f 0080
00000020: 7c89 0080 d889 0000 f989 0000 b189 0000
00000030: 2a89 0000 7e03 c9ba d1d6 b8bb d598 84bb
00000040: b530 0339 51ab 713a e888 0000 e289 0080
00000050: 1e8a 0080 0d89 0080 ba88 0080 d988 0080
00000060: fd9d 0080 4a8a 0080 ee89 0000 478c 0080
00000070: 2e8e 0080 618d 0080 a592 0080 df96 0000
00000080: 2895 0080 b4a3 0080 fd8c 0080 438a 0080
00000090: 9d7f ab02 4d44 3991 b63e 900e 9cf9 958a
000000a0: 821f 2606 85a0 9906 41de 4708 663a 330f
000000b0: 887f 0300 4390 0080 708e 9bba c3ce d23c
000000c0: 36e0 0d3d e6a6 0dbd 26ca ca3a a689 0080
000000d0: 63e0 f1bb d6ca d9bc cb88 0080 3da2 0080
000000e0: c788 0080 cd88 0080 80aa 0080 c49f 0000
000000f0: c188 0080 62ad 0000 c188 0000 a98c 0000
00000100: d796 0080 148a 0080 3d8d 0000 3b8a 0000
00000110: 058b 0080 c58c 0000 628c 0000 9b89 0080
00000120: 1f8e 0080 8593 0080 9594 0080 7e8a 0000
00000130: 4e8c 0000 4498 0000 718f 0080 8692 0080
00000140: e19a 0080 8993 0080 8393 0000 2c8d 0000
00000150: 798b 0000 9896 0080 caae 0080 b197 0080
00000160: 7b89 0080 cf8a 0000 34e6 b2a8 50d7 1fae
00000170: 4d1c 1eae a439 06ad 222c 2cab f69d 59aa
00000180: dd66 f2aa b066 d6ac b214 d6a7 ca93 0080
00000190: 9f8b 0080 df93 0080 148e 0080 758e 0080
000001a0: 1890 0080 a789 0000 a091 0080 4c93 0000
000001b0: 508a 0080 1d89 0080 2aa4 0080 2e8a 0000
000001c0: fa88 0000 498a 0000 a489 0000 378a 0080
000001d0: 5189 0080 755c d398 3f0f 2019 e33f 2019
000001e0: b2a3 1f19 438f 1a19 f2e6 1099 242a 0219
000001f0: 5d36 0098 c7da fb98 1af1 9a00 b541 7f00
00000200: 1c47 7b00 8488 8300 b0b7 9300 d796 9a00
00000210: 6578 9a00 c5d5 8700 4c5e 9c00 e98a 0000
00000220: 5189 0080 ab8a 0000 338a 0000 4d89 0000
00000230: c593 0080 4fa5 0000 1189 0080 c889 0000
00000240: 0eab 0000 e0a7 0080 36a6 0080 87a8 0000
00000250: f496 0080 c988 0080 c893 0080 c588 0000
00000260: 4b9c 0080 e28a 0080 da88 0000 7c8a 0080
00000270: fd89 0000 ca88 0000 ad89 0000 c988 0080
00000280: 7e8a 0080 3389 0080 3e4b 71bd b854 fa3c
00000290: 7cfd 03be 93ad adbd 3c4c f83d 66e1 403e
000002a0: 6d1a 3fbe 8e04 86bd 865e c13d 6413 343e
000002b0: 2a0b 2d3e 082e 973d 150c c8bd cef3 edbc
000002c0: add9 6fba 4a22 a3ba d07a fbbd dc59 08be
000002d0: db9f 0000 04a1 0000 b39f 0080 6a96 0000
000002e0: 458e 0000 ac8f 0000 1f8f 0080 449f 0080
000002f0: 9d9f 0080 c6dc 8136 87fb 9f37 af41 8c37
00000300: 43fa 6337 5c38 1f37 15fa 0737 c193 1737
00000310: 6722 7a37 1630 6536 978d 0000 a794 0080
00000320: e98f 0000 a68c 0000 418e 0080 4890 0000
00000330: ed93 0080 75aa 0080 5d8c 0000 f991 0080
00000340: 7894 0080 5a9f 0000 409d 0000 7ea0 0000
00000350: c2a8 0000 b290 0080 3f8b 0000 3195 0080
00000360: cff6 a6bd 9a81 27bd 0cd9 7abc 73ab a7bd
00000370: 9f13 073e 5849 193e 9da4 50bd 2907 36bd
00000380: 6c90 17bb 0b89 0000 fc89 0000 0b89 0000
00000390: 6889 0000 1589 0000 8589 0000 c788 0000
000003a0: 4f89 0000 d688 0000 88a8 0080 0f96 0080
000003b0: b8a5 0080 828a 0080 06af 0080 19a0 0000
000003c0: dba7 0080 348a 0000 62a6 0000 a7a8 0000
000003d0: 209a 0080 7a8d 0080 35a0 0080 af90 0080
000003e0: 3d9e 0080 2dac 0000 6e96 0080 09a8 0080
000003f0: ee88 0000 198a 0000 ea88 0000 dd88 0000
-5.4006e-41 -4.9333e-41 -6.1043e-41 -4.9477e-41 4.937e-41 5.8339e-41 6.1322e-41 -5.7268e-41
-4.932e-41 4.9449e-41 4.9495e-41 4.9394e-41 4.9205e-41 -0.0015336124 -0.0056408425 -0.0040465393
0.00012511278 0.00092189485 4.9113e-41 -4.9463e-41 -4.9547e-41 -4.9165e-41 -4.9048e-41 -4.9092e-41
-5.6676e-41 -4.9609e-41 4.948e-41 -5.0322e-41 -5.1004e-41 -5.0717e-41 -5.2606e-41 5.4122e-41
-5.3507e-41 -5.8726e-41 -5.0577e-41 -4.9599e-41 2.5199438e-37 -1.4614974e-28 3.555913e-30 -1.444207e-32
3.1244278e-35 5.7788066e-35 6.0145642e-34 8.8366285e-30 3.21256e-40 -5.1751e-41 -0.0011868011 0.025733357
0.034637652 -0.034582995 0.0015471622 -4.9379e-41 -0.0073814853 -0.026585978 -4.9072e-41 -5.82e-41
-4.9066e-41 -4.9075e-41 -6.1164e-41 5.7313e-41 -4.9058e-41 6.2198e-41 4.9058e-41 5.046e-41
-5.4111e-41 -4.9533e-41 5.0667e-41 4.9588e-41 -4.9871e-41 5.0499e-41 5.036e-41 -4.9364e-41
-5.0983e-41 -5.292e-41 -5.3301e-41 4.9682e-41 5.0332e-41 5.4623e-41 -5.1457e-41 -5.2563e-41
-5.556e-41 -5.2926e-41 5.2917e-41 5.0643e-41 5.0033e-41 -5.4023e-41 -6.2703e-41 -5.4417e-41
-4.9319e-41 4.9795e-41 -1.9861805e-14 -3.634365e-11 -3.5950177e-11 -7.629817e-12 -6.116792e-13 -1.9328275e-13
-4.305921e-13 -6.0936464e-12 -5.941937e-15 -5.3017e-41 -5.0087e-41 -5.3046e-41 -5.0968e-41 -5.1104e-41
-5.1691e-41 4.938e-41 -5.224e-41 5.284e-41 -4.9617e-41 -4.9187e-41 -5.8891e-41 4.957e-41
4.9138e-41 4.9607e-41 4.9376e-41 -4.9582e-41 -4.926e-41 -5.463558e-24 8.274885e-24 8.284708e-24
8.253165e-24 7.990545e-24 -7.4912645e-24 6.729353e-24 -1.6571059e-24 -6.5102888e-24 1.4229157e-38 1.1686679e-38
1.1321275e-38 1.2079423e-38 1.3565713e-38 1.4196778e-38 1.4185856e-38 1.2474478e-38 1.4360165e-38 4.9832e-41
-4.926e-41 4.9745e-41 4.9577e-41 4.9254e-41 -5.301e-41 5.9302e-41 -4.917e-41 4.9427e-41
6.1363e-41 -6.0222e-41 -5.9625e-41 6.0456e-41 -5.4152e-41 -4.9069e-41 -5.3014e-41 4.9064e-41
-5.6067e-41 -4.9822e-41 4.9093e-41 -4.9679e-41 4.9501e-41 4.907e-41 4.9389e-41 -4.9069e-41
-4.9682e-41 -4.9218e-41 -0.058909647 0.030557975 -0.12889665 -0.08480372 0.121239156 0.18835983
-0.18662424 -0.065438375 0.09441857 0.17585522 0.1689879 0.07381827 -0.097679295 -0.02904692
-0.00091495627 -0.0012446132 -0.12279284 -0.13315529 5.7345e-41 5.7762e-41 -5.7289e-41 5.3958e-41
5.1037e-41 5.154e-41 -5.1342e-41 -5.7134e-41 -5.7258e-41 3.870201e-06 1.9071404e-05 1.6719887e-05
1.3588523e-05 9.490261e-06 8.104854e-06 9.034703e-06 1.4909171e-05 3.4151649e-06 5.0793e-41 -5.3326e-41
5.1625e-41 5.0455e-41 -5.1031e-41 5.1758e-41 -5.3066e-41 -6.1148e-41 5.0353e-41 -5.2365e-41
-5.326e-41 5.7165e-41 5.641e-41 5.7574e-41 6.0539e-41 -5.1907e-41 4.9952e-41 -5.352e-41
-0.08152544 -0.040895082 -0.015310537 -0.08186998 0.13191079 0.14969385 -0.050938237 -0.044440422
-0.0023126854 4.9162e-41 4.95e-41 4.9162e-41 4.9292e-41 4.9176e-41 4.9333e-41 4.9066e-41
4.9257e-41 4.9087e-41 -6.0458e-41 -5.3831e-41 -5.9449e-41 -4.9687e-41 -6.2787e-41 5.7432e-41
-6.0215e-41 4.9578e-41 5.9687e-41 6.0501e-41 -5.529e-41 -5.0752e-41 -5.7471e-41 -5.1903e-41
-5.6765e-41 6.1765e-41 -5.3964e-41 -6.028e-41 4.9121e-41 4.954e-41 4.9116e-41 4.9097e-41

common_layers.0.bias f4 [64]
00000000: 2a4c 63bd ba88 0080 ed88 0080 877a c7bb
00000010: a728 f4bc 4b79 f93c 5a89 0080 d78d 0080
00000020: fa21 0dbd 188a 0080 edc5 2fbd 07b7 1ebd
00000030: b90e 4abd f07b 8d3c fcea 233c 3572 883b
00000040: 8889 0080 5b89 0080 a5bf 22bd 228a 0080
00000050: 9389 0080 b98d 0080 8997 0080 5c73 24bd
00000060: 3977 25bc f778 40bc bfad 0080 cb8e fbbc
00000070: 17d4 2fbc 5e89 0080 e488 0080 7b40 3a3c
00000080: 3889 0080 0e8a 0080 d82c 12bc 8f89 0080
00000090: 4480 f6bb b889 0080 d1eb 6dbd 4f89 0080
000000a0: a08a 1cbb a489 0080 1989 0080 c088 0080
000000b0: 73a5 0080 e689 0080 ce88 0080 9b87 0080
000000c0: 8a00 0fbd 3fae 0080 b932 913b 1a9b 0080
000000d0: 62e6 c13a 6bee 55bc a989 0080 cf92 adbc
000000e0: de24 bfbc 285a 5dbd 2589 0080 9c89 0080
000000f0: a98b 0080 55bf 2dbd 24ac 0080 7cad 0080
-0.055492558 -4.9048e-41 -4.912e-41 -0.0060876044 -0.02980454 0.030453345 -4.9272e-41 -5.0883e-41
-0.03445623 -4.9539e-41 -0.042913366 -0.038748767 -0.049330447 0.017271012 0.010004755 0.004164005
-4.9337e-41 -4.9274e-41 -0.039733548 -4.9553e-41 -4.9352e-41 -5.084e-41 -5.436e-41 -0.040149078
-0.010099226 -0.01174759 -6.2328e-41 -0.030707737 -0.0107317185 -4.9278e-41 -4.9107e-41 0.011367912
-4.9225e-41 -4.9525e-41 -0.008921824 -4.9347e-41 -0.0075226147 -4.9404e-41 -0.05808622 -4.9257e-41
-0.0023886338 -4.9376e-41 -4.9181e-41 -4.9057e-41 -5.9352e-41 -4.9469e-41 -4.9076e-41 -4.8646e-41
-0.034912623 -6.2508e-41 0.0044310954 -5.564e-41 0.0014793391 -0.013057332 -4.9383e-41 -0.021188168
-0.02333301 -0.054041058 -4.9198e-41 -4.9365e-41 -5.01e-41 -0.042418797 -6.1752e-41 -6.2234e-41

common_layers.3.weight f4 [32, 64]
00000000: e0ad 1b3e 2591 0080 1aa4 0080 27b7 0d3e
00000010: 18de 9dbc ed11 cf3c e18d 0080 888b 0000
00000020: 7be6 113e 0b8c 0000 f71b d1bc 547e d3bc
00000030: 8d19 1b3e 8f89 90bd 67d8 d3bd 1665 febc
00000040: 5a9b 0080 3a89 0080 63bf 543d a58d 0080
00000050: fa88 0000 f688 0000 5e8e 0080 c15b 0cbc
00000060: 3cde 7bbc baf8 5bbd ee93 0000 b29d d7bc
00000070: d2d9 943d 6199 0080 438a 0000 25b3 d6bd
00000080: b889 0080 4d89 0080 565d 92bc ea8d 0000
00000090: 1e88 bcbc ec89 0000 aaf7 cfbc 4589 0000
000000a0: ba3b f1bc 6c9b 0080 7591 0080 9095 0080
000000b0: ed8f 0080 4591 0080 71ae 0000 0291 0080
000000c0: ec0f a6bc a889 0080 319d 57bd 5e8b 0080
000000d0: 1eaf cebd aeef 2bbd 84ad 0000 ae11 eebc
000000e0: 559b dbbc 7ae9 fcbc 8e8d 0000 bc88 0080
000000f0: b995 0000 64b7 7e3d 8f8e 0080 0a92 0080
00000100: b18e 213e f88d 0080 7195 0080 cb87 143e
00000110: 6690 85bc d9a2 d43c 5492 0080 e58c 0000
00000120: ef97 1b3e ea88 0000 15aa eabc 86cd d0bc
00000130: 0b65 203e dc67 9fbd 49ea 97bd 371d 85bc
00000140: 0192 0080 a392 0080 d890 893d 858f 0000
00000150: c288 0000 628f 0080 e98d 0000 c3d7 3dbb
00000160: bc36 583c bae1 5dbd 7f8b 0000 9909 cabc
00000170: df63 983d d69a 0080 e989 0080 2b07 aebd
00000180: eb88 0080 cc89 0080 be1c 583c d588 0000
00000190: dd7d a43b 3f8c 0080 cc26 a2bc b78f 0000
000001a0: 45d2 39bc 378e 0080 4a8d 0080 bc8d 0000
000001b0: 378b 0080 6691 0080 9b8b 0000 24aa 0000
000001c0: 55ec 6f3c 5cae 0080 f16c 65bd 3d91 0080
000001d0: 0508 a8bd 1648 3bbd ea8e 0080 c777 13bd
000001e0: 5b7e dfbc fbed dcbc 1990 0000 6a89 0080
000001f0: 938b 0080 0adb 9b3d c888 0080 3099 0080
00000200: 91ca debc 148a 0000 5289 0080 8097 e9bc
00000210: 578a b33d b889 6b3c 1e8d 0080 858a 0080
00000220: 8b05 0abd b789 0000 1e98 d03d 1a9e d13d
00000230: 6ffc 0bbd c493 003d 44d5 143c 2851 f5bc
00000240: b390 0080 c497 0080 1a22 e0bc c292 0080
00000250: c08e 0080 5b8a 0080 ec90 0080 dcae 42bc
00000260: 1359 deba dccb 773d 4e89 0000 7995 c03d
00000270: 7bea 49bd c494 0000 848c 0000 4a74 483c
00000280: 97af 0080 6b8a 0000 3cb7 80bc 3e8c 0080
00000290: 695c c3bb b09d 0000 bf7e c93d 4f97 0000
000002a0: 4a32 bfbc 518d 0080 8990 0000 57a2 0080
000002b0: 358a 0000 918b 0080 bf88 0080 9e93 0080
000002c0: ec2c 553c a59f 0000 6985 a33d f095 0080
000002d0: e731 cb3c 1e0c ba3d c88f 0000 74f8 b33d
000002e0: 5808 b33d a24a d43d 3189 0000 e289 0080
000002f0: 708a 0080 0f1b fcbc f28c 0000 6190 0000
00000300: 6590 0080 7595 0000 df8f 0000 93ad 0080
00000310: af92 0080 99ab 0080 9595 0080 1294 0080
00000320: b39b 0080 79a0 0000 0c96 0080 808e 0080
00000330: 219e 0080 7da9 0080 ed98 0080 fc9d 0080
00000340: f888 0000 3ca8 0000 39a9 0080 068c 0080
00000350: 0e89 0000 7ba1 0080 129e 0080 9e9f 0080
00000360: e48f 0080 6599 0080 48a3 0000 a5a2 0080
00000370: f6a0 0080 849e 0000 5aa3 0080 c389 0000
00000380: 2fa1 0000 dbae 0000 c5a3 0000 b789 0080
00000390: f591 0080 2097 0000 998b 0000 c488 0000
000003a0: 5999 0080 d2ab 0000 0f8a 0080 3299 0080
000003b0: d797 0080 b48a 0000 6299 0080 79a1 0080
000003c0: 258b 0080 058a 0080 cd93 0080 2a9e 0000
000003d0: a0a0 0080 c290 0080 948b 0000 0f8b 0080
000003e0: 2aa5 0080 c29c 0080 0dac 0080 23ae 0080
000003f0: eea9 0000 d696 0000 a8a9 0080 0c9d 0000
0.15203047 -5.2068e-41 -5.8869e-41 0.13839398 -0.019270942 0.025277102 -5.0897e-41 5.0054e-41
0.14248078 5.0238e-41 -0.02552603 -0.025817074 0.15146466 -0.07057487 -0.1034401 -0.03105406
-5.573e-41 -4.9228e-41 0.051940333 -5.0812e-41 4.9138e-41 4.9132e-41 -5.1072e-41 -0.008566798
-0.015372809 -0.053704 5.3067e-41 -0.026320312 0.072681084 -5.5022e-41 4.9599e-41 -0.10483388
-4.9404e-41 -4.9254e-41 -0.017866772 5.0909e-41 -0.023014124 4.9477e-41 -0.02538665 4.9243e-41
-0.029447425 -5.5755e-41 -5.218e-41 -5.3653e-41 -5.1631e-41 -5.2113e-41 6.2578e-41 -5.2019e-41
-0.020271264 -4.9382e-41 -0.052640144 -4.9996e-41 -0.10091995 -0.041976623 6.2246e-41 -0.029061165
-0.026807467 -0.030873049 5.078e-41 -4.9051e-41 5.371e-41 0.062186614 -5.114e-41 -5.2389e-41
0.15777089 -5.0929e-41 -5.361e-41 0.14504926 -0.016304206 0.025956558 -5.2493e-41 5.0543e-41
0.15194677 4.9116e-41 -0.028645555 -0.025488626 0.15663545 -0.077834815 -0.07417733 -0.016249282
-5.2376e-41 -5.2603e-41 0.0671708 5.1485e-41 4.906e-41 -5.1436e-41 5.0908e-41 -0.0028967715
0.013196643 -0.054170348 5.0042e-41 -0.02466278 0.07440924 -5.5545e-41 -4.9473e-41 -0.08497461
-4.9117e-41 -4.9432e-41 0.013190446 4.9086e-41 0.005019887 -5.0311e-41 -0.01979389 5.1555e-41
-0.011341636 -5.1017e-41 -5.0685e-41 5.0845e-41 -4.9941e-41 -5.2159e-41 5.0081e-41 6.1035e-41
0.014643748 -6.2548e-41 -0.056012098 -5.2102e-41 -0.082046546 -0.045723043 -5.1268e-41 -0.0360029
-0.02728193 -0.026968947 5.1692e-41 -4.9295e-41 -5.007e-41 0.07610138 -4.9068e-41 -5.4953e-41
-0.0271962 4.9533e-41 -4.9261e-41 -0.028514624 0.087666206 0.014376096 -5.0623e-41 -4.9691e-41
-0.033696692 4.9403e-41 0.10185264 0.102352336 -0.034176286 0.03139092 0.00908405 -0.029945925
-5.1908e-41 -5.4443e-41 -0.02736001 -5.2647e-41 -5.1209e-41 -4.9633e-41 -5.1988e-41 -0.01188251
-0.0016963802 0.06049715 4.9256e-41 0.0940351 -0.049295884 5.3367e-41 5.0408e-41 0.012234757
-6.299e-41 4.9655e-41 -0.015712373 -5.031e-41 -0.005961944 5.6568e-41 0.09838628 5.4279e-41
-0.02333941 -5.0695e-41 5.185e-41 -5.8237e-41 4.958e-41 -5.0067e-41 -4.9055e-41 -5.2955e-41
0.0130111985 5.727e-41 0.0798443 -5.3787e-41 0.024804069 0.090843424 5.1579e-41 0.08787623
0.08741826 0.103657976 4.9215e-41 -4.9463e-41 -4.9662e-41 -0.030774621 5.0562e-41 5.1793e-41
-5.1799e-41 5.3615e-41 5.1611e-41 -6.2267e-41 -5.262e-41 -6.1558e-41 -5.366e-41 -5.3118e-41
-5.5854e-41 5.7567e-41 -5.3827e-41 -5.112e-41 -5.6726e-41 -6.0801e-41 -5.486e-41 -5.6674e-41
4.9135e-41 6.0351e-41 -6.0706e-41 -5.0231e-41 4.9166e-41 -5.7928e-41 -5.6705e-41 -5.726e-41
-5.1618e-41 -5.5028e-41 5.8574e-41 -5.8346e-41 -5.7742e-41 5.6865e-41 -5.86e-41 4.942e-41
5.7822e-41 6.2726e-41 5.875e-41 -4.9403e-41 -5.236e-41 5.4213e-41 5.0078e-41 4.9062e-41
-5.5011e-41 6.1638e-41 -4.9526e-41 -5.4956e-41 -5.447e-41 4.9757e-41 -5.5023e-41 -5.7925e-41
-4.9916e-41 -4.9512e-41 -5.3021e-41 5.6739e-41 -5.7621e-41 -5.193e-41 5.0071e-41 -4.9885e-41
-5.925e-41 -5.6234e-41 -6.172e-41 -6.2468e-41 6.0959e-41 5.411e-41 -6.0861e-41 5.6338e-41

common_layers.3.bias f4 [32]
00000000: 886c 0e3c 57b2 413c 7781 8b3b f588 0080
00000010: c5ad 2f3c 4444 beba 5ec9 3ebc ce75 863b
00000020: 1a1b 353c fd3c 3d3b eac8 818b 0d52 06a3
00000030: 6708 063c 2397 5e3b 9c8f 31bd 87a2 343b
00000040: 1c59 543b 8759 813c 7721 543c 6d11 313c
00000050: 962d e83a 598b bf3b dec8 93b9 c388 0080
00000060: 2e7e 1a3c 9924 723b 397e 463c aee5 1f3c
00000070: 3821 d5bb 0b30 6f3b aeea ccbc 20a2 0080
0.008692868 0.011822305 0.004257377 -4.9131e-41 0.010722582 -0.0014516194 -0.011644689 0.004103399
0.011053825 0.0028875463 -4.9991294e-32 -7.2815295e-18 0.008180714 0.0033964596 -0.043349847 0.0027562694
0.0032401746 0.01578976 0.012947432 0.010807377 0.0017713781 0.005845469 -0.00028187683 -4.9061e-41
0.009429498 0.0036948083 0.012115055 0.00975935 -0.006504204 0.0036497142 -0.025014248 -5.816e-41

common_layers.6.weight f4 [2, 32]
00000000: 19e7 c43e c37b c13e 67a8 a3be c88c 0080
00000010: de20 bf3e 30ab bf39 5e6f abba ee74 a7be
00000020: 3c6b ad3e 7796 a0be 1952 e808 c189 0000
00000030: 9044 c13e fbc8 99be 49ef 4d3c 2490 a5be
00000040: 2a22 9ebe add6 773e b748 b73e 1cd9 c23e
00000050: e6ff a0be 040c a0be 1a59 d337 b48c 0000
00000060: f564 c33e 4a65 a1be 70b0 b83e 7872 c73e
00000070: e167 003a aebb 9dbe 6cc4 c73c 588c 0080
00000080: 144b 9438 30a6 1ab9 07d0 5db6 f188 0000
00000090: ab77 11b9 cc86 b23a 8939 a1be de43 e339
000000a0: a672 f436 0740 4d38 cb7e a00a 40d4 8228
000000b0: f7f4 00b9 c3ee 0439 972f 6bbf dca2 3134
000000c0: 1a95 c5b9 46f1 48b9 59e1 2539 00c8 7cb8
000000d0: 8ddd 8838 fbe9 c5b8 c8a1 1439 8e89 0080
000000e0: f17a a739 6d9c f538 d796 df37 4d13 9539
000000f0: 6f53 4fbe 64cf 8f39 fc71 1ebf 2e89 0000
0.38457564 0.37789735 -0.31964418 -5.0503e-41 0.37329763 0.00036557904 -0.0013079455 -0.32706398
0.33870876 -0.31364796 1.3982293e-33 4.9417e-41 0.37747622 -0.30036148 0.012569257 -0.32336533
-0.3088544 0.24202986 0.35797665 0.38056266 -0.31445235 -0.31259167 2.5194651e-05 5.0475e-41
0.38162962 -0.3152259 0.3607211 0.3895452 0.00048982917 -0.3080725 0.024385653 -5.0346e-41
7.071174e-05 -0.00014748494 -3.3052654e-06 4.9125e-41 -0.00013872857 0.0013620495 -0.31489208 0.0004334738
7.2851135e-06 4.893544e-05 1.5455134e-32 1.4524948e-14 -0.00012298288 0.00012677447 -0.9186949 1.6543657e-07
-0.00037685857 -0.00019163368 0.00015819575 -6.0267746e-05 6.5262524e-05 -9.437274e-05 0.00014174648 -4.9345e-41
0.0003194432 0.00011711647 2.6653912e-05 0.00028433875 -0.20246671 0.00027429604 -0.61892676 4.9211e-41

common_layers.6.bias f4 [2]
00000000: f5c6 e6bc 49fc 7f3f
-0.028171042 0.9999433

exp_avg f4 [16, 1, 3]
00000000: b854 a438 a241 09ba 0b3b 753a 5a18 1cbb
00000010: 4707 d3b9 b4f9 85bb 174f 673a f3ce c23a
00000020: 93c4 293a ee9b 683b 60bc 2c3b 7643 a83a
00000030: 3571 7b3a 87e5 42ba faa2 353a 0000 0080
00000040: 0000 0080 0000 0080 0000 0080 0000 0000
00000050: 0000 0000 350b 5fbb d1ed 8bbb c130 403b
00000060: 0000 0080 0000 0080 0000 0080 0000 0000
00000070: 0000 0080 0000 0080 93f6 91bb 5df1 12bb
00000080: c96c d03b 0000 0000 0000 0000 0000 0080
00000090: 0000 0080 0000 0000 0000 0000 0000 0080
000000a0: 0000 0000 0000 0080 0000 0080 0000 0080
000000b0: 0000 0080 0000 0000 0000 0000 0000 0080
7.8359095e-05 -0.00052359153 0.00093548064 -0.0023818226 -0.00040250478 -0.004088605 0.0008823736 0.0014862701
0.000647613 0.0035493332 0.0026357397 0.0012837488 0.00095917593 -0.0007434715 0.00069288875 -0.0
-0.0 -0.0 -0.0 0.0 0.0 -0.003403378 -0.0042702933 0.0029325935
-0.0 -0.0 -0.0 0.0 -0.0 -0.0 -0.0044544428 -0.0022421696
0.0063606245 0.0 0.0 -0.0 -0.0 0.0 0.0 -0.0
0.0 -0.0 -0.0 -0.0 -0.0 0.0 0.0 -0.0

exp_avg_sq f4 [16, 1, 3]
00000000: 98db 4039 9625 d639 cd62 8039 e4f7 373b
00000010: a17d f43a afed 0f3b cc79 fc39 93eb 2a3a
00000020: a639 093a 5b00 383a 7254 5b3a 8f3e fe39
00000030: ed3b 233a ffc1 f139 f353 bf39 f401 0000
00000040: f401 0000 f401 0000 f401 0000 f401 0000
00000050: f401 0000 3923 823b f265 dd3a fd04 053b
00000060: f401 0000 f401 0000 f401 0000 f401 0000
00000070: f401 0000 f401 0000 ed48 853a 9bc5 1c3a
00000080: b21a 463a f401 0000 f401 0000 f401 0000
00000090: f401 0000 f401 0000 f401 0000 f401 0000
000000a0: f401 0000 f401 0000 f401 0000 f401 0000
000000b0: f401 0000 f401 0000 f401 0000 f401 0000
0.00018392352 0.00040845264 0.00024487675 0.0028071338 0.0018653163 0.0021961739 0.0004815593 0.00065200886
0.00052347255 0.0007019096 0.00083667703 0.00048493265 0.0006226886 0.0004611164 0.00036492906 7e-43
7e-43 7e-43 7e-43 7e-43 7e-43 0.003971484 0.0016891344 0.0020297163
7e-43 7e-43 7e-43 7e-43 7e-43 7e-43 0.0010168828 0.0005980373
0.00075570785 7e-43 7e-43 7e-43 7e-43 7e-43 7e-43 7e-43
7e-43 7e-43 7e-43 7e-43 7e-43 7e-43 7e-43 7e-43

exp_avg f4 [16]
00000000: e114 893b f94f 9d3b df6c 133b 2de0 e93b
00000010: c78d 943b 0000 0080 0000 0000 8ca4 f2bb
00000020: 0000 0080 0000 0000 f74c 76bb 0000 0080
00000030: 0000 0000 0000 0000 0000 0080 0000 0080
0.004183397 0.0048007932 0.0022495312 0.0071373195 0.0045335027 -0.0 0.0 -0.0074048694
-0.0 0.0 -0.0037582496 -0.0 0.0 0.0 -0.0 -0.0

exp_avg_sq f4 [16]
00000000: ead4 e839 8cfb 983b f900 8b3a 92f5 c63a
00000010: 6771 953a f401 0000 f401 0000 5541 933b
00000020: f401 0000 f401 0000 013f b43a f401 0000
00000030: f401 0000 f401 0000 f401 0000 f401 0000
0.00044409122 0.0046686586 0.0010605148 0.0015179387 0.0011401594 7e-43 7e-43 0.004493872
7e-43 7e-43 0.0013751687 7e-43 7e-43 7e-43 7e-43 7e-43

exp_avg f4 [32, 16, 3]
00000000: 0000 0080 0000 0080 0000 0080 0000 0080
00000010: 0000 0080 0000 0000 0000 0080 0000 0000
00000020: 0000 0000 0000 0080 0000 0000 0000 0080
00000030: 0000 0080 0000 0080 0000 0080 0000 0080
00000040: 0000 0080 0000 0000 0000 0080 0000 0080
00000050: 0000 0000 0000 0080 0000 0000 0000 0080
00000060: 0000 0000 0000 0080 0000 0000 0000 0080
00000070: 0000 0000 0000 0080 0000 0000 0000 0080
00000080: 0000 0000 0000 0000 0000 0000 0000 0000
00000090: 0000 0080 0000 0000 0000 0080 0000 0000
000000a0: 0000 0080 0000 0000 0000 0080 0000 0080
000000b0: 0000 0080 0000 0000 0000 0080 0000 0080
000000c0: 61b4 3fba 826c bab9 fd9d b6b9 24b6 72ba
000000d0: 2c09 b8b8 90fc 97b6 8e87 13af 7e9d c7b5
000000e0: 78fb 8cb4 5b1f 04ba 339e ffb9 4bc3 fcb9
000000f0: 720a 67ba eebf f3b9 0611 c9b9 0000 0000
00000100: 0000 0080 0000 0080 0000 0080 0000 0000
00000110: 0000 0080 d670 3cba 9721 5bba 34db 4aba
00000120: 0000 0000 0000 0000 0000 0080 0000 0000
00000130: 0000 0000 0000 0000 a7c2 49ba a2cd 09ba
00000140: 9b75 e5b9 0000 0080 0000 0000 0000 0000
00000150: 0000 0080 0000 0080 0000 0080 0000 0000
00000160: 0000 0080 0000 0000 0000 0000 0000 0000
00000170: 0000 0080 0000 0000 0000 0080 0000 0080
00000180: 0000 0080 0000 0080 0000 0080 0000 0080
00000190: 0000 0080 0000 0080 0000 0000 0000 0000
000001a0: 0000 0080 0000 0080 0000 0080 0000 0080
000001b0: 0000 0000 0000 0080 0000 0000 0000 0080
000001c0: 0000 0080 0000 0000 0000 0080 0000 0080
000001d0: 0000 0080 0000 0000 0000 0080 0000 0000
000001e0: 0000 0000 0000 0080 0000 0080 0000 0080
000001f0: 0000 0080 0000 0000 0000 0000 0000 0080
00000200: 0000 0000 0000 0000 0000 0000 0000 0080
00000210: 0000 0000 0000 0000 0000 0000 0000 0080
00000220: 0000 0000 0000 0000 0000 0000 0000 0000
00000230: 0000 0000 0000 0080 0000 0080 0000 0080
00000240: 0000 0080 0000 0080 0000 0080 0000 0080
00000250: 0000 0080 0000 0080 0000 0080 0000 0080
00000260: 0000 0080 0000 0080 0000 0080 0000 0000
00000270: 0000 0080 0000 0080 0000 0080 0000 0080
00000280: 0000 0080 0000 0000 0000 0000 0000 0000
00000290: 0000 0000 0000 0080 0000 0080 0000 0080
000002a0: 0000 0000 0000 0000 0000 0000 0000 0080
000002b0: 0000 0080 0000 0080 0000 0080 0000 0080
000002c0: 0000 0080 0000 0080 0000 0000 0000 0080
000002d0: 0000 0080 0000 0080 0000 0080 0000 0000
000002e0: 0000 0000 0000 0080 0000 0000 0000 0000
000002f0: 0000 0000 0000 0000 0000 0080 0000 0080
00000300: 0000 0080 96c8 df90 388d 7c85 db60 8da3
00000310: c81c 8ea6 d61f a1a5 0000 0000 0000 0080
00000320: 0000 0080 c510 a4ac f966 86ad 8bcc 03ad
00000330: 95c3 bcaa 4a05 ecab 5144 79ab 0000 0000
00000340: 0000 0000 0000 0080 0000 0080 0000 0080
00000350: 0000 0080 f9fb b49a 5299 9998 d9eb b491
00000360: 0000 0080 0000 0000 0000 0000 0000 0080
00000370: 0000 0000 0000 0000 ed4d f994 d30d 2094
00000380: edaa 650a 0000 0000 0000 0080 0000 0080
00000390: 0000 0080 0000 0000 0000 0080 0000 0080
000003a0: 0000 0000 0000 0000 0000 0000 0000 0000
000003b0: 0000 0000 0000 0080 0000 0080 0000 0000
000003c0: 0831 01bb 5403 dbba f38d 01ba 4eb7 4dbb
000003d0: 2436 42bb d202 6f39 cb25 91b9 dcda c7b7
000003e0: e454 99b9 8806 6abb eeac ebba b1cc 24bb
000003f0: b5c6 3ebb 3d6e 35bb 06c1 deba 0000 0080
-0.0 -0.0 -0.0 -0.0 -0.0 0.0 -0.0 0.0
0.0 -0.0 0.0 -0.0 -0.0 -0.0 -0.0 -0.0
-0.0 0.0 -0.0 -0.0 0.0 -0.0 0.0 -0.0
0.0 -0.0 0.0 -0.0 0.0 -0.0 0.0 -0.0
0.0 0.0 0.0 0.0 -0.0 0.0 -0.0 0.0
-0.0 0.0 -0.0 -0.0 -0.0 0.0 -0.0 -0.0
-0.00073129503 -0.0003555753 -0.00034831456 -0.00092587085 -8.775512e-05 -4.529553e-06 -1.3417731e-10 -1.4872492e-06
-2.626e-07 -0.0005040073 -0.00048755258 -0.0004821069 -0.0008813507 -0.0004649157 -0.0003835039 0.0
-0.0 -0.0 -0.0 0.0 -0.0 -0.0007188445 -0.0008359192 -0.0007738352
0.0 0.0 -0.0 0.0 0.0 0.0 -0.0007696547 -0.0005256777
-0.00043765907 -0.0 0.0 0.0 -0.0 -0.0 -0.0 0.0
-0.0 0.0 0.0 0.0 -0.0 0.0 -0.0 -0.0
-0.0 -0.0 -0.0 -0.0 -0.0 -0.0 0.0 0.0
-0.0 -0.0 -0.0 -0.0 0.0 -0.0 0.0 -0.0
-0.0 0.0 -0.0 -0.0 -0.0 0.0 -0.0 0.0
0.0 -0.0 -0.0 -0.0 -0.0 0.0 0.0 -0.0
0.0 0.0 0.0 -0.0 0.0 0.0 0.0 -0.0
0.0 0.0 0.0 0.0 0.0 -0.0 -0.0 -0.0
-0.0 -0.0 -0.0 -0.0 -0.0 -0.0 -0.0 -0.0
-0.0 -0.0 -0.0 0.0 -0.0 -0.0 -0.0 -0.0
-0.0 0.0 0.0 0.0 0.0 -0.0 -0.0 -0.0
0.0 0.0 0.0 -0.0 -0.0 -0.0 -0.0 -0.0
-0.0 -0.0 0.0 -0.0 -0.0 -0.0 -0.0 0.0
0.0 -0.0 0.0 0.0 0.0 0.0 -0.0 -0.0
-0.0 -8.826704e-29 -1.1874921e-35 -1.532827e-17 -9.86103e-16 -2.795062e-16 0.0 -0.0
-0.0 -4.663022e-12 -1.5279765e-11 -7.4919055e-12 -3.353122e-13 -1.6770277e-12 -8.855738e-13 0.0
0.0 -0.0 -0.0 -0.0 -0.0 -7.485334e-23 -3.9704387e-24 -2.8544345e-28
-0.0 0.0 0.0 -0.0 0.0 0.0 -2.5173311e-26 -8.080662e-27
1.10580965e-32 0.0 -0.0 -0.0 -0.0 0.0 -0.0 -0.0
0.0 0.0 0.0 0.0 0.0 -0.0 -0.0 0.0
-0.0019713063 -0.0016709366 -0.00049421116 -0.0031389776 -0.002963432 0.00022793867 -0.00027684713 -2.3824563e-05
-0.00029245683 -0.003570946 -0.0017980614 -0.002514642 -0.0029110138 -0.0027684115 -0.0016994781 -0.0

exp_avg_sq f4 [32, 16, 3]
00000000: f401 0000 f401 0000 f401 0000 f401 0000
00000010: f401 0000 f401 0000 f401 0000 f401 0000
00000020: f401 0000 f401 0000 f401 0000 f401 0000
00000030: f401 0000 f401 0000 f401 0000 f401 0000
00000040: f401 0000 f401 0000 f401 0000 f401 0000
00000050: f401 0000 f401 0000 f401 0000 f401 0000
00000060: f401 0000 f401 0000 f401 0000 f401 0000
00000070: f401 0000 f401 0000 f401 0000 f401 0000
00000080: f401 0000 f401 0000 f401 0000 f401 0000
00000090: f401 0000 f401 0000 f401 0000 f401 0000
000000a0: f401 0000 f401 0000 f401 0000 f401 0000
000000b0: f401 0000 f401 0000 f401 0000 f401 0000
000000c0: bc6d 1637 cb79 1037 b59d ad36 06f7 3836
000000d0: 05a5 a434 e504 d331 4af2 b727 6431 1231
000000e0: 2fca 6133 6dd1 0e37 2fe2 2237 13aa 4237
000000f0: 1b10 4437 eeec 0d37 f38e c336 f401 0000
00000100: f401 0000 f401 0000 f401 0000 f401 0000
00000110: f401 0000 b242 fd37 5760 4438 9f9e 2738
00000120: f401 0000 f401 0000 f401 0000 f401 0000
00000130: f401 0000 f401 0000 54a4 8e37 7c03 9537
00000140: 2408 4737 f401 0000 f401 0000 f401 0000
00000150: f401 0000 f401 0000 f401 0000 f401 0000
00000160: f401 0000 f401 0000 f401 0000 f401 0000
00000170: f401 0000 f401 0000 f401 0000 f401 0000
00000180: f401 0000 f401 0000 f401 0000 f401 0000
00000190: f401 0000 f401 0000 f401 0000 f401 0000
000001a0: f401 0000 f401 0000 f401 0000 f401 0000
000001b0: f401 0000 f401 0000 f401 0000 f401 0000
000001c0: f401 0000 f401 0000 f401 0000 f401 0000
000001d0: f401 0000 f401 0000 f401 0000 f401 0000
000001e0: f401 0000 f401 0000 f401 0000 f401 0000
000001f0: f401 0000 f401 0000 f401 0000 f401 0000
00000200: f401 0000 f401 0000 f401 0000 f401 0000
00000210: f401 0000 f401 0000 f401 0000 f401 0000
00000220: f401 0000 f401 0000 f401 0000 f401 0000
00000230: f401 0000 f401 0000 f401 0000 f401 0000
00000240: f401 0000 f401 0000 f401 0000 f401 0000
00000250: f401 0000 f401 0000 f401 0000 f401 0000
00000260: f401 0000 f401 0000 f401 0000 f401 0000
00000270: f401 0000 f401 0000 f401 0000 f401 0000
00000280: f401 0000 f401 0000 f401 0000 f401 0000
00000290: f401 0000 f401 0000 f401 0000 f401 0000
000002a0: f401 0000 f401 0000 f401 0000 f401 0000
000002b0: f401 0000 f401 0000 f401 0000 f401 0000
000002c0: f401 0000 f401 0000 f401 0000 f401 0000
000002d0: f401 0000 f401 0000 f401 0000 f401 0000
000002e0: f401 0000 f401 0000 f401 0000 f401 0000
000002f0: f401 0000 f401 0000 f401 0000 f401 0000
00000300: 16e4 7d28 2c7e 6029 20b1 1b29 22bd 3a2a
00000310: 8f61 852a 37af 6b2a 129b 0128 eb83 3528
00000320: 3757 2228 ecd4 492b 4733 802b cea8 5e2b
00000330: 4576 022b 44d9 272b c4ef 162b f401 0000
00000340: f401 0000 f401 0000 f401 0000 f401 0000
00000350: f401 0000 1d5d ba29 37db a429 df52 7c29
00000360: f401 0000 f401 0000 f401 0000 f401 0000
00000370: f401 0000 f401 0000 53eb 8929 866a 8029
00000380: 5582 3729 f401 0000 f401 0000 f401 0000
00000390: f401 0000 f401 0000 f401 0000 f401 0000
000003a0: f401 0000 f401 0000 f401 0000 f401 0000
000003b0: f401 0000 f401 0000 f401 0000 f401 0000
000003c0: 1787 e437 5a6a fb37 a13f 8638 14a6 9238
000003d0: 8632 a538 eac5 0c38 f5d8 2e36 96e3 0235
000003e0: 4633 2135 008b 3339 1c7c e438 e822 e238
000003f0: 8951 ef38 0258 ee38 040b a638 f401 0000
7e-43 7e-43 7e-43 7e-43 7e-43 7e-43 7e-43 7e-43
7e-43 7e-43 7e-43 7e-43 7e-43 7e-43 7e-43 7e-43
7e-43 7e-43 7e-43 7e-43 7e-43 7e-43 7e-43 7e-43
7e-43 7e-43 7e-43 7e-43 7e-43 7e-43 7e-43 7e-43
7e-43 7e-43 7e-43 7e-43 7e-43 7e-43 7e-43 7e-43
7e-43 7e-43 7e-43 7e-43 7e-43 7e-43 7e-43 7e-43
8.966246e-06 8.611426e-06 5.1741613e-06 2.7561923e-06 3.0667448e-07 6.1414647e-09 5.1055394e-15 2.1273872e-09
5.257078e-08 8.51262e-06 9.708615e-06 1.16029e-05 1.168626e-05 8.459419e-06 5.8280943e-06 7e-43
7e-43 7e-43 7e-43 7e-43 7e-43 3.0191008e-05 4.6819765e-05 3.996363e-05
7e-43 7e-43 7e-43 7e-43 7e-43 7e-43 1.700424e-05 1.7763807e-05
1.186322e-05 7e-43 7e-43 7e-43 7e-43 7e-43 7e-43 7e-43
7e-43 7e-43 7e-43 7e-43 7e-43 7e-43 7e-43 7e-43
7e-43 7e-43 7e-43 7e-43 7e-43 7e-43 7e-43 7e-43
7e-43 7e-43 7e-43 7e-43 7e-43 7e-43 7e-43 7e-43
7e-43 7e-43 7e-43 7e-43 7e-43 7e-43 7e-43 7e-43
7e-43 7e-43 7e-43 7e-43 7e-43 7e-43 7e-43 7e-43
7e-43 7e-43 7e-43 7e-43 7e-43 7e-43 7e-43 7e-43
7e-43 7e-43 7e-43 7e-43 7e-43 7e-43 7e-43 7e-43
7e-43 7e-43 7e-43 7e-43 7e-43 7e-43 7e-43 7e-43
7e-43 7e-43 7e-43 7e-43 7e-43 7e-43 7e-43 7e-43
7e-43 7e-43 7e-43 7e-43 7e-43 7e-43 7e-43 7e-43
7e-43 7e-43 7e-43 7e-43 7e-43 7e-43 7e-43 7e-43
7e-43 7e-43 7e-43 7e-43 7e-43 7e-43 7e-43 7e-43
7e-43 7e-43 7e-43 7e-43 7e-43 7e-43 7e-43 7e-43
1.40937795e-14 4.9847428e-14 3.4570545e-14 1.6585737e-13 2.369324e-13 2.0932983e-13 7.194564e-15 1.00761235e-14
9.011718e-15 7.1705033e-13 9.109179e-13 7.9104507e-13 4.634941e-13 5.9631835e-13 5.3623447e-13 7e-43
7e-43 7e-43 7e-43 7e-43 7e-43 8.276212e-14 7.321091e-14 5.602712e-14
7e-43 7e-43 7e-43 7e-43 7e-43 7e-43 6.1248444e-14 5.702821e-14
4.0747208e-14 7e-43 7e-43 7e-43 7e-43 7e-43 7e-43 7e-43
7e-43 7e-43 7e-43 7e-43 7e-43 7e-43 7e-43 7e-43
2.7242624e-05 2.9971055e-05 6.40147e-05 6.992757e-05 7.877224e-05 3.3562923e-05 2.6054306e-06 4.8759955e-07
6.0051786e-07 0.00017122552 0.000108950044 0.000107830216 0.00011411595 0.00011365117 7.917549e-05 7e-43

exp_avg f4 [32]
00000000: 0000 0080 2004 4ebb 0000 0080 0000 0080
00000010: bf1b 91b1 fc00 07bc 0000 0080 4359 8ca6
00000020: 0000 0080 aa1d bbb3 7ad1 d8b3 0000 0080
00000030: 0000 0080 6455 9caf cd07 0080 0000 0080
00000040: 0000 0080 cd57 bcad c226 f6bb 7417 8bbb
00000050: 0000 0080 af5c ceb2 14e3 b896 0000 0080
00000060: e8db 4fbc 0000 0080 0000 0080 0000 0080
00000070: d254 00b0 6cf7 68bb 547a 0ab4 0000 0080
-0.0 -0.0031435564 -0.0 -0.0 -4.22321e-09 -0.008239981 -0.0 -9.738646e-16
-0.0 -8.713262e-08 -1.00963874e-07 -0.0 -0.0 -2.8436908e-10 -2.798e-42 -0.0
-0.0 -2.1412117e-11 -0.0075119445 -0.004244739 -0.0 -2.4023704e-08 -2.987011e-25 -0.0
-0.012686707 -0.0 -0.0 -0.0 -4.6686666e-10 -0.0035547866 -1.2896754e-07 -0.0

exp_avg_sq f4 [32]
00000000: f401 0000 469b 193a f401 0000 f401 0000
00000010: 1c1a cb2c 1284 a13a f401 0000 d785 d12a
00000020: f401 0000 0771 d82e fe33 5c30 f401 0000
00000030: f401 0000 00d0 152b e62f af28 f401 0000
00000040: f401 0000 2814 022c 9fec a03a 1fce 673b
00000050: f401 0000 cc66 6e33 5875 ec29 f401 0000
00000060: b9af 3d3b f401 0000 f401 0000 f401 0000
00000070: 5f79 8a2c b08b 493a bf0f 4033 f401 0000
7e-43 0.00058596244 7e-43 7e-43 5.7725057e-12 0.0012322685 7e-43 3.7218728e-13
7e-43 9.8426205e-11 8.010942e-10 7e-43 7e-43 5.322409e-13 1.9449676e-14 7e-43
7e-43 1.84853e-12 0.001227755 0.003537066 7e-43 5.5507186e-08 1.0500861e-13 7e-43
0.002894385 7e-43 7e-43 7e-43 3.935671e-12 0.00076883566 4.4717805e-08 7e-43

exp_avg f4 [64, 288]
00000000: 0000 0080 0000 0080 0000 0080 0000 0080
00000010: 0000 0000 0000 0000 0000 0000 0000 0080
00000020: 0000 0080 0000 0000 0000 0000 0000 0000
00000030: 0000 0000 0161 27b4 07b6 e135 6716 4b35
00000040: f129 7eb4 2f2e a9b2 0000 0000 0000 0080
00000050: 0000 0080 0000 0080 0000 0080 0000 0080
00000060: 0000 0080 0000 0080 0000 0000 0000 0080
00000070: 0000 0080 0000 0080 0000 0080 0000 0000
00000080: 0000 0080 0000 0080 0000 0080 0000 0080
00000090: d802 0000 0f62 cb8b d178 8a08 298a 8b84
000000a0: 93ec 7b00 a2a7 af00 49df ef81 b217 0e09
000000b0: 1500 0000 0000 0080 6921 00b4 607c 7fb9
000000c0: 6627 e0b8 0c66 6a38 ca44 2634 0000 0080
000000d0: f5bf b335 11ee a4b8 0000 0080 0000 0080
000000e0: 0000 0080 0000 0080 0000 0080 0000 0000
000000f0: 0000 0080 0000 0000 0000 0000 0000 0000
00000100: 0000 0080 0000 0080 0000 0000 0000 0000
00000110: 0000 0080 0000 0000 0000 0000 0000 0080
00000120: 0000 0080 0000 0080 0000 0080 0000 0000
00000130: 0000 0000 0000 0000 0000 0080 0000 0080
00000140: 0000 0080 0000 0080 0000 0000 0000 0000
00000150: 0000 0000 0000 0080 0000 0080 0000 0080
00000160: 0000 0080 0000 0000 36e8 29a2 9bb3 90a7
00000170: fc2b 8fa7 896b 75a6 6bdc 9fa4 a46b cba3
00000180: c255 61a4 330c 44a6 74da 4ca1 0000 0080
00000190: 0000 0080 0000 0080 0000 0080 0000 0080
000001a0: 0000 0080 0000 0000 0000 0080 0000 0000
000001b0: 0000 0080 0000 0080 0000 0080 0000 0000
000001c0: 0000 0000 0000 0000 0000 0000 0000 0080
000001d0: 0000 0080 d12d 1d92 2a49 6c12 7ad3 5112
000001e0: 0c59 4612 0846 9212 cd34 1f92 e665 c711
000001f0: d0f0 5112 bc7f 2092 5300 0080 dd00 0080
00000200: e400 0080 be00 0080 8900 0080 5e00 0080
00000210: 6f00 0080 9d00 0080 4100 0080 0000 0000
00000220: 0000 0080 0000 0000 0000 0000 0000 0000
00000230: 0000 0080 0000 0000 0000 0080 0000 0000
00000240: 0000 0000 0000 0080 0000 0080 0000 0000
00000250: 0000 0080 0000 0080 0000 0080 0000 0000
00000260: 0000 0080 0000 0080 0000 0000 0000 0080
00000270: 0000 0000 0000 0000 0000 0000 0000 0080
00000280: 0000 0080 0000 0080 4389 ba38 c075 0039
00000290: ba0c 9f37 1d5a a4b9 67e1 a2b9 e354 8aba
000002a0: dfb9 baba 724a de38 19ce cfb8 83c5 b2b9
000002b0: 16e8 3eba 6d21 5d38 77b7 a338 51b0 c2b6
000002c0: 72e8 cfb3 a6ec 9338 60b8 0439 f58a 58b7
000002d0: 0000 0000 0000 0000 0000 0080 0000 0000
000002e0: 0000 0000 0000 0000 0000 0080 0000 0080
000002f0: 0000 0080 0e90 db2f 2322 0631 734d eb30
00000300: 606c bf30 5eeb 8530 0de4 6430 4405 7f30
00000310: c9ef d130 5ad6 c12f 0000 0000 0000 0080
00000320: 0000 0000 0000 0000 0000 0080 0000 0000
00000330: 0000 0080 0000 0080 0000 0000 0000 0080
00000340: 0000 0080 0000 0000 0000 0000 0000 0000
00000350: 0000 0000 0000 0080 0000 0000 0000 0080
00000360: 1ced 35b7 9a74 39b7 ae9a 19b7 de65 4c38
00000370: 9e06 6bb8 1e60 93ba e3d3 80ba a804 7838
00000380: 87d9 6ab5 0000 0000 0000 0000 0000 0000
00000390: 0000 0000 0000 0000 0000 0000 0000 0000
000003a0: 0000 0000 0000 0000 0000 0080 0000 0080
000003b0: 0000 0080 0000 0080 0000 0080 0000 0000
000003c0: 0000 0080 0000 0000 0000 0000 0000 0000
000003d0: 0000 0080 0000 0080 0000 0080 0000 0080
000003e0: 0000 0080 0000 0000 0000 0080 0000 0080
000003f0: 0000 0000 0000 0000 0000 0000 0000 0000
-0.0 -0.0 -0.0 -0.0 0.0 0.0 0.0 -0.0
-0.0 0.0 0.0 0.0 0.0 -1.5588377e-07 1.6816783e-06 7.565599e-07
-2.3670852e-07 -1.9695191e-08 0.0 -0.0 -0.0 -0.0 -0.0 -0.0
-0.0 -0.0 0.0 -0.0 -0.0 -0.0 -0.0 0.0
-0.0 -0.0 -0.0 -0.0 1.02e-42 -7.83403e-32 8.333977e-34 -3.2805623e-36
1.1380633e-38 1.6131347e-38 -8.8115133e-38 1.710377e-33 3e-44 -0.0 -1.1933083e-07 -0.00024365028
-0.00010688491 5.5884986e-05 1.548498e-07 -0.0 1.3392406e-06 -7.864473e-05 -0.0 -0.0
-0.0 -0.0 -0.0 0.0 -0.0 0.0 0.0 0.0
-0.0 -0.0 0.0 0.0 -0.0 0.0 0.0 -0.0
-0.0 -0.0 -0.0 0.0 0.0 0.0 -0.0 -0.0
-0.0 -0.0 0.0 0.0 0.0 -0.0 -0.0 -0.0
-0.0 0.0 -2.3026702e-18 -4.0162758e-15 -3.973816e-15 -8.514719e-16 -6.932866e-17 -2.2054892e-17
-4.8861737e-17 -6.8017693e-16 -6.940701e-19 -0.0 -0.0 -0.0 -0.0 -0.0
-0.0 0.0 -0.0 0.0 -0.0 -0.0 -0.0 0.0
0.0 0.0 0.0 -0.0 -0.0 -4.959694e-28 7.455865e-28 6.6209437e-28
6.2587542e-28 9.231159e-28 -5.0236636e-28 3.1459464e-28 6.6245596e-28 -5.0644543e-28 -1.16e-43 -3.1e-43
-3.2e-43 -2.66e-43 -1.92e-43 -1.32e-43 -1.56e-43 -2.2e-43 -9.1e-44 0.0
-0.0 0.0 0.0 0.0 -0.0 0.0 -0.0 0.0
0.0 -0.0 -0.0 0.0 -0.0 -0.0 -0.0 0.0
-0.0 -0.0 0.0 -0.0 0.0 0.0 0.0 -0.0
-0.0 -0.0 8.894738e-05 0.00012250897 1.8960203e-05 -0.00031347657 -0.00031066986 -0.0010553863
-0.0014246068 0.000105996514 -9.908918e-05 -0.00034097963 -0.00072825083 5.2721636e-05 7.806619e-05 -5.8021765e-06
-9.68147e-08 7.0535854e-05 0.00012657186 -1.2906957e-05 0.0 0.0 -0.0 0.0
0.0 0.0 -0.0 -0.0 -0.0 3.9938225e-10 1.951897e-09 1.7120513e-09
1.3927881e-09 9.743919e-10 8.3269996e-10 9.277594e-10 1.5274902e-09 3.5258801e-10 0.0 -0.0
0.0 0.0 -0.0 0.0 -0.0 -0.0 0.0 -0.0
-0.0 0.0 0.0 0.0 0.0 -0.0 0.0 -0.0
-1.0843647e-05 -1.1054008e-05 -9.155525e-06 4.873226e-05 -5.603453e-05 -0.0011243855 -0.0009828772 5.9132144e-05
-8.7488337e-07 0.0 0.0 0.0 0.0 0.0 0.0 0.0
0.0 0.0 -0.0 -0.0 -0.0 -0.0 -0.0 0.0
-0.0 0.0 0.0 0.0 -0.0 -0.0 -0.0 -0.0
-0.0 0.0 -0.0 -0.0 0.0 0.0 0.0 0.0
