model_checkpoint.pth (torch, 280234 bytes, 30 tensors)

raycast_branch.0.weight f4 [16, 1, 3]
4.9104e-41 4.9207e-41 -4.9307e-41 4.9348e-41 4.924e-41 4.9389e-41 -4.9184e-41 4.9481e-41
4.935e-41 -4.9408e-41 4.9599e-41 4.9162e-41 4.942e-41 -4.9188e-41 4.9242e-41 -4.9212e-41
-4.9073e-41 -5.2563e-41 4.967e-41 4.9195e-41 -4.9497e-41 4.9446e-41 -4.9373e-41 4.9104e-41
5.1816e-41 5.2673e-41 -5.5917e-41 4.9656e-41 4.9341e-41 4.969e-41 4.9459e-41 -4.9331e-41
4.9484e-41 -6.244e-41 -4.94e-41 -4.9169e-41 -4.9201e-41 4.9256e-41 -4.9491e-41 4.9958e-41
4.9396e-41 4.9983e-41 4.9485e-41 4.9278e-41 4.9265e-41 -4.9818e-41 4.9401e-41 -4.9134e-41
00000000: e288 0000 2b89 0000 7389 0080 9089 0000
00000010: 4389 0000 ad89 0000 1b89 0080 ef89 0000
00000020: 9189 0000 bb89 0080 438a 0000 0b89 0000
00000030: c389 0000 1e89 0080 4489 0000 2f89 0080
00000040: cc88 0080 8692 0080 768a 0000 2389 0000
00000050: fa89 0080 d689 0000 a289 0080 e288 0000
00000060: 7190 0000 d592 0000 e09b 0080 6c8a 0000
00000070: 8b89 0000 848a 0000 df89 0000 8489 0080
00000080: f189 0000 0fae 0080 b589 0080 1089 0080
00000090: 2789 0080 4e89 0000 f689 0080 438b 0000
000000a0: b289 0000 558b 0000 f289 0000 5e89 0000
000000b0: 5589 0000 df8a 0080 b689 0000 f788 0080

raycast_branch.0.bias f4 [16]
4.9376e-41 -4.9141e-41 -4.9505e-41 4.9427e-41 -4.9434e-41 -4.9428e-41 4.9083e-41 4.9492e-41
-5.0314e-41 4.9127e-41 4.9326e-41 4.9867e-41 -4.9124e-41 4.9474e-41 4.9534e-41 -4.9299e-41
00000000: a489 0000 fc88 0080 008a 0080 c889 0000
00000010: cd89 0080 c989 0080 d388 0000 f789 0000
00000020: 418c 0080 f288 0000 8089 0000 028b 0000
00000030: f088 0080 ea89 0000 158a 0000 6d89 0080

raycast_branch.3.weight f4 [32, 16, 3]
4.9169e-41 4.9329e-41 4.9187e-41 5.7327e-41 4.9225e-41 4.9396e-41 -4.9246e-41 -4.9222e-41
-4.9816e-41 -4.9445e-41 -4.9534e-41 4.996e-41 4.9089e-41 4.9372e-41 4.9257e-41 4.9093e-41
4.915e-41 4.9343e-41 5.415e-41 4.9902e-41 4.9784e-41 4.9483e-41 4.9331e-41 4.944e-41
5.0304e-41 -5.5388e-41 5.4831e-41 -5.294e-41 5.0796e-41 -5.2526e-41 4.9361e-41 4.9487e-41
4.949e-41 5.1188e-41 5.2284e-41 5.015e-41 4.922e-41 4.9435e-41 4.916e-41 4.9504e-41
-4.9082e-41 4.9918e-41 4.9186e-41 4.9172e-41 4.9417e-41 -4.9156e-41 4.9378e-41 5.0485e-41
4.9214e-41 4.9324e-41 4.9194e-41 -4.9079e-41 -4.9263e-41 -4.9424e-41 -4.937e-41 5.6387e-41
5.013e-41 4.9243e-41 4.9425e-41 -5.0197e-41 4.9478e-41 4.9188e-41 4.9298e-41 4.9455e-41
4.9516e-41 4.9299e-41 5.0175e-41 5.2078e-41 -4.9673e-41 4.9298e-41 4.9354e-41 4.9229e-41
4.9464e-41 -4.974e-41 -5.4596e-41 5.5842e-41 4.9132e-41 5.0234e-41 4.9341e-41 4.9417e-41
4.9094e-41 5.8787e-41 5.0964e-41 5.0099e-41 4.9331e-41 4.9436e-41 4.948e-41 4.9462e-41
-5.0521e-41 -4.9316e-41 4.952e-41 4.9118e-41 4.9232e-41 4.9612e-41 4.9069e-41 -5.1265e-41
-4.9236e-41 -4.9379e-41 -4.9166e-41 4.9473e-41 4.9527e-41 -4.9369e-41 4.9146e-41 4.9862e-41
5.1568e-41 4.9415e-41 5.0766e-41 -5.0755e-41 -4.923e-41 4.9123e-41 4.9439e-41 4.9289e-41
-4.9466e-41 -4.9478e-41 4.9089e-41 -4.94e-41 -4.9558e-41 -4.9092e-41 4.9186e-41 4.9278e-41
4.9062e-41 5.3396e-41 -1.4497e-40 4.9092e-41 -6.1956e-41 2.83858e-40 4.9394e-41 4.906e-41
-4.9303e-41 5.9613e-41 5.1226e-41 5.6451e-41 4.9218e-41 4.9383e-41 -4.9117e-41 -4.9099e-41
-5.0912e-41 4.911e-41 -5.3796e-41 -4.9183e-41 4.9483e-41 4.9361e-41 -5.1258e-41 -5.9711e-41
5.4278e-41 4.9072e-41 4.936e-41 -4.9107e-41 4.9247e-41 -4.9518e-41 4.9183e-41 5.5634e-41
1.55771e-40 -4.9286e-41 -5.11e-41 -4.9865e-41 4.9411e-41 -4.9205e-41 4.9378e-41 4.9254e-41
4.9361e-41 4.9271e-41 4.9501e-41 5.9006e-41 5.592e-41 -4.9055e-41 4.9292e-41 -4.9299e-41
-5.5898e-41 5.0974e-41 5.117e-41 -5.4209e-41 -5.59059e-40 -5.27e-41 4.9445e-41 -4.9379e-41
4.9385e-41 -6.2935e-41 -6.2185e-41 -5.0221e-41 4.9176e-41 4.9466e-41 4.9111e-41 5.5103e-41
-5.0756e-41 6.2421e-41 4.9417e-41 -4.9111e-41 4.946e-41 -5.6371e-41 1.44222e-40 5.1481e-41
-4.9215e-41 6.0685e-41 -4.9078e-41 4.9281e-41 -5.2047e-41 -4.9428e-41 4.9073e-41 -4.9073e-41
4.9861e-41 4.9125e-41 4.9471e-41 5.0064e-41 4.9434e-41 -4.9202e-41 -4.9453e-41 -4.9229e-41
-4.944e-41 -4.9368e-41 -4.9509e-41 5.3576e-41 4.9106e-41 -4.9097e-41 -4.949e-41 -4.934e-41
-5.5989e-41 5.6685e-41 1.25376e-40 -5.0974e-41 -5.4276e-41 -4.919e-41 -4.9106e-41 -4.9285e-41
-4.9069e-41 6.0362e-41 1.4066e-41 6.058e-41 -4.9443e-41 -4.9215e-41 -4.9418e-41 -4.96e-41
5.4798e-41 -2.64644e-40 4.9378e-41 4.9233e-41 4.9094e-41 4.9949e-41 -4.9563e-41 -5.6408e-41
-4.9348e-41 -4.929e-41 4.9448e-41 -4.9755e-41 -4.9047e-41 4.9946e-41 4.9264e-41 -5.4201e-41
-5.1904e-41 -4.9323e-41 5.6231e-41 4.9778e-41 5.0063e-41 4.9099e-41 -4.9452e-41 4.9316e-41
00000000: 1089 0000 8289 0000 1d89 0000 ce9f 0000
00000010: 3889 0000 b289 0000 4789 0080 3689 0080
00000020: de8a 0080 d589 0080 158a 0080 458b 0000
00000030: d788 0000 a189 0000 4f89 0000 da88 0000
00000040: 0389 0000 8c89 0000 f396 0000 1b8b 0000
00000050: c78a 0000 f089 0000 8489 0000 d289 0000
00000060: 3a8c 0000 669a 0080 d998 0000 9393 0080
00000070: 998d 0000 6c92 0080 9989 0000 f389 0000
00000080: f589 0000 b18e 0000 bf91 0000 cc8b 0000
00000090: 3589 0000 ce89 0000 0a89 0000 ff89 0000
000000a0: d288 0080 278b 0000 1c89 0000 1289 0000
000000b0: c189 0000 0789 0080 a589 0000 bb8c 0000
000000c0: 3089 0000 7f89 0000 2289 0000 d088 0080
000000d0: 5389 0080 c689 0080 a089 0080 2f9d 0000
000000e0: be8b 0000 4589 0000 c789 0000 ee8b 0080
000000f0: ed89 0000 1e89 0000 6c89 0000 dc89 0000
00000100: 088a 0000 6d89 0000 de8b 0000 2c91 0000
00000110: 788a 0080 6c89 0000 9489 0000 3b89 0000
00000120: e389 0000 a88a 0080 3198 0080 aa9b 0000
00000130: f688 0000 088c 0000 8b89 0000 c189 0000
00000140: db88 0000 e0a3 0000 118e 0000 a88b 0000
00000150: 8489 0000 cf89 0000 ee89 0000 e189 0000
00000160: d58c 0080 7989 0080 0b8a 0000 ec88 0000
00000170: 3d89 0000 4c8a 0000 c988 0000 e88e 0080
00000180: 4089 0080 a689 0080 0e89 0080 e989 0000
00000190: 108a 0000 9f89 0080 0089 0000 ff8a 0000
000001a0: c08f 0000 c089 0000 848d 0000 7c8d 0080
000001b0: 3c89 0080 ef88 0000 d189 0000 6689 0000
000001c0: e489 0080 ed89 0080 d788 0000 b589 0080
000001d0: 268a 0080 d988 0080 1c89 0000 5e89 0000
000001e0: c488 0000 d994 0000 1e94 0180 d988 0000
000001f0: b5ac 0080 4817 0300 b189 0000 c288 0000
00000200: 7089 0080 2da6 0000 cc8e 0000 5d9d 0000
00000210: 3389 0000 a989 0000 eb88 0080 de88 0080
00000220: ec8d 0080 e688 0000 f695 0080 1a89 0080
00000230: f089 0000 9989 0000 e38e 0080 73a6 0080
00000240: 4e97 0000 cb88 0000 9889 0000 e488 0080
00000250: 4889 0000 098a 0080 1a89 0000 169b 0000
00000260: 3ab2 0100 6489 0080 728e 0080 018b 0080
00000270: bd89 0000 2a89 0080 a589 0000 4d89 0000
00000280: 9989 0000 5989 0000 fd89 0000 7ca4 0000
00000290: e29b 0000 bf88 0080 6889 0000 6d89 0080
000002a0: d29b 0080 188e 0000 a48e 0000 1d97 0080
000002b0: 6e16 0680 e892 0080 d589 0000 a689 0080
000002c0: aa89 0000 70af 0080 59ad 0080 ff8b 0080
000002d0: 1589 0000 e489 0000 e788 0000 9b99 0000
000002e0: 7d8d 0080 01ae 0000 c189 0000 e788 0080
000002f0: e089 0000 249d 0080 0892 0100 828f 0000
00000300: 3189 0080 2aa9 0000 cf88 0080 6089 0000
00000310: 1691 0080 c989 0080 cc88 0000 cc88 0080
00000320: fe8a 0000 f188 0000 e889 0000 8f8b 0000
00000330: cd89 0000 2889 0080 db89 0080 3b89 0080
00000340: d289 0080 9e89 0080 038a 0080 5995 0000
00000350: e388 0000 dd88 0080 f589 0080 8a89 0080
00000360: 139c 0080 049e 0000 7f5d 0100 188e 0080
00000370: 4d97 0080 1f89 0080 e388 0080 6389 0080
00000380: c988 0080 44a8 0000 3627 0000 dfa8 0000
00000390: d489 0080 3189 0080 c289 0080 448a 0080
000003a0: c198 0000 b8e1 0280 a589 0000 3e89 0000
000003b0: db88 0000 3d8b 0000 298a 0080 3e9d 0080
000003c0: 9089 0080 6789 0080 d789 0000 b28a 0080
000003d0: b988 0080 3b8b 0000 5489 0000 1797 0080
000003e0: b090 0080 7e89 0080 c09c 0000 c38a 0000
000003f0: 8e8b 0000 de88 0000 da89 0080 7989 0000

raycast_branch.3.bias f4 [32]
-4.9802e-41 -4.9144e-41 -4.9092e-41 -4.9708e-41 -4.9627e-41 -4.9223e-41 4.9267e-41 4.9387e-41
-4.9362e-41 -4.91e-41 4.9188e-41 -4.9586e-41 -5.1429e-41 -5.0326e-41 -4.919e-41 4.9073e-41
-5.0241e-41 4.9087e-41 -4.942e-41 -4.9212e-41 6.0857e-41 -4.9237e-41 -4.9145e-41 -4.919e-41
-4.9216e-41 4.951e-41 -4.9202e-41 5.2376e-41 -4.9642e-41 -4.9427e-41 -4.9135e-41 -4.9323e-41
00000000: d48a 0080 fe88 0080 d988 0080 918a 0080
00000010: 578a 0080 3789 0080 5689 0000 ac89 0000
00000020: 9a89 0080 df88 0080 1e89 0000 3a8a 0080
00000030: 5d8f 0080 4a8c 0080 1f89 0080 cc88 0000
00000040: 0d8c 0080 d688 0000 c389 0080 2f89 0080
00000050: a5a9 0000 4189 0080 ff88 0080 1f89 0080
00000060: 3289 0080 048a 0000 2889 0080 0192 0000
00000070: 628a 0080 c889 0080 f888 0080 7e89 0080

common_layers.0.weight f4 [64, 288]
4.9462e-41 4.9452e-41 4.9099e-41 4.905e-41 4.9142e-41 4.9118e-41 4.9188e-41 4.9188e-41
4.9406e-41 4.9354e-41 -4.9631e-41 -5.3546e-41 -4.9434e-41 -4.9149e-41 -5.6935e-41 -5.387e-41
-5.1373e-41 4.905e-41 4.9504e-41 4.9425e-41 -4.923e-41 4.9404e-41 -4.9214e-41 4.9495e-41
-4.9057e-41 4.9392e-41 -4.9094e-41 -4.9124e-41 -5.2173e-41 5.905e-41 5.9646e-41 -5.0063e-41
5.7118e-41 -5.0228e-41 5.9278e-41 5.9429e-41 -4.9179e-41 4.9186e-41 4.91e-41 -4.935e-41
4.9107e-41 -4.9201e-41 -4.9525e-41 -4.9068e-41 5.665e-41 -5.1751e-41 -4.9504e-41 4.9582e-41
-4.9229e-41 -4.9285e-41 4.9254e-41 4.9476e-41 -4.9829e-41 -4.9464e-41 5.1168e-41 4.9256e-41
4.9536e-41 4.9431e-41 4.9223e-41 4.9256e-41 4.9387e-41 -4.9544e-41 4.9165e-41 4.9131e-41
-4.9065e-41 -4.9348e-41 4.9358e-41 4.9219e-41 4.9422e-41 -4.9424e-41 -4.9343e-41 4.9075e-41
-4.9519e-41 -4.9223e-41 -4.949e-41 4.9455e-41 4.9092e-41 -4.9455e-41 -4.9135e-41 -4.9065e-41
4.9146e-41 -4.9445e-41 -4.9422e-41 4.9247e-41 -4.9519e-41 4.9087e-41 -4.9257e-41 4.9194e-41
-4.9051e-41 -4.9121e-41 4.926e-41 4.9399e-41 4.9142e-41 -4.919e-41 -4.9207e-41 4.9296e-41
-4.9327e-41 4.9484e-41 4.9457e-41 -4.9443e-41 -4.906e-41 -4.9498e-41 -4.9501e-41 -4.9436e-41
-4.941e-41 -4.9134e-41 -4.9188e-41 -4.9117e-41 -4.9109e-41 -6.2667e-41 4.9314e-41 4.9179e-41
4.9177e-41 4.9188e-41 4.9337e-41 4.9504e-41 5.3006e-41 4.923e-41 4.9239e-41 4.9345e-41
4.9173e-41 4.9167e-41 4.9473e-41 4.9201e-41 4.91e-41 4.9516e-41 4.9382e-41 4.9392e-41
4.9222e-41 4.9415e-41 4.9428e-41 4.9438e-41 4.9097e-41 4.9473e-41 -4.9314e-41 -4.9389e-41
-4.919e-41 -4.9249e-41 -4.9495e-41 4.9425e-41 4.911e-41 4.9317e-41 -4.9463e-41 4.9117e-41
4.9326e-41 4.9575e-41 4.9372e-41 4.9453e-41 4.9193e-41 4.9265e-41 4.9316e-41 -4.9364e-41
4.9502e-41 4.9249e-41 -4.9202e-41 -4.9156e-41 4.9306e-41 4.9316e-41 4.9165e-41 4.9312e-41
4.9365e-41 -4.9096e-41 4.9456e-41 4.922e-41 4.946e-41 4.9128e-41 -4.911e-41 4.951e-41
4.9207e-41 4.9214e-41 -4.9348e-41 1.73956e-40 4.9397e-41 -4.92e-41 -4.917e-41 4.938e-41
4.9481e-41 -4.9188e-41 -4.9107e-41 4.9326e-41 4.9501e-41 -4.9373e-41 4.922e-41 -4.9158e-41
4.9459e-41 4.9184e-41 4.923e-41 -4.9487e-41 5.1467e-41 4.9542e-41 -4.9327e-41 -4.919e-41
-6.0812e-41 4.9313e-41 4.949e-41 -4.9484e-41 5.0427e-41 -4.906e-41 -4.9114e-41 4.9413e-41
4.9316e-41 4.9515e-41 -4.9322e-41 4.9216e-41 4.9277e-41 -4.9305e-41 -4.9242e-41 -4.947e-41
-4.9075e-41 -4.924e-41 -4.9156e-41 -4.9553e-41 -4.9094e-41 -4.9225e-41 -4.91e-41 -4.9372e-41
-4.905e-41 4.9101e-41 -4.9424e-41 4.9113e-41 -4.9109e-41 -4.9254e-41 -4.9309e-41 -4.9393e-41
4.9214e-41 5.1436e-41 4.943e-41 -4.9352e-41 -4.9422e-41 4.9267e-41 -4.9253e-41 -4.9357e-41
4.9501e-41 -4.9057e-41 4.9513e-41 4.9106e-41 -4.9125e-41 -4.9428e-41 -4.9201e-41 -4.937e-41
-4.9153e-41 4.9179e-41 -4.9128e-41 4.9487e-41 4.9051e-41 4.9295e-41 4.9214e-41 4.9144e-41
4.9317e-41 4.9257e-41 4.9197e-41 4.9104e-41 -4.9438e-41 -4.9408e-41 -4.9337e-41 -4.947e-41
00000000: e189 0000 da89 0000 de88 0000 bb88 0000
00000010: fd88 0000 ec88 0000 1e89 0000 1e89 0000
00000020: b989 0000 9489 0000 5a8a 0080 4495 0080
00000030: cd89 0080 0289 0080 b69e 0080 2b96 0080
00000040: 358f 0080 bb88 0000 ff89 0000 c789 0000
00000050: 3c89 0080 b889 0000 3089 0080 f989 0000
00000060: c088 0080 af89 0000 db88 0080 f088 0080
00000070: 7091 0080 9ba4 0000 45a6 0000 8e8b 0080
00000080: 399f 0000 048c 0080 3ea5 0000 aaa5 0000
00000090: 1789 0080 1c89 0000 df88 0000 9189 0080
000000a0: e488 0000 2789 0080 0e8a 0080 c888 0080
000000b0: eb9d 0000 4390 0080 ff89 0080 378a 0000
000000c0: 3b89 0080 6389 0080 4d89 0000 eb89 0000
000000d0: e78a 0080 e389 0080 a38e 0000 4e89 0000
000000e0: 168a 0000 cb89 0000 3789 0000 4e89 0000
000000f0: ac89 0000 1c8a 0080 0d89 0000 f588 0000
00000100: c688 0080 9089 0080 9789 0000 3489 0000
00000110: c589 0000 c689 0080 8c89 0080 cd88 0000
00000120: 0a8a 0080 3789 0080 f589 0080 dc89 0000
00000130: d988 0000 dc89 0080 f888 0080 c688 0080
00000140: 0089 0000 d589 0080 c589 0080 4889 0000
00000150: 0a8a 0080 d688 0000 4f89 0080 2289 0000
00000160: bc88 0080 ee88 0080 5189 0000 b489 0000
00000170: fd88 0000 1f89 0080 2b89 0080 6b89 0000
00000180: 8189 0080 f189 0000 de89 0000 d489 0080
00000190: c288 0080 fb89 0080 fd89 0080 cf89 0080
000001a0: bc89 0080 f788 0080 1e89 0080 eb88 0080
000001b0: e588 0080 b1ae 0080 7889 0000 1789 0000
000001c0: 1689 0000 1e89 0000 8889 0000 ff89 0000
000001d0: c293 0000 3c89 0000 4289 0000 8e89 0000
000001e0: 1389 0000 0f89 0000 e989 0000 2789 0000
000001f0: df88 0000 088a 0000 a889 0000 af89 0000
00000200: 3689 0000 c089 0000 c989 0000 d089 0000
00000210: dd88 0000 e989 0000 7889 0080 ad89 0080
00000220: 1f89 0080 4989 0080 f989 0080 c789 0000
00000230: e688 0000 7a89 0000 e289 0080 eb88 0000
00000240: 8089 0000 328a 0000 a189 0000 db89 0000
00000250: 2189 0000 5589 0000 7989 0000 9b89 0080
00000260: fe89 0000 4989 0000 2889 0080 0789 0080
00000270: 7289 0000 7989 0000 0d89 0000 7689 0000
00000280: 9c89 0000 dc88 0080 dd89 0000 3589 0000
00000290: e089 0000 f388 0000 e688 0080 048a 0000
000002a0: 2b89 0000 3089 0000 9089 0080 ebe4 0100
000002b0: b389 0000 2689 0080 1189 0080 a789 0000
000002c0: ef89 0000 1e89 0080 e488 0080 8089 0000
000002d0: fd89 0000 a289 0080 3589 0000 0889 0080
000002e0: df89 0000 1b89 0000 3c89 0000 f389 0080
000002f0: 788f 0000 1a8a 0000 8189 0080 1f89 0080
00000300: 85a9 0080 7789 0000 f589 0000 f189 0080
00000310: 928c 0000 c288 0080 e988 0080 be89 0000
00000320: 7989 0000 078a 0000 7d89 0080 3289 0000
00000330: 5d89 0000 7189 0080 4489 0080 e789 0080
00000340: cd88 0080 4389 0080 0789 0080 228a 0080
00000350: db88 0080 3889 0080 df88 0080 a189 0080
00000360: bb88 0080 e088 0000 c689 0080 e888 0000
00000370: e588 0080 4d89 0080 7489 0080 b089 0080
00000380: 3089 0000 628f 0000 ca89 0000 9389 0080
00000390: c589 0080 5689 0000 4c89 0080 9689 0080
000003a0: fd89 0000 c088 0080 068a 0000 e388 0000
000003b0: f188 0080 c989 0080 2789 0080 a089 0080
000003c0: 0589 0080 1789 0000 f388 0080 f389 0000
000003d0: bc88 0000 6a89 0000 3089 0000 fe88 0000
000003e0: 7a89 0000 4f89 0000 2489 0000 e288 0000
000003f0: d089 0080 bb89 0080 8889 0080 e789 0080

common_layers.0.bias f4 [64]
-4.945e-41 -4.9494e-41 -4.9424e-41 -5.0054e-41 -4.9282e-41 -4.9326e-41 -4.9302e-41 -4.927e-41
-4.9415e-41 -5.0768e-41 -4.9061e-41 -4.9546e-41 -4.9687e-41 -4.9066e-41 -4.9244e-41 -4.9354e-41
-4.9058e-41 -4.9509e-41 -5.1328e-41 -4.9177e-41 -4.9379e-41 -4.9296e-41 -4.9414e-41 -4.9193e-41
-4.9322e-41 -5.7805e-41 -5.0032e-41 -4.9073e-41 -4.9379e-41 -4.9092e-41 -4.9487e-41 -5.0337e-41
-4.9131e-41 -4.9417e-41 -4.9076e-41 -5.0221e-41 -4.9323e-41 -4.9135e-41 -4.9414e-41 -5.0056e-41
-4.9704e-41 -5.141e-41 -4.9047e-41 -4.9138e-41 -4.917e-41 -4.9781e-41 -5.0098e-41 -5.4607e-41
-4.9485e-41 -4.9087e-41 -4.9703e-41 -4.9707e-41 -4.9355e-41 -4.9651e-41 -4.9174e-41 -5.1184e-41
-4.9516e-41 -4.9337e-41 -4.9739e-41 -4.9303e-41 -4.9278e-41 -4.937e-41 -5.0513e-41 -4.981e-41
00000000: d989 0080 f889 0080 c689 0080 888b 0080
00000010: 6189 0080 8089 0080 6f89 0080 5889 0080
00000020: c089 0080 858d 0080 c388 0080 1d8a 0080
00000030: 828a 0080 c788 0080 4689 0080 9489 0080
00000040: c188 0080 038a 0080 158f 0080 1689 0080
00000050: a689 0080 6b89 0080 bf89 0080 2189 0080
00000060: 7d89 0080 23a1 0080 788b 0080 cc88 0080
00000070: a689 0080 d988 0080 f389 0080 528c 0080
00000080: f588 0080 c189 0080 ce88 0080 ff8b 0080
00000090: 7e89 0080 f888 0080 bf89 0080 898b 0080
000000a0: 8e8a 0080 4f8f 0080 b988 0080 fa88 0080
000000b0: 1189 0080 c58a 0080 a78b 0080 3998 0080
000000c0: f289 0080 d688 0080 8d8a 0080 908a 0080
000000d0: 9589 0080 688a 0080 1489 0080 ae8e 0080
000000e0: 088a 0080 8889 0080 a78a 0080 7089 0080
000000f0: 5e89 0080 a089 0080 cf8c 0080 da8a 0080

common_layers.3.weight f4 [32, 64]
-4.9169e-41 4.9249e-41 -4.9551e-41 4.9303e-41 4.9232e-41 4.9295e-41 5.2655e-41 -5.0877e-41
-4.9107e-41 -5.149e-41 -4.9229e-41 4.9382e-41 -5.594e-41 4.9523e-41 -4.9107e-41 4.954e-41
-4.9421e-41 -4.9599e-41 5.035e-41 -4.9378e-41 -5.2323e-41 -4.9515e-41 -4.9991e-41 -5.1156e-41
-4.9543e-41 5.04e-41 4.9167e-41 4.9195e-41 -1.35658e-40 4.9061e-41 4.9054e-41 -4.918e-41
-4.9207e-41 4.9134e-41 4.9087e-41 -4.9383e-41 5.1203e-41 4.9159e-41 4.9177e-41 4.9117e-41
-4.9492e-41 4.9257e-41 -4.9142e-41 4.9476e-41 4.9631e-41 -5.5689e-41 -4.9385e-41 5.2217e-41
-4.9572e-41 5.4222e-41 4.932e-41 4.9128e-41 -4.9116e-41 -4.91e-41 4.9167e-41 -5.0891e-41
4.9298e-41 -4.9146e-41 4.9256e-41 -4.9101e-41 -4.914e-41 4.9135e-41 -4.9055e-41 -4.9364e-41
-4.9228e-41 4.9386e-41 4.938e-41 4.9222e-41 4.9226e-41 4.9127e-41 -6.1608e-41 5.1715e-41
-4.9593e-41 -1.1034e-41 -4.9471e-41 4.9345e-41 -5.5298e-41 4.9299e-41 4.905e-41 4.9534e-41
-4.9438e-41 5.502e-41 -6.2393e-41 -4.9645e-41 4.9969e-41 4.9438e-41 -3.9028e-41 1.02164e-40
4.9138e-41 -2.172e-42 -4.9239e-41 4.9092e-41 1.8919e-41 -4.9487e-41 -4.909e-41 -4.929e-41
4.9434e-41 4.966e-41 -4.9348e-41 5.0363e-41 -5.9007e-41 -4.9376e-41 4.9153e-41 -4.9204e-41
4.9336e-41 4.9613e-41 -4.9198e-41 4.9181e-41 -5.9251e-41 5.2068e-41 5.2774e-41 -1.12484e-40
4.973e-41 -4.9051e-41 -4.9438e-41 -4.9396e-41 -5.1335e-41 -5.7184e-41 -4.9123e-41 -1.39292e-40
-4.9177e-41 4.9445e-41 -4.9533e-41 4.9539e-41 4.9183e-41 -4.908e-41 -5.0288e-41 4.9282e-41
-4.9054e-41 4.9494e-41 4.9448e-41 4.9237e-41 5.1098e-41 -4.9128e-41 -4.9073e-41 5.5329e-41
5.5943e-41 -5.2385e-41 5.7543e-41 -4.9101e-41 3.981e-41 -5.2535e-41 -4.907e-41 -4.9397e-41
4.9141e-41 5.9747e-41 4.907e-41 4.9066e-41 -6.148e-41 -4.9485e-41 5.1237e-41 3.01028e-40
-4.9568e-41 -4.9987e-41 4.941e-41 -4.9494e-41 -6.1813e-41 4.9654e-41 -4.9138e-41 -4.921e-41
4.954e-41 -4.9156e-41 -4.9401e-41 5.2229e-41 -4.9121e-41 4.917e-41 -4.9572e-41 -4.9107e-41
-4.9902e-41 5.0398e-41 -4.9051e-41 -4.9072e-41 -5.709e-41 5.255e-41 -4.9513e-41 -1.32154e-40
1.29402e-40 -4.9075e-41 -4.9051e-41 4.9068e-41 4.9184e-41 5.1443e-41 4.9642e-41 5.9558e-41
-4.9478e-41 -4.9253e-41 -5.0145e-41 -4.91e-41 -4.935e-41 4.9172e-41 -4.921e-41 4.9265e-41
-4.9372e-41 -4.9048e-41 -4.9614e-41 -4.9296e-41 -5.1318e-41 4.9331e-41 -4.922e-41 5.1037e-41
4.9467e-41 5.2198e-41 -5.0368e-41 -4.9347e-41 4.9668e-41 5.8084e-41 4.9453e-41 -4.9626e-41
4.9253e-41 -5.195e-41 4.9494e-41 4.9463e-41 -5.0426e-41 5.4255e-41 -5.0431e-41 -5.1395e-41
-5.4303e-41 -5.1758e-41 -4.9289e-41 5.0503e-41 -4.9899e-41 4.9361e-41 5.1599e-41 4.9257e-41
-4.9626e-41 4.9183e-41 -5.1405e-41 4.959e-41 5.0594e-41 4.9267e-41 5.226e-41 -5.1866e-41
4.9051e-41 5.0689e-41 4.9708e-41 5.8909e-41 -5.539e-41 -5.0235e-41 5.5878e-41 -4.972e-41
-5.0438e-41 -4.9512e-41 -4.9222e-41 -4.9193e-41 -4.9062e-41 -6.0987e-41 -4.9598e-41 -6.2516e-41
-4.9445e-41 4.9167e-41 4.9197e-41 4.9885e-41 4.9069e-41 -3.11224e-40 -5.0534e-41 -4.9158e-41
00000000: 1089 0080 4989 0000 218a 0080 7089 0000
00000010: 3d89 0000 6a89 0000 c892 0000 d38d 0080
00000020: e488 0080 888f 0080 3b89 0080 a889 0000
00000030: f09b 0080 0d8a 0000 e488 0080 198a 0000
00000040: c489 0080 438a 0080 5b8c 0000 a589 0080
00000050: db91 0080 078a 0080 5b8b 0080 9a8e 0080
00000060: 1b8a 0080 7f8c 0000 0f89 0000 2389 0000
00000070: 297a 0180 c388 0000 be88 0000 1889 0080
00000080: 2b89 0080 f788 0000 d688 0000 a989 0080
00000090: bc8e 0000 0989 0000 1689 0000 eb88 0000
000000a0: f789 0080 4f89 0000 fd88 0080 eb89 0000
000000b0: 5a8a 0000 3d9b 0080 aa89 0080 8f91 0000
000000c0: 308a 0080 2697 0000 7c89 0000 f388 0000
000000d0: ea88 0080 df88 0080 0f89 0000 dd8d 0080
000000e0: 6c89 0000 0089 0080 4e89 0000 e088 0080
000000f0: fb88 0080 f888 0000 bf88 0080 9b89 0080
00000100: 3a89 0080 ab89 0000 a789 0000 3689 0000
00000110: 3989 0000 f288 0000 bdab 0080 2990 0000
00000120: 3f8a 0080 c21e 0080 e889 0080 8e89 0000
00000130: 269a 0080 6d89 0000 bb88 0000 158a 0000
00000140: d089 0080 6099 0000 edad 0080 648a 0080
00000150: 4b8b 0000 d089 0000 cb6c 0080 cb1c 0100
00000160: fa88 0000 0e06 0080 4289 0080 d988 0000
00000170: bd34 0000 f389 0080 d888 0080 6789 0080
00000180: cd89 0000 6f8a 0000 9089 0080 648c 0000
00000190: 7da4 0080 a489 0080 0589 0000 2989 0080
000001a0: 8789 0000 4d8a 0000 2589 0080 1989 0000
000001b0: 2ba5 0080 2591 0000 1d93 0000 8f39 0180
000001c0: a18a 0000 bc88 0080 d089 0080 b289 0080
000001d0: 1a8f 0080 689f 0080 ef88 0080 4a84 0180
000001e0: 1689 0080 d589 0000 148a 0080 188a 0000
000001f0: 1a89 0000 d188 0080 2f8c 0080 6189 0000
00000200: be88 0080 f889 0000 d789 0000 4189 0000
00000210: 718e 0000 f388 0080 cc88 0080 3c9a 0000
00000220: f29b 0000 0792 0080 68a0 0000 e088 0080
00000230: f96e 0000 7292 0080 ca88 0080 b389 0080
00000240: fc88 0000 8da6 0000 ca88 0000 c788 0000
00000250: 62ab 0080 f289 0080 d48e 0000 2547 0300
00000260: 2d8a 0080 588b 0080 bc89 0000 f889 0080
00000270: 4fac 0080 6a8a 0000 fa88 0080 2d89 0080
00000280: 198a 0000 0789 0080 b689 0080 9891 0000
00000290: ee88 0080 1189 0000 308a 0080 e488 0080
000002a0: 1b8b 0080 7d8c 0000 bc88 0080 cb88 0080
000002b0: 259f 0080 7d92 0000 068a 0080 6470 0180
000002c0: b868 0100 cd88 0080 bc88 0080 c888 0000
000002d0: 1b89 0000 678f 0000 628a 0000 06a6 0000
000002e0: ed89 0080 4c89 0080 c98b 0080 df88 0080
000002f0: 9189 0080 1289 0000 2d89 0080 5589 0000
00000300: a189 0080 ba88 0080 4e8a 0080 6b89 0080
00000310: 0e8f 0080 8489 0000 3589 0080 458e 0000
00000320: e589 0000 8291 0000 688c 0080 8f89 0080
00000330: 748a 0000 eaa1 0000 db89 0000 568a 0080
00000340: 4c89 0000 d190 0080 f889 0000 e289 0000
00000350: 918c 0080 3e97 0000 958c 0080 458f 0080
00000360: 6097 0080 4890 0080 6689 0080 c88c 0000
00000370: 198b 0080 9989 0000 d68f 0000 4f89 0000
00000380: 568a 0080 1a89 0000 4c8f 0080 3d8a 0000
00000390: 098d 0000 5689 0000 ae91 0000 9590 0080
000003a0: bc88 0000 4d8d 0000 918a 0000 37a4 0000
000003b0: 689a 0080 098c 0080 c49b 0000 998a 0080
000003c0: 9a8c 0080 058a 0080 3689 0080 2189 0080
000003d0: c488 0080 02aa 0080 428a 0080 45ae 0080
000003e0: d589 0080 0f89 0000 2489 0000 0f8b 0000
000003f0: c988 0000 9163 0380 de8c 0080 0889 0080

common_layers.3.bias f4 [32]
-0.00016387498 -6.422944e-18 -1.0128584e-29 -0.0019691451 -5.7041165e-05 -2.1388312e-14 -4.9484e-41 -3.682176e-14
-4.5488778e-12 -1.5881988e-06 -4.0340765e-06 -0.00021306772 -8.066979e-22 -0.0017250101 -0.00018363619 -1.05268204e-14
-0.0044510383 -1.143264e-05 -3.0972198e-35 -0.0037232502 -2.05742e-28 -6.2202246e-15 -2.9444778e-05 -0.009691816
-1.0893418e-13 -4.9085e-41 -2.4975296e-07 -2.0636007e-05 -1.8317931e-17 -0.0009355526 -1.521298e-31 -4.254432e-05
00000000: dbd5 2bb9 fef6 eca2 9d6e 4d8f c60c 01bb
00000010: 7c3f 6fb8 17a6 c0a8 f189 0080 99d4 25a9
00000020: a60c a0ac 182a d5b5 745c 87b6 ee6a 5fb9
00000030: 3acf 739c bc19 e2ba 778e 40b9 64a2 3da8
00000040: 04da 91bb d1ce 3fb7 2cad 2486 c601 74bb
00000050: 8c67 8291 721b e0a7 2e00 f7b7 6cca 1ebc
00000060: 484c f5a9 d488 0080 c915 86b4 7d1b adb7
00000070: fef3 a8a3 df3f 75ba cc79 458c 9e71 32b8

common_layers.6.weight f4 [2, 32]
2.396645e-10 4.9492e-41 -2.9744914e-31 0.005725646 -2.590758e-05 2.38e-43 5.0276e-41 -4.9159e-41
3.807074e-18 2.3720597e-07 6.683428e-34 -3.1477354e-10 -6.0587643e-22 0.00038633152 5.5811197e-21 -1.4808084e-20
1.8556884e-05 4.9132e-41 -2.6808706e-36 -4.1426133e-06 1.9180596e-28 -1.2599748e-24 2.6203838e-07 -0.020632435
-1.095151e-18 4.9076e-41 -4.1295234e-08 2.551079e-07 4.9261e-41 0.001786023 4.9497e-41 1.322455e-07
-1.6855724e-05 -1.6412105e-19 5.1010782e-30 0.0029342533 3.7097977e-06 -8.404544e-12 -4.8583e-41 5.5502356e-24
3.4167954e-19 6.1422256e-08 -2.832248e-06 -7.1423533e-06 -1.5071849e-23 -0.000815948 -0.00018300538 -7.2452634e-11
6.551143e-05 9.260148e-28 -1.5551014e-36 -0.003543537 7.47894e-29 -4.913e-41 8.9398895e-07 -0.003447301
-2.7415616e-13 -6.0416e-41 -3.5095912e-08 7.494568e-06 2.9216603e-25 0.0030798216 -7.048383e-30 -1.3232217e-05
00000000: c8c1 832f f789 0000 370e c18c 339e bb3b
00000010: 1b54 d9b7 aa00 0000 268c 0000 0989 0080
00000020: cc74 8c22 aeb2 7e34 5118 5e08 700c adaf
00000030: 6b1d 379c 8a8c ca39 47d9 d21d c0db 8b9e
00000040: 9baa 9b37 f688 0000 3110 6484 c700 8bb6
00000050: 9824 7311 bef8 c297 48ae 8c34 5a05 a9bc
00000060: a39d a1a1 ce88 0000 975c 31b3 c3f5 8834
00000070: 5289 0000 fd18 ea3a fa89 0000 5eff 0d34
00000080: 6465 8db7 8bc2 41a0 a0ec ce0e 9a4c 403b
00000090: d7f5 7836 b4da 13ad 6e87 0080 dfb6 d618
000000a0: 27b1 c920 3ee7 8333 a611 3eb6 59a8 efb6
000000b0: 17c4 9199 58e5 55ba 22e5 3fb9 3553 9fae
000000c0: 2e63 8938 9fbb 9212 1c4b 0484 b03a 68bb
000000d0: 199d bd10 f488 0080 74fa 6f35 1dec 61bb
000000e0: 1156 9aaa 6aa8 0080 5dbc 16b3 d979 fb36
000000f0: 8ed7 b416 d5d6 493b 4cf5 0e8f f0ff 5db7

common_layers.6.bias f4 [2]
-0.021590484 0.9999462
00000000: 87de b0bc 79fc 7f3f

exp_avg f4 [16, 1, 3]
0.0 0.0 -0.0 0.0 0.0 0.0 -0.0 0.0
0.0 -0.0 0.0 0.0 0.0 -0.0 0.0 -0.0
-0.0 -0.0 0.0 0.0 -0.0 0.0 -0.0 0.0
0.0 0.0 -0.0 0.0 0.0 0.0 0.0 -0.0
0.0 -0.0 -0.0 -0.0 -0.0 0.0 -0.0 0.0
0.0 0.0 0.0 0.0 0.0 -0.0 0.0 -0.0
00000000: 0000 0000 0000 0000 0000 0080 0000 0000
00000010: 0000 0000 0000 0000 0000 0080 0000 0000
00000020: 0000 0000 0000 0080 0000 0000 0000 0000
00000030: 0000 0000 0000 0080 0000 0000 0000 0080
00000040: 0000 0080 0000 0080 0000 0000 0000 0000
00000050: 0000 0080 0000 0000 0000 0080 0000 0000
00000060: 0000 0000 0000 0000 0000 0080 0000 0000
00000070: 0000 0000 0000 0000 0000 0000 0000 0080
00000080: 0000 0000 0000 0080 0000 0080 0000 0080
00000090: 0000 0080 0000 0000 0000 0080 0000 0000
000000a0: 0000 0000 0000 0000 0000 0000 0000 0000
000000b0: 0000 0000 0000 0080 0000 0000 0000 0080

exp_avg_sq f4 [16, 1, 3]
1.7416454e-25 1.7519336e-25 1.1254739e-25 1.004365e-26 9.672646e-27 9.690968e-27 1.5551039e-28 2.4034354e-28
2.4566765e-28 1.0781281e-28 4.5098755e-28 4.325672e-28 5.704141e-26 5.5748326e-26 5.6371846e-26 1.8917807e-26
2.3297192e-26 2.2715598e-26 5.8872507e-29 1.6491156e-28 3.160937e-28 1.5095582e-26 1.5023878e-26 1.5260437e-26
2.6916098e-31 1.6412119e-31 1.4680401e-31 4.498169e-31 3.959553e-31 6.548958e-31 4.889378e-26 4.889637e-26
4.8511433e-26 3.1864316e-31 3.2569876e-31 3.6805666e-31 4.098474e-26 4.2038108e-26 4.0947e-26 1.1180063e-30
1.1167308e-30 1.1196973e-30 1.3211112e-25 1.355219e-25 1.3307508e-25 7.410783e-30 5.690301e-29 5.585391e-29
00000000: f29a 5716 fee0 5816 b153 0b16 5bef 4614
00000010: 2496 3f14 0cf3 3f14 0222 4511 f855 9811
00000020: dbb5 9b11 42ab 0811 75ec 0e12 0516 0912
00000030: 4a3a 8d15 b306 8a15 e791 8b15 575a bb14
00000040: 66b9 e614 e2f6 e014 7142 9510 dc0c 5111
00000050: 2359 c811 d97f 9514 0eca 9414 ce21 9714
00000060: 0ab2 ae0c 9f0a 550c 0090 3e0c 53f9 110d
00000070: ae7e 000d 9d86 540d 3b1c 7215 831f 7215
00000080: 8c37 7015 adcf ce0c fd63 d30c e7e1 ee0c
00000090: 55f2 4a15 a229 5015 7dc2 4a15 2a68 b50d
000000a0: 2f33 b50d 68ae b50d af8b 2316 9bc4 2716
000000b0: 2dbd 2416 fc4e 160f 2a44 9010 439b 8d10

exp_avg f4 [16]
0.0 -0.0 -0.0 0.0 -0.0 -0.0 0.0 0.0
-0.0 0.0 0.0 0.0 -0.0 0.0 0.0 -0.0
00000000: 0000 0000 0000 0080 0000 0080 0000 0000
00000010: 0000 0080 0000 0080 0000 0000 0000 0000
00000020: 0000 0080 0000 0000 0000 0000 0000 0000
00000030: 0000 0080 0000 0000 0000 0000 0000 0080

exp_avg_sq f4 [16]
1.7260335e-25 9.875701e-27 2.5080974e-28 4.367412e-28 5.770453e-26 2.3402238e-26 1.662047e-28 1.511009e-26
1.4869919e-31 3.959064e-31 4.8632945e-26 4.0869954e-31 4.1146162e-26 1.1961286e-30 1.323008e-25 5.6472e-29
00000000: 2fac 5516 c19b 4314 35f8 9e11 a868 0a12
00000010: 97de 8e15 b9c3 e714 82b0 5211 a1a4 9514
00000020: c805 410c 9e7a 000d 95d1 7015 6ea1 040d
00000030: f5be 4b15 3d15 c20d ccc7 2316 6c2c 8f10

exp_avg f4 [32, 16, 3]
0.0 0.0 0.0 0.0 0.0 0.0 -0.0 -0.0
-0.0 -0.0 -0.0 0.0 0.0 0.0 0.0 0.0
0.0 0.0 0.0 0.0 0.0 0.0 0.0 0.0
0.0 -0.0 0.0 -0.0 0.0 -0.0 0.0 0.0
0.0 0.0 0.0 0.0 0.0 0.0 0.0 0.0
-0.0 0.0 0.0 0.0 0.0 -0.0 0.0 0.0
0.0 0.0 0.0 -0.0 -0.0 -0.0 -0.0 0.0
0.0 0.0 0.0 -0.0 0.0 0.0 0.0 0.0
0.0 0.0 0.0 0.0 -0.0 0.0 0.0 0.0
0.0 -0.0 -0.0 0.0 0.0 0.0 0.0 0.0
0.0 0.0 0.0 0.0 0.0 0.0 0.0 0.0
-0.0 -0.0 0.0 0.0 0.0 0.0 0.0 -0.0
-0.0 -0.0 -0.0 0.0 0.0 -0.0 0.0 0.0
0.0 0.0 0.0 -0.0 -0.0 0.0 0.0 0.0
-0.0 -0.0 0.0 -0.0 -0.0 -0.0 0.0 0.0
0.0 0.0 1e-45 0.0 -0.0 -1e-45 0.0 0.0
-0.0 0.0 0.0 0.0 0.0 0.0 -0.0 -0.0
-0.0 0.0 -0.0 -0.0 0.0 0.0 -0.0 -0.0
0.0 0.0 0.0 -0.0 0.0 -0.0 0.0 0.0
-1e-45 -0.0 -0.0 -0.0 0.0 -0.0 0.0 0.0
0.0 0.0 0.0 0.0 0.0 -0.0 0.0 -0.0
-0.0 0.0 0.0 -0.0 -0.0 -0.0 0.0 -0.0
0.0 -0.0 -0.0 -0.0 0.0 0.0 0.0 0.0
-0.0 0.0 0.0 -0.0 0.0 -0.0 1e-45 0.0
-0.0 0.0 -0.0 0.0 -0.0 -0.0 0.0 -0.0
0.0 0.0 0.0 0.0 0.0 -0.0 -0.0 -0.0
-0.0 -0.0 -0.0 0.0 0.0 -0.0 -0.0 -0.0
-0.0 0.0 0.0 -0.0 -0.0 -0.0 -0.0 -0.0
-0.0 0.0 -1e-45 0.0 -0.0 -0.0 -0.0 -0.0
0.0 1e-45 0.0 0.0 0.0 0.0 -0.0 -0.0
-0.0 -0.0 0.0 -0.0 -0.0 0.0 0.0 -0.0
-0.0 -0.0 0.0 0.0 0.0 0.0 -0.0 0.0
00000000: 0000 0000 0000 0000 0000 0000 0000 0000
00000010: 0000 0000 0000 0000 0000 0080 0000 0080
00000020: 0000 0080 0000 0080 0000 0080 0000 0000
00000030: 0000 0000 0000 0000 0000 0000 0000 0000
00000040: 0000 0000 0000 0000 0000 0000 0000 0000
00000050: 0000 0000 0000 0000 0000 0000 0000 0000
00000060: 0000 0000 0000 0080 0000 0000 0000 0080
00000070: 0000 0000 0000 0080 0000 0000 0000 0000
00000080: 0000 0000 0000 0000 0000 0000 0000 0000
00000090: 0000 0000 0000 0000 0000 0000 0000 0000
000000a0: 0000 0080 0000 0000 0000 0000 0000 0000
000000b0: 0000 0000 0000 0080 0000 0000 0000 0000
000000c0: 0000 0000 0000 0000 0000 0000 0000 0080
000000d0: 0000 0080 0000 0080 0000 0080 0000 0000
000000e0: 0000 0000 0000 0000 0000 0000 0000 0080
000000f0: 0000 0000 0000 0000 0000 0000 0000 0000
00000100: 0000 0000 0000 0000 0000 0000 0000 0000
00000110: 0000 0080 0000 0000 0000 0000 0000 0000
00000120: 0000 0000 0000 0080 0000 0080 0000 0000
00000130: 0000 0000 0000 0000 0000 0000 0000 0000
00000140: 0000 0000 0000 0000 0000 0000 0000 0000
00000150: 0000 0000 0000 0000 0000 0000 0000 0000
00000160: 0000 0080 0000 0080 0000 0000 0000 0000
00000170: 0000 0000 0000 0000 0000 0000 0000 0080
00000180: 0000 0080 0000 0080 0000 0080 0000 0000
00000190: 0000 0000 0000 0080 0000 0000 0000 0000
000001a0: 0000 0000 0000 0000 0000 0000 0000 0080
000001b0: 0000 0080 0000 0000 0000 0000 0000 0000
000001c0: 0000 0080 0000 0080 0000 0000 0000 0080
000001d0: 0000 0080 0000 0080 0000 0000 0000 0000
000001e0: 0000 0000 0000 0000 0100 0000 0000 0000
000001f0: 0000 0080 0100 0080 0000 0000 0000 0000
00000200: 0000 0080 0000 0000 0000 0000 0000 0000
00000210: 0000 0000 0000 0000 0000 0080 0000 0080
00000220: 0000 0080 0000 0000 0000 0080 0000 0080
00000230: 0000 0000 0000 0000 0000 0080 0000 0080
00000240: 0000 0000 0000 0000 0000 0000 0000 0080
00000250: 0000 0000 0000 0080 0000 0000 0000 0000
00000260: 0100 0080 0000 0080 0000 0080 0000 0080
00000270: 0000 0000 0000 0080 0000 0000 0000 0000
00000280: 0000 0000 0000 0000 0000 0000 0000 0000
00000290: 0000 0000 0000 0080 0000 0000 0000 0080
000002a0: 0000 0080 0000 0000 0000 0000 0000 0080
000002b0: 0000 0080 0000 0080 0000 0000 0000 0080
000002c0: 0000 0000 0000 0080 0000 0080 0000 0080
000002d0: 0000 0000 0000 0000 0000 0000 0000 0000
000002e0: 0000 0080 0000 0000 0000 0000 0000 0080
000002f0: 0000 0000 0000 0080 0100 0000 0000 0000
00000300: 0000 0080 0000 0000 0000 0080 0000 0000
00000310: 0000 0080 0000 0080 0000 0000 0000 0080
00000320: 0000 0000 0000 0000 0000 0000 0000 0000
00000330: 0000 0000 0000 0080 0000 0080 0000 0080
00000340: 0000 0080 0000 0080 0000 0080 0000 0000
00000350: 0000 0000 0000 0080 0000 0080 0000 0080
00000360: 0000 0080 0000 0000 0000 0000 0000 0080
00000370: 0000 0080 0000 0080 0000 0080 0000 0080
00000380: 0000 0080 0000 0000 0100 0080 0000 0000
00000390: 0000 0080 0000 0080 0000 0080 0000 0080
000003a0: 0000 0000 0100 0000 0000 0000 0000 0000
000003b0: 0000 0000 0000 0000 0000 0080 0000 0080
000003c0: 0000 0080 0000 0080 0000 0000 0000 0080
000003d0: 0000 0080 0000 0000 0000 0000 0000 0080
000003e0: 0000 0080 0000 0080 0000 0000 0000 0000
000003f0: 0000 0000 0000 0000 0000 0080 0000 0000

exp_avg_sq f4 [32, 16, 3]
8.655854e-28 1.1268043e-27 8.981676e-28 8.751835e-30 1.10383704e-29 8.7564316e-30 1.7298487e-31 1.6840654e-31
3.3098938e-33 1.472087e-30 1.4553131e-30 1.7458556e-33 7.0120256e-29 8.8613355e-29 7.032392e-29 6.2816507e-28
7.9169144e-28 6.1461807e-28 5.2714043e-34 4.491922e-33 5.2162463e-33 6.268503e-29 7.853861e-29 5.8523426e-29
4.517988e-34 9.659232e-35 3.2089056e-35 5.6224853e-35 7.5439903e-34 1.1314661e-33 6.3340595e-28 8.0018663e-28
6.3512803e-28 1.3155577e-34 1.5296356e-34 3.3670812e-33 1.5357395e-28 1.9412173e-28 1.5412699e-28 1.385274e-33
1.184831e-37 1.1483553e-33 1.2064344e-27 1.52502e-27 1.2105075e-27 1.6068414e-32 1.8622957e-32 2.2987326e-35
3.6704852e-28 4.7835574e-28 3.8814037e-28 3.6776437e-30 4.6436808e-30 3.748004e-30 9.1985336e-32 9.944647e-32
6.444871e-33 5.532976e-31 5.6402217e-31 1.1203068e-33 2.5149183e-29 3.1822456e-29 2.56538e-29 2.5307377e-28
3.1938065e-28 2.5095315e-28 2.3419025e-33 6.3024864e-34 2.8347733e-33 2.1961039e-29 2.752592e-29 2.052852e-29
2.096119e-33 3.6614144e-33 7.9654424e-35 3.5375136e-35 2.037048e-34 2.0236016e-33 2.5962414e-28 3.2834652e-28
2.6469894e-28 3.0957421e-35 4.845285e-34 1.9235993e-33 6.628134e-29 8.388464e-29 6.7610926e-29 2.7650713e-34
4.8683783e-36 1.5228172e-33 5.075728e-28 6.424623e-28 5.178228e-28 1.1080001e-32 1.1301863e-32 5.5852214e-34
1.8010542e-26 1.77386e-26 2.1459184e-26 2.1338078e-28 2.1515216e-28 2.5174627e-28 1.0698936e-29 7.982788e-31
1.4060478e-33 4.772675e-29 2.42719e-30 5.607215e-32 1.6569811e-27 1.6699276e-27 1.9477305e-27 1.3216052e-26
1.3048283e-26 1.5282676e-26 2.7683242e-32 1.6664322e-31 8.801203e-32 1.5452084e-27 1.4773699e-27 1.710024e-27
5.0151635e-34 5.1214034e-34 1.8053737e-34 1.8599318e-35 6.302798e-35 4.5583424e-36 1.3258946e-26 1.3354323e-26
1.5695867e-26 2.3335486e-33 3.7119208e-36 3.808378e-35 3.9969903e-27 4.0311073e-27 4.6741376e-27 1.2753575e-34
2.7974246e-33 2.1626352e-34 2.4892612e-26 2.5013579e-26 2.9413113e-26 4.846758e-30 5.609504e-31 2.784055e-33
4.9782734e-29 6.56033e-29 5.232725e-29 9.753599e-31 1.2313999e-30 9.799253e-31 1.3880314e-34 3.4325757e-33
1.06169704e-35 6.989238e-32 8.6855156e-32 6.1243397e-32 1.6114602e-30 2.0374054e-30 1.6186822e-30 2.5986452e-29
3.2849188e-29 2.5232011e-29 1.5810037e-33 3.6783914e-34 1.3930824e-33 3.8930992e-30 4.9146505e-30 3.733775e-30
3.875689e-34 2.1866226e-33 5.0687293e-34 5.499404e-35 2.0728757e-38 1.5995633e-33 3.0858727e-29 3.9139705e-29
3.108955e-29 4.1516904e-34 2.7727223e-35 6.7704236e-34 1.4922259e-29 1.8923088e-29 1.500499e-29 1.2487073e-34
8.9390456e-35 8.405161e-34 6.847608e-29 8.6896274e-29 6.889632e-29 4.0053896e-34 9.819315e-35 3.2019827e-33
1.0079328e-27 6.4458626e-27 6.532715e-27 1.3039993e-29 7.451958e-29 7.5186897e-29 2.2765143e-29 6.076807e-29
6.766022e-32 7.688611e-29 4.1477314e-28 4.7569532e-32 1.0692727e-28 5.572976e-28 5.5821303e-28 8.2212865e-28
5.266871e-27 4.561221e-27 8.484349e-32 9.741254e-32 8.6173263e-32 1.233271e-28 7.053262e-28 5.0203134e-28
3.966605e-35 7.6767358e-34 2.6541581e-36 4.1842057e-34 2.7674044e-34 1.5190259e-34 7.5525617e-28 4.6972827e-27
4.708567e-27 1.3375102e-35 5.411755e-36 2.3536763e-34 2.7375224e-28 1.4794611e-27 1.4773302e-27 5.8567123e-34
9.523909e-34 1.9697153e-36 1.38639685e-27 8.905157e-27 8.907274e-27 1.22113415e-29 2.0695592e-29 3.0512772e-33
6.188407e-27 8.1788706e-27 7.354776e-28 6.895185e-29 6.7900586e-29 9.421179e-30 9.662938e-30 1.2323403e-31
2.4011768e-33 5.0348864e-29 2.1301098e-31 2.9090526e-32 4.4549297e-28 4.44993e-28 5.694851e-29 4.1030616e-27
00000000: 5128 8912 9d8c b212 0252 8e12 2082 310f
00000010: 7fe2 5f0f fe99 310f 158c 600c ac9a 5a0c
00000020: d47c 8909 1adc ee0d 5723 ec0d 3e0a 1109
00000030: a6c6 b110 5ba9 e010 d54a b210 ce12 4712
00000040: a4e5 7a12 bec7 4212 262c 2f08 4f96 ba09
00000050: a5ac d809 e9ec 9e10 791e c710 e05f 9410
00000060: cb22 1608 aa64 0007 5c9d 2a06 a778 9506
00000070: 2cb1 7a08 3fff bb08 ffbb 4812 da96 7d12
00000080: b547 4912 1cde 2e07 cd52 4b07 f3dc 8b09
00000090: 99ad 4211 1a14 7611 1161 4311 0a2b e608
000000a0: 5645 2102 a2cd be08 cb2a bf12 29a6 f112
000000b0: 05d0 bf12 2cdd a60a 5064 c10a 7471 f405
000000c0: 07a5 e811 d498 1712 6003 f611 d62e 950e
000000d0: bd5e bc0e 8009 980e bece ee0b c216 010c
000000e0: d0da 050a 2b8e 330d 2109 370d 9524 ba08
000000f0: 030b ff0f e95b 2110 8914 0210 9167 a011
00000100: 796e ca11 7a0f 9f11 c28e 4209 a06f 5108
00000110: f680 6b09 1eb6 de0f b092 0b10 162f d00f
00000120: 8523 2e09 d616 9809 fec1 d306 2416 3c06
00000130: 9362 8707 3f1d 2809 6d8e a411 451d d011
00000140: dcc5 a711 0f99 2406 2003 2108 6fce 1f09
00000150: 0d0b a810 3eac d410 006a ab10 40c5 b707
00000160: f213 cf04 7b05 fd08 33db 2012 bc9a 4b12
00000170: c71a 2412 641f 660a 03bb 6a0a cf99 3908
00000180: 265e b214 b2ac af14 7f85 d414 033f 8711
00000190: 6f5e 8811 2b90 9f11 0d00 590f 3487 810d
000001a0: a99e e908 dd00 7210 c4ea 440e 5692 910b
000001b0: 9247 0313 284e 0413 ab50 1a13 ace2 8214
000001c0: 5439 8114 305a 9714 57bd 0f0b b550 580c
000001d0: 077e e40b 19d9 f412 3e19 ea12 687b 0713
000001e0: 4ba8 2608 1530 2a08 aff9 6f07 29c8 c505
000001f0: 9f8e a706 f4e3 c104 6c4f 8314 3b41 8414
00000200: c071 9b14 17dd 4109 3de3 9d04 f57c 4a06
00000210: 4c56 9e13 49b0 9f13 6329 b913 2b86 2907
00000220: a466 6809 55bb 8f07 4586 f614 f5b8 f714
00000230: 8da5 1115 9d9b c40e f009 360d 4d4a 6709
00000240: af6d 7c10 fa52 a610 54aa 8410 dd42 9e0d
00000250: 5ace c70d 8100 9f0d 4380 3807 6895 8e09
00000260: 49cc 6105 7473 b50b 277d e10b 38ff 9e0b
00000270: b8bc 020e 414b 250e b752 030e 58c4 0310
00000280: af90 2610 0ce2 ff0f 3b58 0309 9678 f407
00000290: 2c77 e708 41ec 9d0e a65c c70e bd75 970e
000002a0: b7ca 0008 52a8 3509 fb6f 2808 0133 9206
000002b0: 57b7 e100 f3e2 0409 eb78 1c10 3e76 4610
000002c0: 8ba4 1d10 adf6 0908 576c 1306 65fc 6008
000002d0: 6654 970f 25e7 bf0f 2e2b 980f 4ffb 2507
000002e0: fea3 ed06 9aa7 8b08 849b ad10 e84e dc10
000002f0: 45ac ae10 161a 0508 6685 0207 5201 8509
00000300: 9db6 9f12 d058 ff13 cd64 0114 c23d 840f
00000310: f9ed bc10 169f be10 b1dd e60f bb10 9a10
00000320: eea7 af0b f0ed c210 6572 0312 c1fe 760b
00000330: e28b 0711 5a9d 3012 9fe7 3012 8045 8212
00000340: 6ba4 d013 47b0 b413 2c44 dc0b bde5 fc0b
00000350: f5b7 df0b ef55 1c11 dc86 5f12 9f19 1f12
00000360: a1e6 5206 721a 7f08 72ca 6104 490b 0b08
00000370: f2ec b707 c6e9 4907 a959 6f12 1b14 ba13
00000380: 8b86 ba13 7e3a 8e05 cb30 e604 ba6d 9c07
00000390: d782 ad11 126e ea12 a217 ea12 669f 4208
000003a0: 3b3e 9e08 9a90 2704 f0ae db12 8362 3014
000003b0: 3f6d 3014 e9ac 770f d4e0 d10f 7d7d 7d09
000003c0: e725 f513 cdff 2114 0815 6912 4fd0 ae10
000003d0: 0026 ac10 8f15 3f0f d8fc 430f 88f7 1f0c
000003e0: 627b 4709 904c 7f10 8540 8a0c f10b 170b
000003f0: af2e 0d12 1f06 0d12 b261 9010 fd89 a213

exp_avg f4 [32]
-0.0 -0.0 -0.0 -0.0 -0.0 -0.0 0.0 0.0
-0.0 -0.0 0.0 -0.0 -0.0 -0.0 -0.0 0.0
-0.0 0.0 -0.0 -0.0 0.0 -0.0 -0.0 -0.0
-0.0 0.0 -0.0 0.0 -0.0 -0.0 -0.0 -0.0
00000000: 0000 0080 0000 0080 0000 0080 0000 0080
00000010: 0000 0080 0000 0080 0000 0000 0000 0000
00000020: 0000 0080 0000 0080 0000 0000 0000 0080
00000030: 0000 0080 0000 0080 0000 0080 0000 0000
00000040: 0000 0080 0000 0000 0000 0080 0000 0080
00000050: 0000 0000 0000 0080 0000 0080 0000 0080
00000060: 0000 0080 0000 0000 0000 0080 0000 0000
00000070: 0000 0080 0000 0080 0000 0080 0000 0080

exp_avg_sq f4 [32]
9.943974e-28 4.4210916e-28 1.5725081e-26 8.2616924e-29 5.7458556e-27 5.955888e-27 9.303698e-27 1.8229364e-25
9.74095e-26 1.0686743e-25 2.5592164e-25 2.9629563e-28 4.4096194e-30 5.4070647e-28 2.0571734e-28 6.7355896e-26
3.674824e-30 1.3006411e-25 5.0204347e-26 3.214302e-27 1.5218002e-26 4.593485e-27 3.3510084e-26 2.0744574e-29
1.203596e-25 2.6584286e-26 9.4125755e-26 8.670464e-28 1.396156e-28 4.5927186e-25 1.9684398e-26 3.1134525e-30
00000000: 8d91 9d12 281c 0c12 d1bb 9b14 7375 d110
00000010: e69d e313 e1ef eb13 5a47 3814 29ab 6116
00000020: 9b2c f115 a44b 0416 6768 9e16 b7cc bb11
00000030: 1be0 b20e 525b 2b12 8c63 8211 dfc3 a615
00000040: 8e11 950e f602 2116 9299 7815 caa9 7e13
00000050: 38b6 9614 79f7 b513 14ef 2515 fe5f d20f
00000060: 7bff 1416 96a3 0315 490b e915 9563 8912
00000070: dafb 3011 4423 0e17 e1f1 c214 e197 7c0e

exp_avg f4 [64, 288]
0.0 0.0 0.0 0.0 0.0 0.0 0.0 0.0
0.0 0.0 -0.0 -0.0 -0.0 -0.0 -0.0 -0.0
-0.0 0.0 0.0 0.0 -0.0 0.0 -0.0 0.0
-0.0 0.0 -0.0 -0.0 -0.0 0.0 0.0 -0.0
0.0 -0.0 0.0 0.0 -0.0 0.0 0.0 -0.0
0.0 -0.0 -0.0 -0.0 0.0 -0.0 -0.0 0.0
-0.0 -0.0 0.0 0.0 -0.0 -0.0 0.0 0.0
0.0 0.0 0.0 0.0 0.0 -0.0 0.0 0.0
-0.0 -0.0 0.0 0.0 0.0 -0.0 -0.0 0.0
-0.0 -0.0 -0.0 0.0 0.0 -0.0 -0.0 -0.0
0.0 -0.0 -0.0 0.0 -0.0 0.0 -0.0 0.0
-0.0 -0.0 0.0 0.0 0.0 -0.0 -0.0 0.0
-0.0 0.0 0.0 -0.0 -0.0 -0.0 -0.0 -0.0
-0.0 -0.0 -0.0 -0.0 -0.0 -0.0 0.0 0.0
0.0 0.0 0.0 0.0 0.0 0.0 0.0 0.0
0.0 0.0 0.0 0.0 0.0 0.0 0.0 0.0
0.0 0.0 0.0 0.0 0.0 0.0 -0.0 -0.0
-0.0 -0.0 -0.0 0.0 0.0 0.0 -0.0 0.0
0.0 0.0 0.0 0.0 0.0 0.0 0.0 -0.0
0.0 0.0 -0.0 -0.0 0.0 0.0 0.0 0.0
0.0 -0.0 0.0 0.0 0.0 0.0 -0.0 0.0
0.0 0.0 -0.0 -3e-45 0.0 -0.0 -0.0 0.0
0.0 -0.0 -0.0 0.0 0.0 -0.0 0.0 -0.0
0.0 0.0 0.0 -0.0 0.0 0.0 -0.0 -0.0
-0.0 0.0 0.0 -0.0 0.0 -0.0 -0.0 0.0
0.0 0.0 -0.0 0.0 0.0 -0.0 -0.0 -0.0
-0.0 -0.0 -0.0 -0.0 -0.0 -0.0 -0.0 -0.0
-0.0 0.0 -0.0 0.0 -0.0 -0.0 -0.0 -0.0
0.0 0.0 0.0 -0.0 -0.0 0.0 -0.0 -0.0
0.0 -0.0 0.0 0.0 -0.0 -0.0 -0.0 -0.0
-0.0 0.0 -0.0 0.0 0.0 0.0 0.0 0.0
0.0 0.0 0.0 0.0 -0.0 -0.0 -0.0 -0.0
00000000: 0000 0000 0000 0000 0000 0000 0000 0000
00000010: 0000 0000 0000 0000 0000 0000 0000 0000
00000020: 0000 0000 0000 0000 0000 0080 0000 0080
00000030: 0000 0080 0000 0080 0000 0080 0000 0080
00000040: 0000 0080 0000 0000 0000 0000 0000 0000
00000050: 0000 0080 0000 0000 0000 0080 0000 0000
00000060: 0000 0080 0000 0000 0000 0080 0000 0080
00000070: 0000 0080 0000 0000 0000 0000 0000 0080
00000080: 0000 0000 0000 0080 0000 0000 0000 0000
00000090: 0000 0080 0000 0000 0000 0000 0000 0080
000000a0: 0000 0000 0000 0080 0000 0080 0000 0080
000000b0: 0000 0000 0000 0080 0000 0080 0000 0000
000000c0: 0000 0080 0000 0080 0000 0000 0000 0000
000000d0: 0000 0080 0000 0080 0000 0000 0000 0000
000000e0: 0000 0000 0000 0000 0000 0000 0000 0000
000000f0: 0000 0000 0000 0080 0000 0000 0000 0000
00000100: 0000 0080 0000 0080 0000 0000 0000 0000
00000110: 0000 0000 0000 0080 0000 0080 0000 0000
00000120: 0000 0080 0000 0080 0000 0080 0000 0000
00000130: 0000 0000 0000 0080 0000 0080 0000 0080
00000140: 0000 0000 0000 0080 0000 0080 0000 0000
00000150: 0000 0080 0000 0000 0000 0080 0000 0000
00000160: 0000 0080 0000 0080 0000 0000 0000 0000
00000170: 0000 0000 0000 0080 0000 0080 0000 0000
00000180: 0000 0080 0000 0000 0000 0000 0000 0080
00000190: 0000 0080 0000 0080 0000 0080 0000 0080
000001a0: 0000 0080 0000 0080 0000 0080 0000 0080
000001b0: 0000 0080 0000 0080 0000 0000 0000 0000
000001c0: 0000 0000 0000 0000 0000 0000 0000 0000
000001d0: 0000 0000 0000 0000 0000 0000 0000 0000
000001e0: 0000 0000 0000 0000 0000 0000 0000 0000
000001f0: 0000 0000 0000 0000 0000 0000 0000 0000
00000200: 0000 0000 0000 0000 0000 0000 0000 0000
00000210: 0000 0000 0000 0000 0000 0080 0000 0080
00000220: 0000 0080 0000 0080 0000 0080 0000 0000
00000230: 0000 0000 0000 0000 0000 0080 0000 0000
00000240: 0000 0000 0000 0000 0000 0000 0000 0000
00000250: 0000 0000 0000 0000 0000 0000 0000 0080
00000260: 0000 0000 0000 0000 0000 0080 0000 0080
00000270: 0000 0000 0000 0000 0000 0000 0000 0000
00000280: 0000 0000 0000 0080 0000 0000 0000 0000
00000290: 0000 0000 0000 0000 0000 0080 0000 0000
000002a0: 0000 0000 0000 0000 0000 0080 0200 0080
000002b0: 0000 0000 0000 0080 0000 0080 0000 0000
000002c0: 0000 0000 0000 0080 0000 0080 0000 0000
000002d0: 0000 0000 0000 0080 0000 0000 0000 0080
000002e0: 0000 0000 0000 0000 0000 0000 0000 0080
000002f0: 0000 0000 0000 0000 0000 0080 0000 0080
00000300: 0000 0080 0000 0000 0000 0000 0000 0080
00000310: 0000 0000 0000 0080 0000 0080 0000 0000
00000320: 0000 0000 0000 0000 0000 0080 0000 0000
00000330: 0000 0000 0000 0080 0000 0080 0000 0080
00000340: 0000 0080 0000 0080 0000 0080 0000 0080
00000350: 0000 0080 0000 0080 0000 0080 0000 0080
00000360: 0000 0080 0000 0000 0000 0080 0000 0000
00000370: 0000 0080 0000 0080 0000 0080 0000 0080
00000380: 0000 0000 0000 0000 0000 0000 0000 0080
00000390: 0000 0080 0000 0000 0000 0080 0000 0080
000003a0: 0000 0000 0000 0080 0000 0000 0000 0000
000003b0: 0000 0080 0000 0080 0000 0080 0000 0080
000003c0: 0000 0080 0000 0000 0000 0080 0000 0000
000003d0: 0000 0000 0000 0000 0000 0000 0000 0000
000003e0: 0000 0000 0000 0000 0000 0000 0000 0000
000003f0: 0000 0080 0000 0080 0000 0080 0000 0080
