model_checkpoint.pth (torch, 308058 bytes, 36 tensors)

raycast_branch.0.weight f4 [16, 1, 3]
00000000: 94c4 ce3d d7cc ba3e 4b67 f6be 4d6e 743f
00000010: d604 b4be 3a19 5d3e 1789 0080 548a 0080
00000020: ba89 0080 33d2 1ebf 3ab1 d03f 7a4c adbd
00000030: db85 f83e c7fb 3a3f ec8b 743e b28b 0080
00000040: 9189 0000 b693 0080 f71e 19bf c56d 05bf
00000050: f0f3 16bf d1c4 29bf 6ae9 75be 3e75 2d3f
00000060: c98a 0080 9189 0080 aa8a 0080 f588 0080
00000070: 308a 0080 788a 0080 088a 0080 e189 0080
00000080: 8a89 0080 3e8a 0080 a5a4 0080 7a89 0000
00000090: bdd7 883d e080 863f d111 ccbe 898a 0080
000000a0: b689 0080 918a 0080 b48a 0080 a38a 0080
000000b0: ea89 0080 ed89 0080 2989 0080 478a 0080
0.10096088 0.36484405 -0.4812568 0.95480806 -0.3515994 0.21591654 -4.9179e-41 -4.9623e-41
-4.9407e-41 -0.6203949 1.6304085 -0.08461852 0.48539624 0.7304043 0.23881501 -5.0113e-41
4.935e-41 -5.2989e-41 -0.59812874 -0.5212062 -0.5896597 -0.66315943 -0.24014822 0.6775702
-4.9787e-41 -4.935e-41 -4.9743e-41 -4.9131e-41 -4.9572e-41 -4.9673e-41 -4.9516e-41 -4.9462e-41
-4.934e-41 -4.9592e-41 -5.9063e-41 4.9317e-41 0.06681774 1.050808 -0.39857343 -4.9697e-41
-4.9401e-41 -4.9708e-41 -4.9757e-41 -4.9733e-41 -4.9474e-41 -4.9478e-41 -4.9204e-41 -4.9605e-41

raycast_branch.0.bias f4 [16]
00000000: a0b3 cb3d 2e93 d4be e188 0080 78a9 b8be
00000010: 18d9 43bf e388 0080 77b5 883f 0f3c 643e
00000020: fd88 0080 e688 0080 2489 0080 c088 0000
00000030: c8c4 72be 94a9 0080 aa89 0080 2d8a 0000
0.0994637 -0.4151854 -4.9103e-41 -0.36066794 -0.76503134 -4.9106e-41 1.0680379 0.22288536
-4.9142e-41 -4.911e-41 -4.9197e-41 4.9057e-41 -0.23707879 -6.0833e-41 -4.9385e-41 4.9568e-41

raycast_branch.3.weight f4 [32, 16, 3]
00000000: 66af 4fb5 f14a 85b5 5087 b3b5 539a 87b5
00000010: 4ecb 9bb5 bdbb a6b5 e488 0080 208a 0000
00000020: 418a 0080 81e9 78b6 781a c8b5 2311 e9b5
00000030: abf5 01b6 a02e deb5 6455 ebb5 4089 0080
00000040: 7289 0080 fc88 0080 5cdc f4b5 56b0 b233
00000050: efa9 3ab4 1e86 78b6 bb53 f2b4 81e0 47b3
00000060: 9f8d 0000 989e 0000 91a0 0000 9393 0080
00000070: 998d 0000 6c92 0080 d8a0 0000 10ab 0000
00000080: 5da3 0080 d6a3 0080 5e9e 0000 b08f 0080
00000090: 0e0a 07b6 f353 e4b5 c894 05b6 efac 0000
000000a0: 83a0 0080 83a0 0080 9a8a 0000 3a89 0000
000000b0: 0d8b 0000 ba88 0000 b988 0080 15ab 0000
000000c0: 9641 c33e 504c 3dbd 15dc 57be 4bea 83bd
000000d0: 490f 253e 0b33 b9be 6e8c 0000 c68b 0000
000000e0: 8f89 0080 3576 843d 47d1 dcbe 0836 133f
000000f0: e63a 0abe e53e 1ebf 24fc 71be b98a 0000
00000100: bc8a 0000 f68b 0000 ba55 343e 4af8 233f
00000110: 02c7 0a3e e009 21be 1964 973e b94d 6f3d
00000120: cb88 0000 af8a 0080 5889 0000 118a 0080
00000130: 3d8b 0000 b99a 0000 4d8c 0080 ce8e 0080
00000140: d29b 0000 3e10 0400 4f5b 0400 8b9b 0200
00000150: ae78 0a3f c287 e7be 1395 6bbd 678b 0000
00000160: 628c 0080 e78b 0000 b08a 0080 d08a 0000
00000170: 4a8c 0000 348a 0080 f288 0080 e98a 0000
00000180: 6d64 a9b9 c585 dcb9 d856 ccb9 efb0 bab9
00000190: f0df ccb9 c0ec b6b9 a8a1 0080 c2a0 0000
000001a0: c799 0000 de56 14ba 228a 11ba 6acd fcb9
000001b0: 66d9 dfb9 7276 eeb9 c833 d0b9 8089 0080
000001c0: ec89 0080 798c 0080 4875 77b9 775f e7b9
000001d0: b14f 85b9 9534 dab9 55a3 e5b9 c002 a4b9
000001e0: bd88 0080 bc88 0080 d988 0000 1394 0080
000001f0: 6089 0080 d892 0000 88a1 0080 a589 0080
00000200: efa0 0000 1c93 0000 7c90 0080 5b95 0000
00000210: a823 ffb9 4045 0aba c444 feb9 069e 0080
00000220: 069e 0080 2796 0000 5a94 0000 88af 0000
00000230: 5d94 0080 979e 0000 118a 0080 3889 0080
00000240: 2f89 0080 1589 0080 9289 0080 5e89 0000
00000250: cf88 0080 8489 0080 d79c 0080 5289 0080
00000260: a19c 0080 e988 0080 8b89 0080 e389 0080
00000270: 6589 0000 1989 0000 b289 0000 a89b 0080
00000280: 019b 0080 eba9 0080 f388 0080 f688 0080
00000290: e288 0080 8d89 0080 ef88 0080 bc89 0080
000002a0: 29a9 0080 1e9d 0080 529a 0000 108a 0080
000002b0: 7fad 0080 9d8b 0080 dc9c 0080 3998 0080
000002c0: 1cab 0000 0ea0 0080 c48b 0080 ffa0 0080
000002d0: 8b89 0080 cf88 0080 1389 0080 148d 0000
000002e0: 09a1 0000 a38f 0080 1b8a 0080 ac89 0080
000002f0: ca88 0080 8c89 0080 d188 0080 c1ad 0080
00000300: 658f 82bc 140c 6ebe 2d73 763d f838 3abe
00000310: f399 8b3c 4ac7 c0bc 8c8c 0000 2b90 0080
00000320: c98f 0000 5ce5 b6bd 4feb 14be c5a3 2a3f
00000330: 28be 58be 24b1 25be 832b 2e3e 9591 0000
00000340: fa8a 0080 ed8d 0080 eaa3 e03e 23ed aa3e
00000350: 0524 00be a848 2f3e 5701 593e f556 fc3e
00000360: 918d 0080 c48a 0080 bb89 0080 2c8c 0000
00000370: 5989 0000 bf8b 0000 b28e 0080 5f92 0080
00000380: 1289 0080 4571 0080 c412 0080 4d10 0080
00000390: 0929 52be 220b bdbe 9abd b73e 5889 0080
000003a0: 5b89 0000 f588 0000 5d94 0080 538c 0000
000003b0: d78d 0000 f689 0080 e18c 0000 30a3 0080
000003c0: 72bd 0fba 88c3 2aba d6f3 17ba c269 16ba
000003d0: 4e57 28ba ac0a 1fba fa94 0000 cfac 0000
000003e0: cfac 0000 ca70 37ba c5f8 42ba c79b 4aba
000003f0: 4138 39ba bc9c 43ba 2848 48ba 308a 0000
-7.736875e-07 -9.931083e-07 -1.337592e-06 -1.0103198e-06 -1.1607569e-06 -1.2422603e-06 -4.9107e-41 4.955e-41
-4.9596e-41 -3.7090797e-06 -1.4908865e-06 -1.736484e-06 -1.9365496e-06 -1.6553859e-06 -1.7533716e-06 -4.9236e-41
-4.9306e-41 -4.9141e-41 -1.824355e-06 8.320846e-08 -1.7384421e-07 -3.7032946e-06 -4.5136935e-07 -4.6537483e-08
5.0804e-41 5.6893e-41 5.76e-41 -5.294e-41 5.0796e-41 -5.2526e-41 5.77e-41 6.1366e-41
-5.8604e-41 -5.8773e-41 5.6811e-41 -5.1545e-41 -2.012242e-06 -1.7011756e-06 -1.9905146e-06 6.2037e-41
-5.7581e-41 -5.7581e-41 4.9721e-41 4.9228e-41 4.9882e-41 4.9048e-41 -4.9047e-41 6.1373e-41
0.38135976 -0.046215355 -0.21080048 -0.06441172 0.16119112 -0.36171755 5.0377e-41 5.0141e-41
-4.9347e-41 0.06467859 -0.43128416 0.5750432 -0.1349903 -0.6181472 -0.2363134 4.9764e-41
4.9769e-41 5.0209e-41 0.17610827 0.64050734 0.13552478 -0.15726423 0.29568556 0.05842373
4.9072e-41 -4.975e-41 4.927e-41 -4.9529e-41 4.9949e-41 5.5504e-41 -5.033e-41 -5.1229e-41
5.5898e-41 3.73169e-40 4.00097e-40 2.39469e-40 0.5409039 -0.45220762 -0.057515215 5.0008e-41
-5.036e-41 5.0188e-41 -4.9752e-41 4.9797e-41 5.0326e-41 -4.9578e-41 -4.9127e-41 4.9832e-41
-0.00032309015 -0.00042061336 -0.00038974616 -0.0003560851 -0.0003907676 -0.00034890138 -5.7991e-41 5.7669e-41
5.5165e-41 -0.0005658696 -0.00055518944 -0.0004821823 -0.0004269585 -0.00045483146 -0.00039711432 -4.9326e-41
-4.9477e-41 -5.0392e-41 -0.00023599446 -0.0004413088 -0.00025427112 -0.00041619377 -0.00043799976 -0.00031282566
-4.9052e-41 -4.9051e-41 4.9092e-41 -5.3119e-41 -4.9281e-41 5.2678e-41 -5.7946e-41 -4.9378e-41
5.7732e-41 5.2773e-41 -5.1831e-41 5.3579e-41 -0.00048663956 -0.0005274601 -0.0004849789 -5.6688e-41
-5.6688e-41 5.3865e-41 5.3219e-41 6.2969e-41 -5.3223e-41 5.6891e-41 -4.9529e-41 -4.9225e-41
-4.9212e-41 -4.9176e-41 -4.9351e-41 4.9278e-41 -4.9078e-41 -4.9331e-41 -5.6264e-41 -4.9261e-41
-5.6188e-41 -4.9114e-41 -4.9341e-41 -4.9464e-41 4.9288e-41 4.9181e-41 4.9396e-41 -5.5839e-41
-5.5605e-41 -6.0955e-41 -4.9128e-41 -4.9132e-41 -4.9104e-41 -4.9344e-41 -4.9123e-41 -4.941e-41
-6.0683e-41 -5.6363e-41 5.536e-41 -4.9527e-41 -6.2239e-41 -5.0084e-41 -5.627e-41 -5.4607e-41
6.1382e-41 -5.7417e-41 -5.0138e-41 -5.7755e-41 -4.9341e-41 -4.9078e-41 -4.9173e-41 5.0609e-41
5.7769e-41 -5.1527e-41 -4.9543e-41 -4.9387e-41 -4.907e-41 -4.9343e-41 -4.908e-41 -6.2331e-41
-0.015937516 -0.23246795 0.060168434 -0.18185794 0.017041182 -0.023532528 5.0419e-41 -5.1718e-41
5.158e-41 -0.089304656 -0.14542888 0.6665614 -0.21166289 -0.16180855 0.17008786 5.2225e-41
-4.9855e-41 -5.0913e-41 0.43875057 0.33384046 -0.1251374 0.1711756 0.21191917 0.49285093
-5.0784e-41 -4.978e-41 -4.9408e-41 5.0284e-41 4.9271e-41 5.0131e-41 -5.119e-41 -5.2508e-41
-4.9172e-41 -4.0633e-41 -6.732e-42 -5.848e-42 -0.20523466 -0.36922556 0.35886842 -4.927e-41
4.9274e-41 4.9131e-41 -5.3223e-41 5.0339e-41 5.0883e-41 -4.9491e-41 5.0538e-41 -5.854e-41
-0.00054832466 -0.0006514122 -0.0005796527 -0.0005737805 -0.0006421701 -0.0006066959 5.3443e-41 6.1992e-41
6.1992e-41 -0.0006997703 -0.0007437582 -0.0007728901 -0.00070655724 -0.0007462015 -0.00076401467 4.9572e-41

raycast_branch.3.bias f4 [32]
00000000: 08a3 33b6 382f 243e 1c1f 33ba d388 0000
00000010: 30d1 00bf 480a 5dba a191 1eb8 ebf7 9aa6
00000020: e588 0080 bf89 0000 4461 e3b6 f688 0000
00000030: 3a22 51b0 5e34 d790 951c bfb7 bbac 26ba
00000040: 5032 91b8 8bd0 cbb0 d61e 0080 9c55 98be
00000050: 9de1 37be aef7 d6a3 09c8 9bb9 fa88 0000
00000060: c789 0080 e5be d33c c888 0000 73fe afb9
00000070: 8e89 0000 30cf 3eae 802c 64ba 81b8 d8be
-2.6767975e-06 0.16033638 -0.0006832944 4.9083e-41 -0.50319195 -0.0008432013 -3.7805763e-05 -1.0753095e-15
-4.9109e-41 4.9414e-41 -6.7764504e-06 4.9132e-41 -7.6082396e-10 -8.488323e-29 -2.2782284e-05 -0.00063581363
-6.92351e-05 -1.4829465e-09 -1.1062e-41 -0.29752815 -0.17957158 -2.3306823e-17 -0.00029712942 4.9138e-41
-4.9425e-41 0.025847862 4.9068e-41 -0.0003356818 4.9345e-41 -4.3385018e-11 -0.0008704141 -0.42328265

other_branch.0.weight f4 [32, 1]
00000000: 2e89 0000 5ccd 083f 8589 0080 3ca6 86bf
00000010: 6f9f 87bf 3292 163f 8cce 143f 7ecb 123f
00000020: dd88 0000 cd47 053f ebcc fcbe e73c 143f
00000030: 48c3 87bf 41d4 87bf bc5c 073f 9b8a 0080
00000040: 128b 0080 378b 0080 e70a 88bf a826 f6be
00000050: f3de 053f 2acf fdbe bd88 0080 8f89 0000
00000060: 1c89 0080 2937 00bf 798c 0000 328b 0080
00000070: f39b 88bf 03a9 06bf 1f89 0000 b48d 0000
4.9211e-41 0.53438354 -4.9333e-41 -1.0519481 -1.059553 0.58816826 0.58127666 0.57341754
4.9097e-41 0.52062684 -0.4937509 0.5790543 -1.060647 -1.061165 0.52875876 -4.9722e-41
-4.9889e-41 -4.9941e-41 -1.0628327 -0.48076367 0.5229332 -0.49572116 -4.9052e-41 4.9347e-41
-4.9186e-41 -0.5008417 5.0392e-41 -4.9934e-41 -1.0672592 -0.5260164 4.919e-41 5.0834e-41

other_branch.0.bias f4 [32]
00000000: c0a7 0080 657d 62be 01aa 0080 9d11 cf3c
00000010: 73b7 ce3c 811a abbe 56e9 b0be 57aa a7be
00000020: b595 0080 5315 5bbe 9b7e 4f3e a549 aebe
00000030: 53bf d53c 6cd8 cd3c 797a 60be d888 0080
00000040: d689 0080 6889 0080 9801 cb3c c374 3a3e
00000050: decc 55be ae2b 4f3e 9fa1 0080 ae89 0080
00000060: 8289 0080 0edb 513e 139a 0080 e6a0 0080
00000070: 11a2 cf3c 4287 233e dd89 0080 a79e 0080
-6.0177e-41 -0.22118147 -6.0986e-41 0.025276953 0.02523396 -0.33418658 -0.3455302 -0.32747146
-5.3705e-41 -0.21394853 0.2026314 -0.3404056 0.026092207 0.025127612 -0.2192172 -4.909e-41
-4.9446e-41 -4.9292e-41 0.024781033 0.18208604 -0.20878932 0.20231506 -5.7979e-41 -4.939e-41
-4.9329e-41 0.20493719 -5.5271e-41 -5.772e-41 0.025345834 0.15969566 -4.9456e-41 -5.6914e-41

common_layers.0.weight f4 [64, 320]
00000000: 45ba 2319 7e58 0119 a235 1819 aebf 2719
00000010: d35b 3219 2ab6 2e19 9875 1f19 1319 0f19
00000020: 91cd 1919 6b75 203c 91cc b1ba 9d83 2dbe
00000030: a0f3 2a3e ab8d fcbd a518 e03d 6072 1d3e
00000040: 9f7d 2f3d 3fd4 f63c b213 4835 23b6 a336
00000050: 5a4f 5c35 5d07 6734 810b c533 77b3 6234
00000060: 6f6a 2d35 181f da35 f0e2 0b34 7398 0000
00000070: 669b 0000 1e93 0000 1f95 0000 e196 0000
00000080: 2497 0000 db90 0000 c494 0000 e39c 0000
00000090: 2b28 00be c356 dd3a 9f29 a23c 0725 15bc
000000a0: bfbd 733a 7b01 60bd 4293 42bd e1c2 0a3d
000000b0: a150 00bc 4609 9cb9 826f 04ba a09f b6b9
000000c0: 1dcb a0b9 a1ce 8ab9 b415 77b9 d9c4 7db9
000000d0: 3577 ceb9 8613 7eb9 3489 0080 a089 0080
000000e0: f388 0080 c688 0080 fd88 0080 c889 0080
000000f0: ad89 0080 1189 0080 fb88 0080 15ac 361f
00000100: 2321 821f d9e7 391f 7151 171f 43ea d0a1
00000110: 44b8 23a1 5d8c 211f 9ae6 371f 9efe 081f
00000120: 088b 0080 9293 0000 0d8d 0080 7e8b 0080
00000130: 048a 0080 6fab 0000 0a9d 0080 408e 0080
00000140: 1389 0080 3191 0080 ec8a 0080 a089 0000
00000150: 6a89 0000 df89 0000 6689 0000 1e89 0000
00000160: 3291 0080 9989 0000 b289 0000 be88 0000
00000170: 1489 0000 b489 0000 4289 0000 3689 0000
00000180: d288 0000 6589 0000 9589 0000 b589 0000
00000190: bf90 0000 1292 0000 668b 0080 4692 0080
000001a0: 4990 0080 5393 0000 b48b 0080 d988 0080
000001b0: 738f 0000 788a 0000 eb8d 0000 0d8e 0000
000001c0: 8c8d 0080 ec8e 0000 7291 0000 ec91 0000
000001d0: 0a8b 0080 f089 0000 6989 0000 6d89 0000
000001e0: f289 0000 d088 0000 1589 0000 ec88 0000
000001f0: f689 0000 8d89 0000 d289 0000 fd26 4d03
00000200: 4048 0689 531f 0b10 4271 6c8b 7b89 0080
00000210: 748c 0000 5289 0000 fb88 0080 bad5 272e
00000220: 8d9e 2731 100c fe2c f28f cd1c a48c b6aa
00000230: edb3 08af 9018 60aa 7d3e 35ad be84 db2c
00000240: f489 0080 db89 0080 d489 0080 7c89 0080
00000250: 6889 0080 2e89 0080 f788 0080 8f89 0080
00000260: 6989 0080 4289 0080 df88 0080 608c 0080
00000270: 298d 0080 318d 0000 8c89 0080 2889 0000
00000280: 758c 0080 e989 0000 ed89 0000 1a89 0000
00000290: 0589 0000 0089 0000 c489 0000 2489 0000
000002a0: dd88 0000 e989 0000 7d89 0000 0b8e 393d
000002b0: 56e7 3f3b 35a2 1dbd 81be 3fbc 886c ef3c
000002c0: 6a21 ac3c ad7f 2b3d 4c33 c63c b86d da3c
000002d0: 2e14 9cbd c4e4 d1b9 b730 783c 1926 32bc
000002e0: 3b08 ce3b 62f9 3fbc 1e71 babd 645b 8abd
000002f0: 069f 0080 68a0 0000 7a8a 0080 eb89 0000
00000300: b08a 0000 438a 0080 c488 0000 b089 0080
00000310: c68a 0000 e792 0080 f589 0000 ca89 0080
00000320: 5a89 0000 e188 0000 5989 0000 da88 0000
00000330: 7f89 0000 8b89 0080 d688 0080 4791 0080
00000340: 7b9a 0000 0f92 0080 d191 0080 1c90 0080
00000350: 488f 0080 988f 0080 da92 0080 b091 0080
00000360: c38b 0000 f088 0000 6d8a 0080 528b 0080
00000370: 058b 0000 4d89 0000 018b 0080 178a 0080
00000380: bb88 0000 d489 0080 6853 4eb9 9979 583c
00000390: 4d8b 653d 7745 24bc 918e eb3d 3bbe 89bb
000003a0: f002 4bbc 4fb5 af3b d488 0000 ee88 0000
000003b0: 8d89 0000 7389 0000 6e89 0000 4f89 0000
000003c0: 9889 0000 f288 0000 3b89 0000 8dbd 763a
000003d0: 61ee 713a 3150 513a cd46 3c3a 639a 353a
000003e0: e0bd 3d3a f2ae 463a c5ba 543a 4e6a 553a
000003f0: 5a8f 0000 9291 0080 bd8e 0000 248d 0000
8.464519e-24 6.6870145e-24 7.869047e-24 8.672407e-24 9.220928e-24 9.032377e-24 8.243855e-24 7.3979904e-24
7.9514284e-24 0.00979362 -0.0013564994 -0.16944738 0.16694498 -0.123317085 0.109422006 0.15375662
0.04284441 0.030130504 7.4534466e-07 4.878982e-06 8.207186e-07 2.151623e-07 9.17562e-08 2.1113179e-07
6.4602403e-07 1.6251315e-06 1.3027943e-07 5.4688e-41 5.5746e-41 5.2776e-41 5.3495e-41 5.4125e-41
5.4219e-41 5.1964e-41 5.3367e-41 5.628e-41 -0.12515323 0.0016886819 0.019795237 -0.009103066
0.0009297989 -0.054688912 -0.047503717 0.033877257 -0.007831723 -0.00029761548 -0.00050520163 -0.00034832675
-0.0003066891 -0.00026475362 -0.0002356384 -0.00024201292 -0.00039380198 -0.000242306 -4.9219e-41 -4.937e-41
-4.9128e-41 -4.9065e-41 -4.9142e-41 -4.9427e-41 -4.9389e-41 -4.917e-41 -4.914e-41 3.8682342e-20
5.511196e-20 3.9367054e-20 3.204286e-20 -1.4156637e-18 -5.547042e-19 3.4209182e-20 3.8942506e-20 2.9009735e-20
-4.9875e-41 5.2938e-41 -5.06e-41 -5.004e-41 -4.951e-41 6.1499e-41 -5.6335e-41 -5.103e-41
-4.9173e-41 -5.2085e-41 -4.9836e-41 4.937e-41 4.9295e-41 4.9459e-41 4.9289e-41 4.9188e-41
-5.2086e-41 4.9361e-41 4.9396e-41 4.9054e-41 4.9174e-41 4.9399e-41 4.9239e-41 4.9222e-41
4.9082e-41 4.9288e-41 4.9355e-41 4.94e-41 5.1925e-41 5.24e-41 -5.0007e-41 -5.2473e-41
-5.176e-41 5.285e-41 -5.0116e-41 -4.9092e-41 5.146e-41 4.9673e-41 5.091e-41 5.0958e-41
-5.0777e-41 5.1271e-41 5.2176e-41 5.2347e-41 -4.9878e-41 4.9483e-41 4.9293e-41 4.9299e-41
4.9485e-41 4.9079e-41 4.9176e-41 4.9118e-41 4.9491e-41 4.9344e-41 4.944e-41 6.028884e-37
-1.6163635e-33 2.7437048e-29 -4.5537152e-32 -4.9319e-41 5.0385e-41 4.9261e-41 -4.914e-41 3.816123e-11
2.4391824e-09 7.2204534e-12 1.3602971e-21 -3.2427284e-13 -1.243305e-10 -1.9903718e-13 -1.0302534e-11 6.2390917e-12
-4.9488e-41 -4.9453e-41 -4.9443e-41 -4.932e-41 -4.9292e-41 -4.9211e-41 -4.9134e-41 -4.9347e-41
-4.9293e-41 -4.9239e-41 -4.91e-41 -5.0357e-41 -5.0639e-41 5.065e-41 -4.9343e-41 4.9202e-41
-5.0386e-41 4.9473e-41 4.9478e-41 4.9183e-41 4.9153e-41 4.9146e-41 4.9421e-41 4.9197e-41
4.9097e-41 4.9473e-41 4.9322e-41 0.04530148 0.0029282174 -0.03848477 -0.0117031345 0.029226556
0.021012027 0.041869808 0.024194382 0.026663646 -0.076210365 -0.0004003403 0.015148333 -0.010873341
0.0062876022 -0.011717172 -0.09103607 -0.06755713 -5.7047e-41 5.7543e-41 -4.9676e-41 4.9476e-41
4.9752e-41 -4.9599e-41 4.9062e-41 -4.9393e-41 4.9783e-41 -5.2699e-41 4.949e-41 -4.943e-41
4.9272e-41 4.9103e-41 4.9271e-41 4.9093e-41 4.9324e-41 -4.9341e-41 -4.9087e-41 -5.2116e-41
5.5417e-41 -5.2396e-41 -5.2309e-41 -5.1697e-41 -5.14e-41 -5.1512e-41 -5.268e-41 -5.2263e-41
5.0137e-41 4.9124e-41 -4.9658e-41 -4.9979e-41 4.9871e-41 4.9254e-41 -4.9865e-41 -4.9537e-41
4.905e-41 -4.9443e-41 -0.00019676762 0.013212585 0.05604105 -0.010026327 0.11501802 -0.0042035854
-0.012390837 0.00536219 4.9085e-41 4.9121e-41 4.9344e-41 4.9307e-41 4.93e-41 4.9257e-41
4.936e-41 4.9127e-41 4.9229e-41 0.00094124005 0.00092289416 0.0007984667 0.0007182181 0.00069276075
0.00072380714 0.00075791695 0.0008114989 0.0008141146 5.1425e-41 -5.2221e-41 5.1205e-41 5.0632e-41

common_layers.0.bias f4 [64]
00000000: 3097 1dbe ad1c 83bd 79bf 2abe 6f57 e7bb
00000010: 2b90 94bd deb4 d5bd e239 993c 256b 26be
00000020: ec3e 213d abba aa3c c4a0 95bd 24c5 afbc
00000030: ca69 f03a c7d8 fcbc 22bf 2c3d 264e eb3a
00000040: 3273 043d aa6b ca3a 3172 31bc b3db b6bc
00000050: 5f51 1f3d 8126 aabb 505b cdbc 4854 213c
00000060: ae00 d0bc 0e9d 80bd 1745 e7bc 2fd8 613d
00000070: 368c 8e3c 0c6f 543d a962 843b db68 1ebd
00000080: d893 a03d 3479 95bc 8f45 08bd 1d97 a3bd
00000090: d736 463c f278 b1bd 2da6 07be 8e35 83bd
000000a0: 3242 9d3b 000a a1bd 824f 24be 464c 003d
000000b0: 266c 773c 3879 66bd 14a4 debd 7a5e 1c3c
000000c0: 7a9c 9bbd 7798 f73c a32a a8bc 88b1 1dbe
000000d0: 3bd4 6c3d fbe1 003c bc94 533d 7fa7 bcbc
000000e0: 8825 da3c 129b f6bb 12a1 56bd ff01 0c3d
000000f0: 3ee6 9e3d 7036 5b3b a81d 813d 81aa f13c
-0.15389705 -0.06401954 -0.16674604 -0.0070599834 -0.0725406 -0.10434888 0.018704358 -0.1625181
0.039366648 0.020840963 -0.07306054 -0.021456309 0.0018342074 -0.030865086 0.042174466 0.0017952367
0.03233642 0.0015443463 -0.010830448 -0.022321558 0.03889596 -0.0051925783 -0.025067955 0.009846754
-0.02539095 -0.06279956 -0.028231187 0.05513781 0.017400842 0.051863715 0.0040400815 -0.038674217
0.07840699 -0.01824627 -0.03326946 -0.07987807 0.012098036 -0.086656466 -0.13246985 -0.06406699
0.004799151 -0.078632355 -0.16045955 0.03132274 0.015101468 -0.056267947 -0.10871139 0.009544009
-0.07598205 0.030224068 -0.020528143 -0.15399754 0.057819586 0.007866378 0.051655516 -0.023029087
0.026629224 -0.00752581 -0.052399702 0.03418159 0.07758759 0.0033449195 0.063044846 0.029500248

common_layers.3.weight f4 [32, 64]
00000000: e87d fa3c 0877 dc3c 6025 89bd 449c 6f3d
00000010: 9392 b43c fdf4 5f3c 0ae4 5abb 375e 913b
00000020: b1b0 06be 2202 be3d a8a5 9cba 7954 48be
00000030: c4bb 703c bfd2 4438 3fdc abbe 69a0 4d3e
00000040: e9bd 7a3d 6c6c 163d af2b c53d 32be debd
00000050: 55b3 30be 3f1b 623d 002a 203c 2e9f 3c3e
00000060: 5aca 46be 442c d73c 9c43 1bbe 3d21 c3bc
00000070: 13db 33be ce2b 03be 0d3c 933d 49fe 5ebc
00000080: 3d53 503d 255f 823d b40f b9bd a93d a5bd
00000090: 8878 5dbe 4067 f13c 6619 723d 436e 663a
000000a0: a53c e23c 6eb6 afbc fd30 06be e092 15bc
000000b0: 402c 59be a3cf 7f3c 15de 2d3d 601f e3bd
000000c0: 6ef5 213d d390 ba3c fba7 033d 63bf 403d
000000d0: 45e4 ac3b e282 cc3c 68a7 0cbe 0f6d 27be
000000e0: 9022 753d ac74 fcbb ea61 45bd bede 40be
000000f0: 9140 08bb 9e12 48be d55e 523d a3f5 39be
00000100: 138e 0d3e ed60 74ba 1f9e 793d 4dd0 c5bd
00000110: 85c6 f8bd 5260 623d 199c 1ebe d5f7 0ebe
00000120: 0f24 bc3c c65a 4cbe 454c ffbd 07b3 2bbe
00000130: db5c 81be ef7b a4bc e523 f23c 0011 27be
00000140: 8d4e 8a3b a51b 78be 160a ac3b 5438 e93d
00000150: 72b4 48bd c5e1 8abc 828a 05be dafc 28be
00000160: c354 623d b1ab 0cbe 8e9f 203d bbc2 11be
00000170: bf01 8b3d 6249 50bd 78dc b13b ba88 97bd
00000180: 9d86 74be 9dcd 8b3d 22fb 0d3e 5807 01be
00000190: 03a2 1e3c d8ce 823d 2126 9c3d 24b1 8c3d
000001a0: 83c4 1a3c 2a4a 2f3d e2d2 783d ed75 11be
000001b0: 9915 253d ba76 1abe 183b 3f3d 5da7 4e3d
000001c0: 879f a23d 1f5a 87be e32b 643d da7e 1dbe
000001d0: 852d 7ebe fd7d 153d ad00 cc3d a1c3 193d
000001e0: d876 193d fcab 1f3a 0b89 94bd 50d0 65bc
000001f0: 0a5e 73be f919 87bc 9d9d 71bd c82b f4bc
00000200: 88ab 8d3c 7681 af3d 3ae8 ed3c 9b34 c5bc
00000210: 09d3 553d 0ee2 19be ea45 17be 552a 003e
00000220: d093 293c 8b8c 48be f886 943d 6e7a 93bc
00000230: 08bb 153c fcc0 c7bd c715 0d3d 1ed7 28be
00000240: e7e1 ff3c 5a08 75be 33a2 2dbd a75b ee3d
00000250: 70c5 8d3c e781 09bd cc7c e43b d1cf 1dbe
00000260: 255c 113d c0ed 7e3d b055 423d ee49 05be
00000270: fcf9 693d 9a0e 31bd 144d c8bc 4a4f 0b3d
00000280: a8e0 75be 4902 043e eceb fa3d a074 1f3d
00000290: 5516 b43c 4ebd 34be a744 fdbd f857 903d
000002a0: 4fd9 d8bd f82a 0cbe a560 c53c 1b10 1bbe
000002b0: c957 2b3d 68d5 98bd b25c 01be ef6c 3e3d
000002c0: ecbb 2abe fe10 73be a880 d03c 1de8 6f3d
000002d0: 7ba5 5abe c1e5 78be 9c5d be3d 6da1 713d
000002e0: 8cba 143c a6de eabd 9af3 d13c f76e 6bbc
000002f0: 7b1a 84be a0ad 1abe 85be 63bd 60f4 06bd
00000300: 8aad a93c 179e 8d3d 62bf 29bd a90d 653d
00000310: c535 af3a f146 1dbe a895 25be 43ae 623d
00000320: 3dc3 243e 1c0f 4dbe 4e65 95bc cf5a 773d
00000330: b69b eb3c 8c82 cc3b 7c24 2d3d 1a67 7bbe
00000340: ea7d 103d b06d 34be 7b2a f9bc 08eb 143e
00000350: 6baa 0e3c 8e71 cabd dcd6 173d 697f 70be
00000360: 5202 9d3d 681b b13b cdf3 353e e17b 49be
00000370: ab3b e23d 924f 1bbd 482c e03d 14bb a7bc
00000380: 9b9e 39bd 368b 113e 07ad 183e 26a8 c43a
00000390: 5b90 e33d 1c3a 60be d9da f9bd 9b9f 7d3d
000003a0: 4183 71bd 4a4f a4bd 1eff 2cbd ddc8 42be
000003b0: 1f97 b63d 4ff8 03be 5987 12be 06c6 f93d
000003c0: 1c3a e2bd 6f11 d4bc 48b6 7bbd f09f 42bd
000003d0: f9b8 7fbc b69a 44be 6b5d 9c3e 6976 b63d
000003e0: 6b8f 283d 794c 08bd 1f0b 69bc 04fe 25bc
000003f0: a7d6 38bc 4b1d b93c 1e51 13be 5caa 17bc
0.030577615 0.026912227 -0.06696582 0.058498636 0.022042548 0.01366925 -0.0033400082 0.00443628
-0.1315334 0.092777506 -0.0011951225 -0.19563474 0.014693204 4.6926314e-05 -0.33566472 0.20080723
0.06121627 0.036724493 0.096274726 -0.108761206 -0.1725591 0.055201765 0.009775639 0.18420097
-0.19413128 0.026266225 -0.1516251 -0.02381956 -0.17564039 -0.12809679 0.07189188 -0.013610431
0.050860632 0.06365804 -0.09036198 -0.08068401 -0.2162801 0.029468179 0.059106253 0.0008790234
0.027616808 -0.021449294 -0.13104625 -0.009129256 -0.21208286 0.015613469 0.042448122 -0.11089969
0.0395407 0.022774136 0.03214262 0.04705752 0.0052762353 0.024964754 -0.13735735 -0.16350196
0.059847414 -0.007704338 -0.04818908 -0.1883497 -0.0020790438 -0.19538352 0.05135997 -0.18160109
0.13823728 -0.00093223044 0.06094181 -0.09658871 -0.121472396 0.05526764 -0.15489234 -0.13961728
0.022966413 -0.19956502 -0.12465719 -0.16767512 -0.25266156 -0.020078627 0.029558131 -0.16315079
0.0042207898 -0.24229296 0.005250226 0.11387697 -0.04900021 -0.016953358 -0.13041118 -0.16502705
0.055256616 -0.1373737 0.039214663 -0.1423444 0.067874424 -0.050851233 0.0054278933 -0.073991254
-0.23879476 0.06826327 0.13865331 -0.12600458 0.009682181 0.063871086 0.0762446 0.068697244
0.009446266 0.042795338 0.06074799 -0.14205141 0.0403038 -0.15084353 0.046687216 0.05045258
0.07940584 -0.26435944 0.055705916 -0.15380421 -0.24822052 0.036497105 0.099610664 0.037540082
0.037466854 0.00060909963 -0.07252701 -0.014026716 -0.23766342 -0.016491877 -0.058988202 -0.029806033
0.017293707 0.085696146 0.029041398 -0.024072936 0.052203212 -0.1502764 -0.14772764 0.12516148
0.010350183 -0.19584863 0.07252306 -0.018002715 0.00913883 -0.09753606 0.034444597 -0.1648831
0.031235648 -0.23928967 -0.042391013 0.11638575 0.01730606 -0.03357115 0.0069728848 -0.15411307
0.035488266 0.062238455 0.047445 -0.13016483 0.05712317 -0.043226816 -0.024450816 0.034011163
-0.24011481 0.12891497 0.1225203 0.03892958 0.021983305 -0.17650339 -0.1236661 0.07048029
-0.10588323 -0.13688266 0.024093935 -0.15142862 0.041831765 -0.07462579 -0.12633017 0.046490606
-0.16673249 -0.23736951 0.025451973 0.05857097 -0.21352188 -0.24306394 0.09295198 0.05899184
0.009077679 -0.11468248 0.025628854 -0.014369718 -0.25801453 -0.15105295 -0.055601615 -0.032947898
0.020712633 0.06914919 -0.041442282 0.05592123 0.0013367465 -0.15359093 -0.1617037 0.05534197
0.16090102 -0.20025295 -0.018236782 0.060389336 0.028760772 0.0062411483 0.042271122 -0.24551049
0.03527633 -0.17619967 -0.030415764 0.14542782 0.008707623 -0.0988494 0.03707014 -0.23486103
0.07666458 0.0054048784 0.17768784 -0.19676162 0.11046537 -0.03791768 0.10945946 -0.020474948
-0.045317274 0.14213261 0.14909755 0.0015003725 0.11111518 -0.21897167 -0.12199945 0.06191979
-0.058963064 -0.08022936 -0.042235486 -0.19021936 0.08915543 -0.12887691 -0.14309444 0.12195973
-0.1104624 -0.02588722 -0.061453134 -0.04751581 -0.015608066 -0.19199643 0.30540022 0.08909304
0.0411524 -0.033276055 -0.014223843 -0.010131363 -0.011281646 0.022596976 -0.14386413 -0.009256925

common_layers.3.bias f4 [32]
00000000: cc5a cf3c 97ad 153d dac3 0f3d 3454 c83c
00000010: ef5e bd3c 0361 b13b 8772 d13c 05e6 923c
00000020: c38f b43b 5360 aa3c 4c38 643c bca9 e53c
00000030: e53c 123d 1d5a 183d d2d0 c53a 3ec8 d93c
00000040: c45b 4c3c 77a3 153d 89d6 943c 1948 1a3c
00000050: fef1 e13c ccfe c43c 0eea c63c fcbf 013d
00000060: 865d b03c 2f5b 123d d598 103d 61a7 a73c
00000070: f66a 153d 1686 153d 6016 ad3c df9d e83c
0.02531185 0.0365425 0.035098888 0.024454214 0.023116557 0.005413176 0.025567306 0.017931947
0.005510302 0.020797884 0.013929438 0.028035037 0.035702605 0.037195314 0.001509214 0.02658474
0.0124730505 0.036532845 0.018168705 0.0094166035 0.027581211 0.024047278 0.024281528 0.03167723
0.02152897 0.03573149 0.035302002 0.020465555 0.03647896 0.036504827 0.021128833 0.028395591

common_layers.6.weight f4 [2, 32]
00000000: e565 053d 0f75 0e3f 6b40 01bf 99f1 88be
00000010: c3da b53e 3f69 3bbf dfc7 f33e a676 a53e
00000020: 1164 3cbf cb81 a2be 0994 30bf e863 67bc
00000030: befd f5be 71b6 eabe 1c45 353f 409d 1dbf
00000040: a838 2e3f b99a e93e f78e 243f 9c3c 2e3f
00000050: 4609 26bb 0b56 c9be 1f85 443e 71b6 0c3f
00000060: ca52 8ebc c03a 06bf a915 0d3f 50e3 27bf
00000070: 03b4 f3be 1769 f13e 349a 27be a1f4 b83b
00000080: 5a92 513f ae5b 36bf 6814 3bbf 198b 54bf
00000090: 3add 3dbf 5a38 853d 5900 28bf 677f 3b3f
000000a0: c75b b23d 231d 3b3f 31dc 133e be93 6d3f
000000b0: eb20 3dbf 2d60 44bf 5f0d 633d 76b4 f9be
000000c0: ae86 6c3e 0bd9 48bf dd18 5dbe 85ca 6e3d
000000d0: 025f 6d3f d1d3 49bf cbcc 54bf 1176 14bf
000000e0: e216 65bf 01f9 2dbf 4813 2dbf 0293 84be
000000f0: 3476 3bbf 9019 42bf b20c 423f fd7b 703f
0.032567877 0.5564737 -0.5048892 -0.26746824 0.35518464 -0.7320747 0.47613427 0.32317084
-0.7359019 -0.3173965 -0.68975884 -0.014122941 -0.48045152 -0.45842317 0.7080858 -0.6156807
0.680552 0.45625857 0.6428065 0.6806123 -0.0025335117 -0.39323458 0.19191407 0.54965883
-0.017373461 -0.52433395 0.55111176 -0.65581226 -0.47598276 0.4715049 -0.16367418 0.0056443964
0.8186394 -0.7123364 -0.7307801 -0.83024746 -0.7416569 0.06504889 -0.6562553 0.73241276
0.087089114 0.73091334 0.14439465 0.9280356 -0.73878354 -0.7670925 0.055432674 -0.48770493
0.23098251 -0.7845618 -0.21591516 0.058298606 0.92723095 -0.7883883 -0.8312499 -0.57992655
-0.8948804 -0.67958075 -0.67607546 -0.25893408 -0.7322724 -0.75820255 0.7580062 0.9393919

common_layers.6.bias f4 [2]
00000000: e447 ccbb 014c 2f3f
-0.006234156 0.6847535

exp_avg f4 [16, 1, 3]
00000000: 2d16 48bb bcbe 08bb 6a13 5bbb bc1f 3c3c
00000010: f11e 3d3c edc3 4c3c 0000 0080 0000 0080
00000020: 0000 0080 6f5b 9f3c 0e78 a13c 9fe7 7e3c
00000030: 4b1e b73c 7852 c23c 86d4 a63c 0000 0080
00000040: 0000 0000 0000 0080 8a2a 91bc 31c8 8ebc
00000050: 2f16 babc 8304 edbb d216 efbb 9925 d4bb
00000060: 0000 0080 0000 0080 0000 0080 0000 0080
00000070: 0000 0080 0000 0080 0000 0080 0000 0080
00000080: 0000 0080 0000 0080 0000 0080 0000 0000
00000090: 75c1 c33b fb0f ce3b b980 d83b 0000 0080
000000a0: 0000 0080 0000 0080 0000 0080 0000 0080
000000b0: 0000 0080 0000 0080 0000 0080 0000 0080
-0.0030530796 -0.002086564 -0.003342832 0.011482175 0.011543022 0.012497884 -0.0 -0.0
-0.0 0.019452779 0.019710567 0.015558152 0.022353312 0.023720965 0.020365011 -0.0
0.0 -0.0 -0.01772048 -0.017429443 -0.022715656 -0.007233204 -0.0072964216 -0.0064742086
-0.0 -0.0 -0.0 -0.0 -0.0 -0.0 -0.0 -0.0
-0.0 -0.0 -0.0 0.0 0.0059739896 0.006288526 0.006607142 -0.0
-0.0 -0.0 -0.0 -0.0 -0.0 -0.0 -0.0 -0.0

exp_avg_sq f4 [16, 1, 3]
00000000: 616d ba39 d241 a939 de50 9e39 54b8 ee3a
00000010: 1100 e03a 06c5 103b f401 0000 f401 0000
00000020: f401 0000 b3f9 c43a ce76 043b b29c f83a
00000030: cd90 d53b f9ee dc3b 6c37 e03b f401 0000
00000040: f401 0000 f401 0000 0c80 bf3b 8773 be3b
00000050: 7ded e83b ec7a 773a 8f21 953a f44e a13a
00000060: f401 0000 f401 0000 f401 0000 f401 0000
00000070: f401 0000 f401 0000 f401 0000 f401 0000
00000080: f401 0000 f401 0000 f401 0000 f401 0000
00000090: 233c a339 2c67 b539 9131 243a f401 0000
000000a0: f401 0000 f401 0000 f401 0000 f401 0000
000000b0: f401 0000 f401 0000 f401 0000 f401 0000
0.00035558178 0.00032283232 0.0003019636 0.0018212893 0.0017089864 0.0022090091 7e-43 7e-43
7e-43 0.001502803 0.0020212415 0.0018967597 0.0065175057 0.006742355 0.0068425443 7e-43
7e-43 7e-43 0.005844122 0.005812112 0.007108389 0.0009440619 0.0011377799 0.0012306855
7e-43 7e-43 7e-43 7e-43 7e-43 7e-43 7e-43 7e-43
7e-43 7e-43 7e-43 7e-43 0.00031134588 0.0003459988 0.00062634895 7e-43
7e-43 7e-43 7e-43 7e-43 7e-43 7e-43 7e-43 7e-43

exp_avg f4 [16]
00000000: b7de 8bbb f348 9d3c 0000 0080 c24c df3c
00000010: 7e54 0a3d 0000 0080 25f0 03bd aad1 43bc
00000020: 0000 0080 0000 0080 0000 0080 0000 0000
00000030: 555c d83b 0000 0080 0000 0080 0000 0000
-0.004268493 0.019199824 -0.0 0.02725828 0.033771984 -0.0 -0.03221144 -0.011951843
-0.0 -0.0 -0.0 0.0 0.0066028037 -0.0 -0.0 0.0

exp_avg_sq f4 [16]
00000000: f7ad 393a a72f 923b f401 0000 fdc5 913b
00000010: 4d03 823c f401 0000 9c04 913c 499c 313b
00000020: f401 0000 f401 0000 f401 0000 f401 0000
00000030: 5edd 313a f401 0000 f401 0000 f401 0000
0.0007083113 0.004461247 7e-43 0.004448651 0.015870715 7e-43 0.017702393 0.002710121
7e-43 7e-43 7e-43 7e-43 0.00067850004 7e-43 7e-43 7e-43

exp_avg f4 [32, 16, 3]
00000000: 0bed 30ae b691 0aae 8209 4bae e796 2bae
00000010: 4bd0 25ae c4d7 54ae 0000 0080 0000 0000
00000020: 0000 0080 c005 80ae 20ea 1d2c bb85 22ae
00000030: e487 87ae 1c3d 1bae 867c 64ae 0000 0080
00000040: 0000 0080 0000 0080 dcd6 f7ae 2096 2a2c
00000050: b2f5 2fad 6172 15af 3434 29ad 9134 4bac
00000060: 0000 0000 0000 0000 0000 0000 0000 0080
00000070: 0000 0000 0000 0080 0000 0000 0000 0000
00000080: 0000 0080 0000 0080 0000 0000 0000 0080
00000090: 000d 75ae 4874 b0ad 543b 22ae 0000 0000
000000a0: 0000 0080 0000 0080 0000 0000 0000 0000
000000b0: 0000 0000 0000 0000 0000 0080 0000 0000
000000c0: 21a7 94ba fa31 ce3a de2c 0cbb 7922 2fb8
000000d0: 61be bbb6 5f8d b4ba 0000 0000 0000 0000
000000e0: 0000 0080 4ae0 0abb 58f7 aa3a ee65 11bb
000000f0: 2081 66b9 4b58 d4b7 93fe 5bb9 0000 0000
00000100: 0000 0000 0000 0000 81a5 1ebb 9fcf 0b3b
00000110: f688 2ebb b7ca c1ba 7340 ab3a 1e18 c9ba
00000120: 0000 0000 0000 0080 0000 0000 0000 0080
00000130: 0000 0000 0000 0000 0000 0080 0000 0080
00000140: 0000 0000 4a00 0080 5000 0080 2b00 0080
00000150: 2f07 8eba 1d2d 763a 92d7 44bb 0000 0000
00000160: 0000 0080 0000 0000 0000 0080 0000 0000
00000170: 0000 0000 0000 0080 0000 0080 0000 0000
00000180: 1141 0cb3 ce11 36b3 92c1 28b3 7e3d 1ab3
00000190: 2622 29b3 3e15 17b3 0000 0080 0000 0000
000001a0: 0000 0000 28f1 73b3 0433 6fb3 47e1 4fb3
000001b0: 2c84 38b3 d163 44b3 ea8c 2bb3 0000 0080
000001c0: 0000 0080 0000 0080 26b8 ceb2 ecfa 3fb3
000001d0: 43ef deb2 d81a 34b3 9160 3db3 85d1 07b3
000001e0: 0000 0080 0000 0080 0000 0000 0000 0080
000001f0: 0000 0080 0000 0000 0000 0080 0000 0080
00000200: 0000 0000 0000 0000 0000 0080 0000 0000
00000210: a5fa 51b3 7c65 63b3 c022 51b3 0000 0080
00000220: 0000 0080 0000 0000 0000 0000 0000 0000
00000230: 0000 0080 0000 0000 0000 0080 0000 0080
00000240: 0000 0080 0000 0080 0000 0080 0000 0000
00000250: 0000 0080 0000 0080 0000 0080 0000 0080
00000260: 0000 0080 0000 0080 0000 0080 0000 0080
00000270: 0000 0000 0000 0000 0000 0000 0000 0080
00000280: 0000 0080 0000 0080 0000 0080 0000 0080
00000290: 0000 0080 0000 0080 0000 0080 0000 0080
000002a0: 0000 0080 0000 0080 0000 0000 0000 0080
000002b0: 0000 0080 0000 0080 0000 0080 0000 0080
000002c0: 0000 0000 0000 0080 0000 0080 0000 0080
000002d0: 0000 0080 0000 0080 0000 0080 0000 0000
000002e0: 0000 0000 0000 0080 0000 0080 0000 0080
000002f0: 0000 0080 0000 0080 0000 0080 0000 0080
00000300: 2639 013a 1af7 9b39 e9d3 373a ab34 a039
00000310: 162b 1c39 78c4 9639 0000 0000 0000 0080
00000320: 0000 0000 5b22 0b3a 7b9a b33a 4cbd f43a
00000330: 9e98 ad38 e2b6 153a 8e68 883a 0000 0000
00000340: 0000 0080 0000 0080 92a7 373a ddb7 1e3a
00000350: e512 023a 8d4b 543a c050 963a 5e06 943a
00000360: 0000 0080 0000 0080 0000 0080 0000 0000
00000370: 0000 0000 0000 0000 0000 0080 0000 0080
00000380: 0000 0080 0200 0080 0a00 0080 0a00 0080
00000390: f636 2c3a ebfe 4d3a 72c3 c93a 0000 0080
000003a0: 0000 0000 0000 0000 0000 0080 0000 0000
000003b0: 0000 0000 0000 0080 0000 0000 0000 0080
000003c0: b60c 6cb3 d01b 8cb3 b460 79b3 1aec 76b3
000003d0: f823 8ab3 3188 82b3 0000 0000 0000 0000
000003e0: 0000 0000 1b63 96b3 40d4 9fb3 6b1f a6b3
000003f0: 5bed 97b3 616c a0b3 b247 a4b3 0000 0000
-4.0228303e-11 -3.1506985e-11 -4.61653e-11 -3.9014927e-11 -3.7701658e-11 -4.8394858e-11 -0.0 0.0
-0.0 -5.8217875e-11 2.2441007e-12 -3.6953312e-11 -6.163228e-11 -3.5297196e-11 -5.1951797e-11 -0.0
-0.0 -0.0 -1.1270426e-10 2.424179e-12 -1.0002154e-11 -1.3592107e-10 -9.618129e-12 -2.8877215e-12
0.0 0.0 0.0 -0.0 0.0 -0.0 0.0 0.0
-0.0 -0.0 0.0 -0.0 -5.5718097e-11 -2.0060523e-11 -3.688723e-11 0.0
-0.0 -0.0 0.0 0.0 0.0 0.0 -0.0 0.0
-0.0011341312 0.0015731447 -0.0021389048 -4.1755357e-05 -5.5951973e-06 -0.0013775042 0.0 0.0
-0.0 -0.0021190816 0.0013043685 -0.0022186 -0.00021982612 -2.5313484e-05 -0.00020980304 0.0
0.0 0.0 -0.0024207535 0.0021333469 -0.0026631928 -0.0014785145 0.0013065472 -0.001534227
0.0 -0.0 0.0 -0.0 0.0 0.0 -0.0 -0.0
0.0 -1.04e-43 -1.12e-43 -6e-44 -0.0010835881 0.00093908777 -0.0030035716 0.0
-0.0 0.0 -0.0 0.0 0.0 -0.0 -0.0 0.0
-3.2655468e-08 -4.239137e-08 -3.92916e-08 -3.5911846e-08 -3.9379437e-08 -3.5176747e-08 -0.0 0.0
0.0 -5.6797177e-08 -5.5692922e-08 -4.8400832e-08 -4.2961048e-08 -4.572559e-08 -3.99422e-08 -0.0
-0.0 -0.0 -2.4065297e-08 -4.4698865e-08 -2.5953005e-08 -4.193393e-08 -4.409282e-08 -3.1622694e-08
-0.0 -0.0 0.0 -0.0 -0.0 0.0 -0.0 -0.0
0.0 0.0 -0.0 0.0 -4.8889564e-08 -5.2944856e-08 -4.869321e-08 -0.0
-0.0 0.0 0.0 0.0 -0.0 0.0 -0.0 -0.0
-0.0 -0.0 -0.0 0.0 -0.0 -0.0 -0.0 -0.0
-0.0 -0.0 -0.0 -0.0 0.0 0.0 0.0 -0.0
-0.0 -0.0 -0.0 -0.0 -0.0 -0.0 -0.0 -0.0
-0.0 -0.0 0.0 -0.0 -0.0 -0.0 -0.0 -0.0
0.0 -0.0 -0.0 -0.0 -0.0 -0.0 -0.0 0.0
0.0 -0.0 -0.0 -0.0 -0.0 -0.0 -0.0 -0.0
0.0004929475 0.0002974801 0.0007012473 0.0003055682 0.0001489337 0.0002875661 0.0 -0.0
0.0 0.00053075486 0.0013702655 0.0018672138 8.27771e-05 0.00057111506 0.0010407136 0.0
-0.0 -0.0 0.0007005866 0.00060546194 0.0004961922 0.0008098416 0.0011468157 0.0011293401
-0.0 -0.0 -0.0 0.0 0.0 0.0 -0.0 -0.0
-0.0 -3e-45 -1.4e-44 -1.4e-44 0.0006569469 0.0007858115 0.001539333 -0.0
0.0 0.0 -0.0 0.0 0.0 -0.0 0.0 -0.0
-5.4959592e-08 -6.524317e-08 -5.806278e-08 -5.749107e-08 -6.4326684e-08 -6.07837e-08 0.0 0.0
0.0 -7.0029465e-08 -7.4426225e-08 -7.735692e-08 -7.07466e-08 -7.4702946e-08 -7.6498864e-08 0.0

exp_avg_sq f4 [32, 16, 3]
00000000: de65 6e24 32d7 ac25 8432 8a25 690c 4425
00000010: 7ed3 a225 bf68 3e25 f401 0000 f401 0000
00000020: f401 0000 bcfa 8126 cdb1 1927 fab9 3726
00000030: 9d7b ab25 3b38 3726 164b cb25 f401 0000
00000040: f401 0000 f401 0000 f2bf c323 eb15 d325
00000050: 250f 1024 6c8f 6625 e862 3726 50e9 be23
00000060: f401 0000 f401 0000 f401 0000 f401 0000
00000070: f401 0000 f401 0000 f401 0000 f401 0000
00000080: f401 0000 f401 0000 f401 0000 f401 0000
00000090: 1a1e eb25 fd1e a226 2cfe 5a26 f401 0000
000000a0: f401 0000 f401 0000 f401 0000 f401 0000
000000b0: f401 0000 f401 0000 f401 0000 f401 0000
000000c0: 4dd0 eb38 a9f8 063a 8a63 ef38 8e96 6939
000000d0: e17c 3b39 f17e ef38 f401 0000 f401 0000
000000e0: f401 0000 574c 2d3a cb30 c03a d3ae 573a
000000f0: 7d20 9d39 2c73 d439 3a07 ad39 f401 0000
00000100: f401 0000 f401 0000 6259 dd38 3d35 1d3a
00000110: 2fe7 c638 c39a 1c39 b3f7 223a d176 9a39
00000120: f401 0000 f401 0000 f401 0000 f401 0000
00000130: f401 0000 f401 0000 f401 0000 f401 0000
00000140: f401 0000 f401 0000 f401 0000 f401 0000
00000150: ad39 063a 025c 8b3a ee8d 183a f401 0000
00000160: f401 0000 f401 0000 f401 0000 f401 0000
00000170: f401 0000 f401 0000 f401 0000 f401 0000
00000180: 1622 192d 9db7 8d2d 8c05 842d 9df8 702d
00000190: 3c61 912d ad71 812d f401 0000 f401 0000
000001a0: f401 0000 ed04 9c2e 56df da2e c52c 962e
000001b0: 27fe e02d 6f55 182e 6b5c 002e f401 0000
000001c0: f401 0000 f401 0000 26e9 392c ce06 d62c
000001d0: 75d9 292c 2e9c 982d 8b79 c22d 3504 152d
000001e0: f401 0000 f401 0000 f401 0000 f401 0000
000001f0: f401 0000 f401 0000 f401 0000 f401 0000
00000200: f401 0000 f401 0000 f401 0000 f401 0000
00000210: fcf1 482e fc8a 972e 0ce1 842e f401 0000
00000220: f401 0000 f401 0000 f401 0000 f401 0000
00000230: f401 0000 f401 0000 f401 0000 f401 0000
00000240: f401 0000 f401 0000 f401 0000 f401 0000
00000250: f401 0000 f401 0000 f401 0000 f401 0000
00000260: f401 0000 f401 0000 f401 0000 f401 0000
00000270: f401 0000 f401 0000 f401 0000 f401 0000
00000280: f401 0000 f401 0000 f401 0000 f401 0000
00000290: f401 0000 f401 0000 f401 0000 f401 0000
000002a0: f401 0000 f401 0000 f401 0000 f401 0000
000002b0: f401 0000 f401 0000 f401 0000 f401 0000
000002c0: f401 0000 f401 0000 f401 0000 f401 0000
000002d0: f401 0000 f401 0000 f401 0000 f401 0000
000002e0: f401 0000 f401 0000 f401 0000 f401 0000
000002f0: f401 0000 f401 0000 f401 0000 f401 0000
00000300: 19aa c836 b4fd 4136 a5fd 8c37 7160 4d36
00000310: 9274 9a36 d4de e836 f401 0000 f401 0000
00000320: f401 0000 cab2 6937 79d4 a838 6d90 1539
00000330: bd58 f135 d4a2 8937 b68a 3838 f401 0000
00000340: f401 0000 f401 0000 e1a2 f337 923f 0938
00000350: 635a 8e37 d1e8 a537 1f58 8f38 09ce 2f38
00000360: f401 0000 f401 0000 f401 0000 f401 0000
00000370: f401 0000 f401 0000 f401 0000 f401 0000
00000380: f401 0000 f401 0000 f401 0000 f401 0000
00000390: 31c8 5637 3a8c a137 7dac b038 f401 0000
000003a0: f401 0000 f401 0000 f401 0000 f401 0000
000003b0: f401 0000 f401 0000 f401 0000 f401 0000
000003c0: 3d6c 472f e247 da2f a003 bd2f c2f9 892f
000003d0: b257 b72f 4944 972f f401 0000 f401 0000
000003e0: f401 0000 855c ed30 9912 1131 1db8 ac30
000003f0: 9874 2130 a4cb 5830 d854 2430 f401 0000
5.1694308e-17 2.9983066e-16 2.3973415e-16 1.7004495e-16 2.8245833e-16 1.6515362e-16 7e-43 7e-43
7e-43 9.019135e-16 2.1329401e-15 6.3742924e-16 2.9747535e-16 6.3567086e-16 3.5265767e-16 7e-43
7e-43 7e-43 2.1223234e-17 3.6617518e-16 3.123785e-17 1.9997913e-16 6.362492e-16 2.0698653e-17
7e-43 7e-43 7e-43 7e-43 7e-43 7e-43 7e-43 7e-43
7e-43 7e-43 7e-43 7e-43 4.07864e-16 1.1249408e-15 7.597841e-16 7e-43
7e-43 7e-43 7e-43 7e-43 7e-43 7e-43 7e-43 7e-43
0.00011244472 0.00051487476 0.00011414949 0.00022276698 0.00017880231 0.00011420053 7e-43 7e-43
7e-43 0.0006610802 0.0014662979 0.000822765 0.0002996958 0.000405216 0.00033002516 7e-43
7e-43 7e-43 0.0001055475 0.0005997008 9.484437e-05 0.00014934973 0.00062167196 0.00029461694
7e-43 7e-43 7e-43 7e-43 7e-43 7e-43 7e-43 7e-43
7e-43 7e-43 7e-43 7e-43 0.00051202887 0.0010632279 0.0005819489 7e-43
7e-43 7e-43 7e-43 7e-43 7e-43 7e-43 7e-43 7e-43
8.704612e-12 1.6111385e-11 1.5009126e-11 1.3697624e-11 1.6527772e-11 1.4716084e-11 7e-43 7e-43
7e-43 7.094934e-11 9.953165e-11 6.829163e-11 2.5578718e-11 3.463668e-11 2.9185914e-11 7e-43
7e-43 7e-43 2.6419505e-12 6.0830013e-12 2.4137057e-12 1.7349757e-11 2.2109222e-11 8.4706036e-12
7e-43 7e-43 7e-43 7e-43 7e-43 7e-43 7e-43 7e-43
7e-43 7e-43 7e-43 7e-43 4.568966e-11 6.8913736e-11 6.0426414e-11 7e-43
7e-43 7e-43 7e-43 7e-43 7e-43 7e-43 7e-43 7e-43
7e-43 7e-43 7e-43 7e-43 7e-43 7e-43 7e-43 7e-43
7e-43 7e-43 7e-43 7e-43 7e-43 7e-43 7e-43 7e-43
7e-43 7e-43 7e-43 7e-43 7e-43 7e-43 7e-43 7e-43
7e-43 7e-43 7e-43 7e-43 7e-43 7e-43 7e-43 7e-43
7e-43 7e-43 7e-43 7e-43 7e-43 7e-43 7e-43 7e-43
7e-43 7e-43 7e-43 7e-43 7e-43 7e-43 7e-43 7e-43
5.9802665e-06 2.8906916e-06 1.6807413e-05 3.0603517e-06 4.603128e-06 6.9400794e-06 7e-43 7e-43
7e-43 1.392951e-05 8.0504404e-05 0.0001426355 1.7981725e-06 1.6407495e-05 4.3998203e-05 7e-43
7e-43 7e-43 2.9043704e-05 3.272255e-05 1.6969809e-05 1.9777946e-05 6.835185e-05 4.1915137e-05
7e-43 7e-43 7e-43 7e-43 7e-43 7e-43 7e-43 7e-43
7e-43 7e-43 7e-43 7e-43 1.2802005e-05 1.9257994e-05 8.4244624e-05 7e-43
7e-43 7e-43 7e-43 7e-43 7e-43 7e-43 7e-43 7e-43
1.8137399e-10 3.9705045e-10 3.4381475e-10 2.5097618e-10 3.3349817e-10 2.751526e-10 7e-43 7e-43
7e-43 1.7270315e-09 2.1110849e-09 1.2566975e-09 5.873715e-10 7.8869733e-10 5.978342e-10 7e-43

exp_avg f4 [32]
00000000: 0f23 182f 1195 99bb e5e4 92b3 0000 0000
00000010: 39e1 ae3b 8c1d b5b3 5d98 82b1 6ca2 059f
00000020: 0000 0080 0000 0000 2616 3eb0 0000 0000
00000030: 7098 b9a9 c61a 858a e641 20b1 06ac 88b3
00000040: 0f06 efb1 09f0 33aa 0500 0080 6719 173d
00000050: f977 fd3b 123c 559d 0a12 00b3 0000 0000
00000060: 0000 0080 4939 babc 0000 0000 8d86 ccb1
00000070: 0000 0000 bb90 a9a7 600d bbb3 9193 ef3b
1.3836775e-10 -0.0046869596 -6.8402905e-08 0.0 0.005336907 -8.433844e-08 -3.8008197e-09 -2.8298198e-20
-0.0 0.0 -6.915307e-10 0.0 -8.242094e-14 -1.2817505e-32 -2.3320523e-09 -6.3642844e-08
-6.9565043e-09 -1.5981673e-13 -7e-45 0.03688946 0.007735249 -2.822137e-21 -2.981873e-08 0.0
-0.0 -0.022732394 0.0 -5.952478e-09 0.0 -4.706384e-15 -8.710299e-08 0.0073112925

exp_avg_sq f4 [32]
00000000: aa68 2c28 f827 2a3c c1d6 6630 f401 0000
00000010: b1d6 3a3a 6a48 b032 80f8 162e 3d0c c727
00000020: 03dc 9b04 a85d 4823 7bee 2c2c 63d0 711a
00000030: 1af2 4a2a 5128 8928 035e 032c 09a9 8e30
00000040: 8642 3e2e 4f68 652a 117d da27 6273 073c
00000050: 1ca2 223c 9afc 3729 39ca a92e aec3 801e
00000060: 4784 9d0c a371 d93b 890d ff26 7777 5237
00000070: 78a6 6b16 79c9 442a 7a2a 0531 3974 de3a
9.570613e-15 0.010385506 8.3978696e-10 7e-43 0.00071273284 2.0522027e-08 3.4326764e-11 5.5246864e-15
3.6642374e-36 1.0861854e-17 2.4575053e-12 5.0005965e-23 1.80252e-13 1.522754e-14 1.8668407e-12 1.0379902e-09
4.3260083e-11 2.0375475e-13 6.064275e-15 0.0082672555 0.009926345 4.085326e-14 7.721152e-11 1.3633458e-20
2.4269292e-31 0.006635861 1.7697848e-15 1.25447905e-05 1.9035677e-25 1.7478197e-13 1.9378192e-09 0.0016971893

exp_avg f4 [32, 1]
00000000: 0000 0000 f768 5e3b 0000 0080 9616 feb9
00000010: ba0e 8e37 65dc c0bb 9738 41bb 56c0 1bbb
00000020: 0000 0000 cf94 1438 f7c1 163b 9e96 ebbb
00000030: 49dc 07ba 2e68 01ba 85a9 943a 0000 0080
00000040: 0000 0080 0000 0080 82f3 16ba 9d09 113b
00000050: 94dc 81ba b122 c03a 0000 0080 0000 0000
00000060: 0000 0080 47ea a839 0000 0000 0000 0080
00000070: d285 1cba f63a 5b3b 0000 0000 0000 0000
0.0 0.0033937076 -0.0 -0.00048463483 1.6934577e-05 -0.005885648 -0.0029483193 -0.0023765764
0.0 3.542454e-05 0.0023003796 -0.007189586 -0.00051826664 -0.00049364835 0.0011342025 -0.0
-0.0 -0.0 -0.00057583314 0.0022130974 -0.0009907656 0.0014658776 -0.0 0.0
-0.0 0.00032218007 0.0 -0.0 -0.00059708685 0.0033451892 0.0 0.0

exp_avg_sq f4 [32, 1]
00000000: f401 0000 7670 4f39 f401 0000 5871 c935
00000010: 218c b535 c518 fb39 6c49 f539 94dd ec39
00000020: f401 0000 de88 3f39 167c b238 b556 023a
00000030: 7675 d135 ccc3 cb35 28c0 3b39 f401 0000
00000040: f401 0000 f401 0000 9632 bc35 c658 4738
00000050: 3a24 9439 bc6a a538 f401 0000 f401 0000
00000060: f401 0000 f474 b238 f401 0000 f401 0000
00000070: 7446 c935 0ce9 f437 f401 0000 f401 0000
7e-43 0.00019782953 7e-43 1.5008654e-06 1.3526334e-06 0.00047892905 0.00046784745 0.00045178516
7e-43 0.00018266166 8.510814e-05 0.0004972027 1.5605899e-06 1.5181663e-06 0.00017905293 7e-43
7e-43 7e-43 1.4021814e-06 4.7527974e-05 0.0002825575 7.887694e-05 7e-43 7e-43
7e-43 8.5094856e-05 7e-43 7e-43 1.4996172e-06 2.9195588e-05 7e-43 7e-43

exp_avg f4 [32]
00000000: 0000 0080 c663 c33b 0000 0080 542c e8bc
00000010: ce57 e83b 3d78 17bc aef8 91bb 42b7 62bb
00000020: 0000 0080 a7d3 56b8 02e7 003c 83b9 34bc
00000030: d13c 01bd 4182 e1bc c0a8 c23a 0000 0080
00000040: 0000 0080 0000 0080 5566 07bd c38e 153c
00000050: f831 6dbb ce32 d63b 0000 0080 0000 0080
00000060: 0000 0080 44d5 0d3b 0000 0080 0000 0080
00000070: 930a 09bd 4647 5e3c 0000 0080 0000 0080
-0.0 0.0059628217 -0.0 -0.02834145 0.0070905453 -0.009244976 -0.0044546938 -0.0034594093
-0.0 -5.1218693e-05 0.007867577 -0.011030558 -0.03155214 -0.02752793 0.0014851317 -0.0
-0.0 -0.0 -0.033056576 0.009128275 -0.0036193114 0.006536818 -0.0 -0.0
-0.0 0.0021642009 -0.0 -0.0 -0.03345735 0.013566798 -0.0 -0.0

exp_avg_sq f4 [32]
00000000: f401 0000 d6c0 4f3a f401 0000 94fd 063c
00000010: cfa8 e93b 287f a63a 8e08 9a3a 87c0 9c3a
00000020: f401 0000 9170 423a 30fa 3e3a 8410 a53a
00000030: 7da7 043c d4a7 0a3c e5d4 3c3a f401 0000
00000040: f401 0000 f401 0000 82c5 023c 0d8c 0b3a
00000050: 830e 913a 270c 313a f401 0000 f401 0000
00000060: f401 0000 0d66 423a f401 0000 f401 0000
00000070: 2726 063c 4942 113a f401 0000 f401 0000
7e-43 0.0007925158 7e-43 0.008239169 0.0071307193 0.001270269 0.0011751817 0.0011959233
7e-43 0.00074172864 0.00072852056 0.0012593423 0.008096573 0.008462865 0.00072033546 7e-43
7e-43 7e-43 0.00798166 0.00053232984 0.0011066947 0.0006753825 7e-43 7e-43
7e-43 0.00074157194 7e-43 7e-43 0.008187807 0.00055411883 7e-43 7e-43

exp_avg f4 [64, 320]
00000000: 331f 6611 fced 3010 e4f4 2311 407b 7e11
00000010: 7a70 a111 fa4c 9511 fd06 4d11 3458 e510
00000020: 92d4 2c11 cf4c 6139 cdb9 01b6 b684 a838
00000030: fdf8 01ba 7787 64ba 8c80 1f3a 1775 2cba
00000040: 4b23 cdba 0b27 beb9 c7ce b42e 8f2a 1030
00000050: e0d7 c62e dc85 d42d 7b78 372d c56e d02d
00000060: c6f1 9c2e 74ea 422f 839e 812d 0000 0000
00000070: 0000 0000 0000 0000 0000 0000 0000 0000
00000080: 0000 0000 0000 0000 0000 0000 0000 0000
00000090: 428e a0b7 8566 3534 dd38 1738 e8d0 f2b6
000000a0: 09eb c733 ebbd f7b6 58f5 07b9 c52b 64ba
000000b0: 2b4d 52b5 f952 01b3 c7d5 5ab3 f015 17b3
000000c0: ba05 05b3 1ed5 e5b2 44eb ccb2 89ba d2b2
000000d0: 6e00 2bb3 fd09 d3b2 0000 0080 0000 0080
000000e0: 0000 0080 0000 0080 0000 0080 0000 0080
000000f0: 0000 0080 0000 0080 0000 0080 3cd0 2718
00000100: 1ba6 7418 f24b 3018 dded 0d18 bfbe 171c
00000110: 24f7 761b bfb7 0f18 8a91 2318 0c0b f917
00000120: 0000 0080 0000 0000 0000 0080 0000 0080
00000130: 0000 0080 0000 0000 0000 0080 0000 0080
00000140: 0000 0080 0000 0080 0000 0080 0000 0000
00000150: 0000 0000 0000 0000 0000 0000 0000 0000
00000160: 0000 0080 0000 0000 0000 0000 0000 0000
00000170: 0000 0000 0000 0000 0000 0000 0000 0000
00000180: 0000 0000 0000 0000 0000 0000 0000 0000
00000190: 0000 0000 0000 0000 0000 0080 0000 0080
000001a0: 0000 0080 0000 0000 0000 0080 0000 0080
000001b0: 0000 0000 0000 0000 0000 0000 0000 0000
000001c0: 0000 0080 0000 0000 0000 0000 0000 0000
000001d0: 0000 0080 0000 0000 0000 0000 0000 0000
000001e0: 0000 0000 0000 0000 0000 0000 0000 0000
000001f0: 0000 0000 0000 0000 0000 0000 aa69 0200
00000200: 09a0 fa82 9cd0 ee09 12c1 2c84 0000 0080
00000210: 0000 0000 0000 0000 0000 0080 3763 b827
00000220: 77ac a82a 3aff 9026 686e 3717 6aab 69a4
00000230: 8cb6 95a8 4825 10a4 000c c1a6 7eea 7726
00000240: 0000 0080 0000 0080 0000 0080 0000 0080
00000250: 0000 0080 0000 0080 0000 0080 0000 0080
00000260: 0000 0080 0000 0080 0000 0080 0000 0080
00000270: 0000 0080 0000 0000 0000 0080 0000 0000
00000280: 0000 0080 0000 0000 0000 0000 0000 0000
00000290: 0000 0000 0000 0000 0000 0000 0000 0000
000002a0: 0000 0000 0000 0000 0000 0000 430c 10b9
000002b0: 90c6 ca37 45c5 a83a 473e ee39 c091 0e3a
000002c0: f911 4db7 f171 0db6 30c4 2836 5778 68b7
000002d0: 03e0 7c39 581b 2db3 80f0 4239 a268 4c39
000002e0: f6a2 15b7 a503 9037 3e4a 2c3a 802b cfb8
000002f0: 0000 0080 0000 0000 0000 0080 0000 0000
00000300: 0000 0000 0000 0080 0000 0000 0000 0080
00000310: 0000 0000 0000 0080 0000 0000 0000 0080
00000320: 0000 0000 0000 0000 0000 0000 0000 0000
00000330: 0000 0000 0000 0080 0000 0080 0000 0080
00000340: 0000 0000 0000 0080 0000 0080 0000 0080
00000350: 0000 0080 0000 0080 0000 0080 0000 0080
00000360: 0000 0000 0000 0000 0000 0080 0000 0080
00000370: 0000 0000 0000 0000 0000 0080 0000 0080
00000380: 0000 0000 0000 0080 e053 aab2 bfe9 bcb7
00000390: a09e e8b9 8a00 a1b9 39a2 89b9 f962 ddb8
000003a0: a260 fab8 dbf5 0f35 0000 0000 0000 0000
000003b0: 0000 0000 0000 0000 0000 0000 0000 0000
000003c0: 0000 0000 0000 0000 0000 0000 ae64 ca33
000003d0: ea64 c633 c0b2 ab33 f873 9a33 6efc 9433
000003e0: 69f6 9b33 e878 a333 6085 ae33 d214 af33
000003f0: 0000 0000 0000 0080 0000 0000 0000 0000
1.8153415e-28 3.4893216e-29 1.2933896e-28 2.0075046e-28 2.547064e-28 2.3555495e-28 1.6173802e-28 9.046047e-29
1.3633911e-28 0.00021486286 -1.9330648e-06 8.0355836e-05 -0.00049580616 -0.00087176956 0.00060845236 -0.0006578727
-0.0015650777 -0.00036268713 8.2221834e-11 5.2447374e-10 9.0423447e-11 2.4161055e-11 1.0429098e-11 2.3696054e-11
7.137006e-11 1.7727492e-10 1.4735995e-11 0.0 0.0 0.0 0.0 0.0
0.0 0.0 0.0 0.0 -1.913973e-05 1.6894235e-07 3.6054164e-05 -7.236482e-06
9.309412e-08 -7.383283e-06 -0.00012966001 -0.0008704032 -7.834339e-07 -3.0110616e-08 -5.095151e-08 -3.517738e-08
-3.0971684e-08 -2.6756023e-08 -2.3855712e-08 -2.4532044e-08 -3.981443e-08 -2.4568175e-08 -0.0 -0.0
-0.0 -0.0 -0.0 -0.0 -0.0 -0.0 -0.0 2.1689376e-24
3.1620123e-24 2.278581e-24 1.8343913e-24 5.0208243e-22 2.0428499e-22 1.8575085e-24 2.1140735e-24 1.6094036e-24
-0.0 0.0 -0.0 -0.0 -0.0 0.0 -0.0 -0.0
-0.0 -0.0 -0.0 0.0 0.0 0.0 0.0 0.0
-0.0 0.0 0.0 0.0 0.0 0.0 0.0 0.0
0.0 0.0 0.0 0.0 0.0 0.0 -0.0 -0.0
-0.0 0.0 -0.0 -0.0 0.0 0.0 0.0 0.0
-0.0 0.0 0.0 0.0 -0.0 0.0 0.0 0.0
0.0 0.0 0.0 0.0 0.0 0.0 0.0 2.21576e-40
-3.6826054e-37 5.749259e-33 -2.0307156e-36 -0.0 0.0 0.0 -0.0 5.117783e-15
2.9962466e-13 1.0061187e-15 5.926984e-25 -5.0669015e-17 -1.662149e-14 -3.12566e-17 -1.3395318e-15 8.6013136e-16
-0.0 -0.0 -0.0 -0.0 -0.0 -0.0 -0.0 -0.0
-0.0 -0.0 -0.0 -0.0 -0.0 0.0 -0.0 0.0
-0.0 0.0 0.0 0.0 0.0 0.0 0.0 0.0
0.0 0.0 0.0 -0.00013737478 2.417274e-05 0.0012876174 0.00045441298 0.00054385886
-1.2223137e-05 -2.107696e-06 2.5148147e-06 -1.3856296e-05 0.00024116044 -4.030457e-08 0.00018590875 0.00019493935
-8.919034e-06 1.7167835e-05 0.0006572342 -9.878632e-05 -0.0 0.0 -0.0 0.0
0.0 -0.0 0.0 -0.0 0.0 -0.0 0.0 -0.0
0.0 0.0 0.0 0.0 0.0 -0.0 -0.0 -0.0
0.0 -0.0 -0.0 -0.0 -0.0 -0.0 -0.0 -0.0
0.0 0.0 -0.0 -0.0 0.0 0.0 -0.0 -0.0
0.0 -0.0 -1.9828747e-08 -2.2520193e-05 -0.00044368673 -0.00030708715 -0.00026251542 -0.00010556536
-0.00011938928 5.362942e-07 0.0 0.0 0.0 0.0 0.0 0.0
0.0 0.0 0.0 9.4246715e-08 9.23845e-08 7.9953224e-08 7.1922784e-08 6.937704e-08
7.262572e-08 7.612272e-08 8.126767e-08 8.15286e-08 0.0 -0.0 0.0 0.0
