model_checkpoint.pth (torch, 15330 bytes, 6 tensors)

fc1.weight f4 [64, 15]
0	0x3e447c6e	0.19188091
1	0x3df3cbb8	0.11904091
2	0xbe676385	-0.22596557
3	0xbd7a2c1b	-0.06107722
4	0xbe07069f	-0.1318612
5	0xbe679661	-0.22615959
6	0xbe883d9a	-0.26609498
7	0xbd9cf447	-0.0766378
8	0x3eb0d2fb	0.34535965
9	0x3d90cd36	0.07070391
10	0xbc2839a4	-0.010267649
11	0xbda037c4	-0.078231364
12	0xbea49958	-0.32148242
13	0xbeb7d663	-0.35905752
14	0xbe15a6de	-0.14614436
15	0xbe95b7b9	-0.29241732
16	0xbde7b963	-0.113146566
17	0x3e029399	0.12751617
18	0xbe26d131	-0.16290738
19	0x3eb9c175	0.36280409
20	0x3cb96e2d	0.022635544
21	0xbe787d92	-0.24266651
22	0x3eb7b81c	0.35882652
23	0x3e8f52ec	0.27992952
24	0x3d7943d8	0.060855716
25	0xbd0a99e2	-0.03383816
26	0x3bac1294	0.005251238
27	0x3e38fab8	0.18064392
28	0x3ea840bc	0.32861888
29	0x3d9bc6c5	0.07606272
30	0xbe09a498	-0.13441694
31	0xbd8a23a8	-0.06745082
32	0xbe2b659e	-0.16737983
33	0x3d18dd97	0.0373207
34	0xbec2e9cd	-0.38069
35	0x3d0456a5	0.032309193
36	0x3e0230b3	0.1271389
37	0xbd995592	-0.07487024
38	0xbe116fba	-0.14202777
39	0x3eb6f846	0.35736293
40	0x3ebccbd4	0.3687426
41	0x3e9cc4dd	0.30618945
42	0xbe85c451	-0.2612634
43	0xbe23e697	-0.16005932
44	0x3e78e3a5	0.2430559
45	0x3ea23f0b	0.31688723
46	0x3e4bf669	0.19918217
47	0xbde98faa	-0.11404355
48	0x3e63fe62	0.22265008
49	0x3d279662	0.0409149
50	0x3eab6a45	0.33479515
51	0x3c7be742	0.01537496
52	0xbe7a5d8b	-0.24449746
53	0xbe589eb4	-0.2115429
54	0xbe37bb07	-0.17942439
55	0xbe6cdb99	-0.23130645
56	0x3eb67af3	0.35640678
57	0xbde52683	-0.11188986
58	0x3e4c66d7	0.19961105
59	0x3d75a10a	0.059968032
60	0x3ea4ada7	0.32163736
61	0xbe049400	-0.12947083
62	0x3de43aa2	0.11143996
63	0xbe090d95	-0.13384087
64	0x3e9fde5f	0.31224343
65	0x3e5b9f4b	0.21447484
66	0x3e7591ec	0.23981446
67	0x3e44aefa	0.19207373
68	0xbe6af67f	-0.22945593
69	0xbeab88a4	-0.33502686
70	0x3eae90b7	0.34094784
71	0x3e711439	0.2354287
72	0xbe8a1499	-0.2696884
73	0xbe5c5360	-0.2151618
74	0x3e13b558	0.14424646
75	0xbe981967	-0.2970688
76	0x3dabeff0	0.08395374
77	0x3cf4fdff	0.029906271
78	0xbcfb1963	-0.030651754
79	0xbd674838	-0.056465358
80	0xbe0529ae	-0.13004181
81	0xbe807ff0	-0.2509761
82	0x3e50813b	0.20361798
83	0xbe15cdfd	-0.1462936
84	0x3e92a913	0.28644618
85	0x3e12b724	0.14327675
86	0xbd98b2bf	-0.07455968
87	0x3e2b701f	0.1674199
88	0x3dceaf70	0.10092056
89	0xbe8382a6	-0.25685614
90	0xbe2ad1a5	-0.16681536
91	0x3e69ec27	0.22843991
92	0xbe482d33	-0.19548492
93	0xbd271df1	-0.04080004
94	0xbd76e576	-0.060277425
95	0xbebe178c	-0.3712734
96	0xbdf4f009	-0.119598456
97	0x3e3e8eb4	0.18609124
98	0xbdef6739	-0.1168961
99	0x3e40cf94	0.18829185
100	0x3ebc63e1	0.36794952
101	0xbdd431e7	-0.103610806
102	0xbe54a734	-0.20766908
103	0xbe545ac2	-0.20737746
104	0x3ce53ab7	0.027982099
105	0xbc2ea50f	-0.01065947
106	0x3e5523e7	0.20814477
107	0x3c8dc9ec	0.017308198
108	0xbdb37e38	-0.08764309
109	0xbd9dccdd	-0.0770509
110	0xbdfaabc6	-0.122397944
111	0xbec28546	-0.37992305
112	0x3dc2242c	0.094795555
113	0x3e87ff03	0.26561746
114	0x3dae5167	0.0851162
115	0x3e92c2dd	0.28664294
116	0xbdff04a5	-0.12452058
117	0x3e92d4b3	0.28677902
118	0x3c4563e6	0.012047743
119	0xbe1c9bdb	-0.15293829
120	0xbe162ddb	-0.1466593
121	0xbe2452d1	-0.16047217
122	0x3d868419	0.065681644
123	0xbe37eb8f	-0.17960952
124	0x3e89b63d	0.2689685
125	0x3e248d81	0.16069604
126	0x3eba0fab	0.3634008
127	0xbd84094c	-0.06447086
128	0x3e0b469d	0.13601156
129	0x3e2cd81f	0.16879319
130	0x3dd9e15f	0.10638689
131	0x3ead13d4	0.3380419
132	0x3e92fabb	0.28706917
133	0x3ddbef1e	0.10738967
134	0xbe648958	-0.22318017
135	0xbe145553	-0.14485674
136	0x3e3826cb	0.17983548
137	0xbcfdea8a	-0.030995626
138	0x3e6c6cad	0.23088332
139	0x3d279228	0.04091087
140	0xbeb913fc	-0.3614806
141	0xbd36e30c	-0.044650123
142	0x3e7ef2fd	0.2489738
143	0x3eb4c406	0.35305804
144	0x3e9ebbd8	0.31002688
145	0xbd3b644f	-0.04574996
146	0x3d63c3de	0.055606715
147	0x3e9588ce	0.29205936
148	0x3d03124a	0.031999864
149	0x3e1469da	0.14493504
150	0x3e55c04f	0.20874141
151	0xbe969519	-0.29410627
152	0x3d2a932d	0.041644264
153	0x3e49ad16	0.19694933
154	0x3e5138ac	0.20431775
155	0x3e97b184	0.2962762
156	0x3dec4b28	0.115377724
157	0x3c8f4c29	0.01749237
158	0xbea34a82	-0.31892782
159	0x3d767814	0.06017311
160	0x3e797400	0.24360657
161	0x3d6f359c	0.058400735
162	0xbe8ba756	-0.27276105
163	0xbe9ea764	-0.30987084
164	0x3eb00711	0.3438039
165	0x3d69c8fe	0.057076447
166	0x3ea6a246	0.3254568
167	0xbe32b0a7	-0.174502
168	0x3c86a4b6	0.016435962
169	0x3d19078d	0.037360717
170	0x3de65a51	0.11247695
171	0xbe172a33	-0.14762191
172	0x3e48f5d7	0.1962503
173	0x3ead057f	0.33793256
174	0x3e9c1624	0.30485642
175	0x3d0b067c	0.03394173
176	0x3e57dd7b	0.21080582
177	0x3dbc489a	0.09193535
178	0x3e877c51	0.26462033
179	0xbe53ecff	-0.20695876
180	0xbdddb137	-0.10824817
181	0x3da2f4cc	0.079568475
182	0x3e01baba	0.12668887
183	0xbbbd9b53	-0.0057863384
184	0xbe7b9c02	-0.24571231
185	0xbdf0a7a6	-0.117507264
186	0xbe8c7203	-0.27430734
187	0x3ea52562	0.32255083
188	0x3e0df46c	0.13862771
189	0x3e578e68	0.21050417
190	0xbd8d8988	-0.06910998
191	0x3eb96db8	0.3621652
192	0x3e51907f	0.20465277
193	0x3e6efd7c	0.23338884
194	0xbea8b3a0	-0.32949543
195	0xbdadfb17	-0.08495157
196	0x3ea4b865	0.32171932
197	0xbe288646	-0.16457471
198	0xbdccbebf	-0.099973194
199	0x3dd6c5e3	0.10486963
200	0x3cbcd50e	0.023050811
201	0xbe7f712f	-0.2494552
202	0x3e0ed0a5	0.13946779
203	0xbdc7dc03	-0.09758761
204	0xbc54def0	-0.012992606
205	0xbd8efaae	-0.06981407
206	0xbd877757	-0.06614559
207	0x3e91d7fd	0.28485098
208	0x3cc5e3a7	0.024156405
209	0xbd931496	-0.07181661
210	0x3e22fee3	0.15917544
211	0x3ebf443e	0.37356752
212	0x3e26cbbd	0.16288657
213	0xbe0541f9	-0.13013448
214	0xbea710bb	-0.32629952
215	0xbebd177c	-0.3693198
216	0x3e70643f	0.23475741
217	0xbe5f3381	-0.21796991
218	0x3c6a1331	0.014286802
219	0xbd1f0b79	-0.0388293
220	0x3ea6364e	0.32463306
221	0x3b56287c	0.003267794
222	0x3dcaea63	0.09907987
223	0xbebf7236	-0.37391824
224	0xbd4c12df	-0.049822684
225	0x3e9c9ea0	0.3058977
226	0x3ebf26c0	0.3733425
227	0x3e7c9483	0.24666028
228	0xbe2ad49d	-0.16682668
229	0x3e7aa6a8	0.24477637
230	0x3eb2644c	0.34842145
231	0x3eb788c8	0.35846543
232	0xbdb5cf84	-0.08877471
233	0xbe45ba97	-0.1930946
234	0xbe9b2c41	-0.303072
235	0x3d6a6152	0.057221718
236	0xbd13f36c	-0.036120817
237	0xbe8fc28f	-0.28078124
238	0x3e44180d	0.191498
239	0xbe9f2829	-0.31085327
240	0xbdfc67a4	-0.123244554
241	0xbddc517d	-0.1075773
242	0x3e27a7eb	0.1637265
243	0xbe416201	-0.18885042
244	0x3e339955	0.1753896
245	0x3d3c485f	0.045967456
246	0x3e88c7cf	0.26714942
247	0x3e277d1c	0.16356319
248	0x3e4ed452	0.20198181
249	0x3df406cc	0.11915359
250	0x3dd1587c	0.10221955
251	0x3e4d9c83	0.20079236
252	0x3e152fa6	0.14568958
253	0x3dba9493	0.091103695
254	0x3daa4e16	0.08315675
255	0xbe798c99	-0.2437004

fc1.bias f4 [64]
0	0xbd782892	-0.060585566
1	0x3dbcbc7a	0.092156366
2	0x3eaab15e	0.33338445
3	0xbc078c84	-0.008273248
4	0x3e736d89	0.23772253
5	0x3e9922a3	0.29909238
6	0xbcf0710d	-0.029350782
7	0x3e4d8e6a	0.20073858
8	0x3d1ddbc6	0.03853967
9	0xbcd99a98	-0.026562974
10	0xbdd7fe08	-0.105464995
11	0x3e2dc3bd	0.169692
12	0x3e7c9c74	0.24669057
13	0x3dab96eb	0.08378395
14	0x3d993dc6	0.074824855
15	0xbcc3d4b4	-0.023905136
16	0x3e93f99d	0.28901377
17	0x3eabf317	0.335839
18	0x3e6bda1c	0.23032421
19	0x3e938b60	0.28817272
20	0x3e9cb103	0.306038
21	0x3de96cfe	0.11397742
22	0x3e80f918	0.25190043
23	0xbd791a13	-0.060815882
24	0xbd551e04	-0.05203058
25	0x3e7d65d9	0.24745883
26	0x3b748cc6	0.0037315353
27	0xbc98d501	-0.018656256
28	0x3e4ec0f0	0.20190787
29	0x3e7f2cb8	0.24919403
30	0x3d2c3624	0.04204382
31	0xbce95395	-0.028482238
32	0x3dcdc26a	0.10046847
33	0x3e0d83a3	0.13819747
34	0x3c789cf8	0.015174143
35	0x3e643d1a	0.22288933
36	0xbd24e64a	-0.040258683
37	0x3dcfa377	0.101386
38	0x3e774e5f	0.2415099
39	0xbd97cb53	-0.07411828
40	0x3da0852f	0.07837903
41	0x3d6ee97f	0.058328148
42	0xbda392d8	-0.079869926
43	0x3daf7794	0.085677296
44	0x3eb8f2fc	0.36122882
45	0x3e85b5fe	0.26115412
46	0x3d0101d7	0.031495895
47	0x3dee4ce7	0.11635762
48	0x3ce7752d	0.028254116
49	0xb9bb7444	-0.00035754044
50	0xbdbd721e	-0.09250282
51	0x3e0a8eaf	0.13530992
52	0x3dbd6fec	0.09249863
53	0x3e5e2b82	0.21696284
54	0x3e2e1eaa	0.17003885
55	0x3dacd1dd	0.08438466
56	0xbcf0ee1f	-0.02941042
57	0x3e6305a7	0.22170125
58	0x3e975585	0.29557434
59	0xbd20b602	-0.039236076
60	0x3d177558	0.036977142
61	0x3e9de639	0.30839708
62	0x3d595e1c	0.053068265
63	0x3e442382	0.1915417

fc2.weight f4 [32, 64]
0	0x3df88a0c	0.12135705
1	0x3e4b0cc5	0.1982909
2	0x3b0e127a	0.0021678493
3	0x3e528536	0.20558628
4	0x3d221bae	0.03957718
5	0x3e53d008	0.20684826
6	0x3e3171e8	0.17328608
7	0x3d643f0e	0.055724196
8	0x3b578067	0.003288293
9	0x3e0c1c57	0.13682686
10	0x3e5dd586	0.21663484
11	0x3e4b43a3	0.1985002
12	0x3dd40a30	0.103535056
13	0x3e49956c	0.19685906
14	0x3e257fe5	0.16162069
15	0x3c62e47a	0.013848418
16	0x3e20a14b	0.15686528
17	0x3e28bb40	0.1647768
18	0x3e0b3547	0.13594542
19	0x3e7cf7fd	0.24703975
20	0x3e5f45d2	0.21803978
21	0x3d5111df	0.051042434
22	0xba5263d4	-0.000802574
23	0x3e7770ed	0.24164172
24	0x3d95e202	0.07318498
25	0x3e1c508f	0.15265106
26	0x3e4d2b12	0.20035961
27	0x3ddc0cae	0.10744606
28	0x3db692ae	0.08914696
29	0x3e4ff9c7	0.20310126
30	0x3e30f1ac	0.1727969
31	0x3e0ba507	0.13637172
32	0x3d9a2e97	0.075284176
33	0x3e2599d1	0.16171958
34	0x3dbe3869	0.09288103
35	0x3b6dc909	0.0036283156
36	0x3dc4ccc1	0.09609366
37	0x3e50af9b	0.20379488
38	0x3cd88242	0.0264293
39	0x3d935614	0.071941525
40	0x3d58bf04	0.05291654
41	0x3db20997	0.08693235
42	0x3e03bedd	0.12865777
43	0x3e5bf55f	0.2148032
44	0x3deef68d	0.116681196
45	0x3d5fe490	0.054661334
46	0x3e58af2e	0.21160576
47	0x3d0ebc51	0.03484756
48	0x3e470d28	0.19438612
49	0x3e44d0cb	0.19220273
50	0x3d2d3678	0.042288274
51	0x3dc742ba	0.09729524
52	0x3e493989	0.19650854
53	0x3e5698db	0.20956747
54	0x3e093a9a	0.13401261
55	0x3e606235	0.21912463
56	0x3e102997	0.14078365
57	0x3e0a7145	0.13519771
58	0x3e10395e	0.14084384
59	0x3d515706	0.051108383
60	0x3db40405	0.08789829
61	0x3dd325ac	0.1030992
62	0x3dd8250e	0.105539426
63	0x3dfaee5a	0.12252493
64	0x3db05b31	0.086111434
65	0x3de60035	0.11230508
66	0x3e55b417	0.2086948
67	0x3e280372	0.16407564
68	0x3e59dc68	0.21275485
69	0x3e04d036	0.12970051
70	0x3cbb2d67	0.022848798
71	0x3d70dbe7	0.058803465
72	0x3da7a107	0.081850104
73	0x3deb824d	0.11499462
74	0x3e38a1e8	0.18030512
75	0x3e3cca4b	0.18436544
76	0x3e59dc1c	0.21275371
77	0x3dbb198c	0.09135732
78	0x3e3923db	0.18080084
79	0x3e6df575	0.23238166
80	0x3dba9fe8	0.09112531
81	0x3c6dc00d	0.0145111205
82	0x3e23b1fd	0.15985866
83	0x3ccefd9c	0.025267415
84	0x3e4124a6	0.18861637
85	0x3e58e010	0.21179223
86	0x3dd486d6	0.103772804
87	0x3d20df6e	0.03927558
88	0x3e15db0d	0.14634342
89	0x3e5c0f1e	0.21490142
90	0x3e4d32c8	0.20038903
91	0x3d982644	0.074291736
92	0x3e1e2915	0.15445359
93	0x3dfa2e2f	0.1221584
94	0x3e2310c3	0.15924363
95	0x3e432479	0.19056882
96	0x3e5e1732	0.21688536
97	0x3d73334d	0.059375096
98	0x3d8e906f	0.06961142
99	0x3ded7980	0.1159544
100	0x3ca09a76	0.019604903
101	0x3e70dfda	0.23522893
102	0x3c99bd18	0.018766925
103	0x3d85a2db	0.06525203
104	0x3ce84bc1	0.028356435
105	0x3e1055e7	0.14095269
106	0x3d27c388	0.040957958
107	0x3de36e32	0.111050025
108	0x3dc32e95	0.09530369
109	0x3e1395f1	0.14412667
110	0x3c5095fa	0.01273107
111	0x3e651de8	0.2237469
112	0x3d39d9cb	0.04537372
113	0x3e2be53e	0.16786668
114	0x3d66c92d	0.0563442
115	0x3e33696f	0.17520688
116	0x3e439644	0.1910029
117	0x3de577e5	0.11204509
118	0x3e6a77ed	0.2289731
119	0x3dc49871	0.095993884
120	0x3e59e760	0.21279669
121	0x3d1a7fec	0.037719652
122	0x3dc627a1	0.09675527
123	0x3e81d7b1	0.25359872
124	0x3c0f84e9	0.008759716
125	0x3e72aae5	0.23698004
126	0x3e3e7833	0.1860054
127	0x3e278af1	0.16361596
128	0x3e0b5b65	0.13609083
129	0x3e04838e	0.12940809
130	0x3e03ecb6	0.12883267
131	0x3d629267	0.0553154
132	0x3df4ee6f	0.1195954
133	0x3d668275	0.056276757
134	0x3e2c4507	0.16823207
135	0x3e764b96	0.24052271
136	0x3e01f2ec	0.12690324
137	0x3e7af134	0.24506074
138	0x3e16150e	0.14656469
139	0x3d8ec218	0.06970614
140	0x3d79d362	0.060992606
141	0x3c85cb0d	0.016332174
142	0x3e5f8e4f	0.2183163
143	0x3db5ce31	0.088772185
144	0xbbde6265	-0.006786632
145	0x3da6bb8f	0.08141243
146	0x3ded3f76	0.1158437
147	0x3dbe9584	0.093058616
148	0x3e57e2bf	0.2108259
149	0x3dae8273	0.08520975
150	0x3e701c76	0.23448357
151	0x3e28210b	0.16418855
152	0x3e69f6cf	0.22848056
153	0x3d77548d	0.06038337
154	0x3dc91767	0.09818917
155	0x3c478f30	0.012180135
156	0x3e39960e	0.18123648
157	0x3e1c3b55	0.15257008
158	0x3dac436e	0.08411299
159	0x3e70b1f7	0.23505388
160	0x3e483eb2	0.19555166
161	0x3d58aac9	0.05289725
162	0x3e61f61f	0.22066544
163	0x3ded6c18	0.11592883
164	0x3dd4bd2f	0.103876464
165	0x3e57c5b6	0.21071514
166	0x3e3ef000	0.1864624
167	0x3dab33b1	0.08359469
168	0x3bfd73b6	0.007734741
169	0x3dbe40ff	0.09289741
170	0x3e77af42	0.2418795
171	0x3db9f62f	0.09080159
172	0x3e565821	0.20932056
173	0x3b77bf72	0.003780332
174	0x3e20ac04	0.15690619
175	0x3e4e2b60	0.20133734
176	0x3cbe4de2	0.023230497
177	0x3e7273e2	0.23677018
178	0x3df7a9af	0.120929115
179	0x3d618b03	0.055064213
180	0x3c5173b0	0.01278393
181	0x3e198b06	0.1499444
182	0x3df04913	0.11732688
183	0x3e65e4cb	0.22450559
184	0x3e4932a6	0.19648227
185	0x3e5546dc	0.20827812
186	0x3d516005	0.051116962
187	0x3d95e26d	0.07318578
188	0x3e1d6b33	0.15372925
189	0x3de882b9	0.11353058
190	0x3d00f813	0.031486582
191	0x3dbdf75d	0.092756964
192	0xbd5e4937	-0.054269042
193	0x3d84e18c	0.06488332
194	0x3db6b53f	0.08921289
195	0xbd96607c	-0.07342622
196	0x3d8c8b83	0.06862547
197	0xbdc161ba	-0.09442468
198	0xbd6ed860	-0.05831182
199	0xbdca42b8	-0.09876007
200	0x3ac47ff9	0.0014991752
201	0xbba8eee8	-0.005155433
202	0xbd76f755	-0.060294468
203	0xbd9714f8	-0.07377046
204	0x3c618c39	0.013766342
205	0xbd18c357	-0.037295666
206	0xbd500888	-0.050789386
207	0xbcfb2da4	-0.030661412
208	0x3dccface	0.10008775
209	0x3c8b938e	0.017038133
210	0xbd6f2ba5	-0.058391232
211	0xbd0c80e3	-0.034302603
212	0xbc0cfaa6	-0.008604681
213	0x3da77a21	0.08177591
214	0x3cdfeedb	0.027335575
215	0xbe02251b	-0.12709467
216	0xbd0223ad	-0.031772304
217	0xbdbfba53	-0.093617104
218	0x3d840d80	0.064478874
219	0xbd92aa97	-0.07161444
220	0xbdd98293	-0.10620608
221	0xbcfd63fa	-0.030931462
222	0x3da108c8	0.07863003
223	0xbdfea531	-0.124338515
224	0x3c94df00	0.018172741
225	0xbdbdbf48	-0.09265
226	0xbdea76e6	-0.11448459
227	0xbd769bb2	-0.060207076
228	0xbd7d9364	-0.06190814
229	0xbdd46529	-0.10370857
230	0x3d8b1e37	0.067928724
231	0xbdfbec6d	-0.12300954
232	0x3dd402a3	0.103520654
233	0xbd9e773a	-0.077375844
234	0xbd71fd8b	-0.059079688
235	0xbd3325c2	-0.04373718
236	0xba97a87b	-0.0011570597
237	0xbe031bb4	-0.12803537
238	0xbdeeb012	-0.116546765
239	0x3d236615	0.039892275
240	0x3d9c1ac5	0.076222934
241	0xbe12799c	-0.14304203
242	0x3befb505	0.0073152804
243	0xbdf5d0af	-0.12002694
244	0xbe1052a1	-0.1409402
245	0x3d70659d	0.058690656
246	0x3cfef56d	0.031122888
247	0x3c817ed2	0.015807543
248	0xbe08013c	-0.13281721
249	0x3db3a2e6	0.08771305
250	0x3d9b12a8	0.07571918
251	0x3c1cde7d	0.00957453
252	0xbdb524ca	-0.088449076
253	0x3da945a4	0.08265236
254	0xbc24dc08	-0.010062225
255	0xbd1bcd1b	-0.0380374

fc2.bias f4 [32]
0	0x3d931428	0.07181579
1	0x3c1e4e50	0.009662226
2	0x3e49570b	0.1966211
3	0xbe0449a1	-0.12918712
4	0xbbace9d7	-0.0052768993
5	0x3e296ec1	0.16546156
6	0x3e28c396	0.1648086
7	0x3d7ba588	0.06143716
8	0x3d446403	0.04794694
9	0x3bd28364	0.0064243544
10	0x3e004ebc	0.12530035
11	0xbb85de1e	-0.0040853163
12	0xbdbb2ac6	-0.09139018
13	0xbdda2f8e	-0.106536016
14	0x3e44ba55	0.19211705
15	0xbdfaec84	-0.12252143
16	0x3d34c171	0.044129793
17	0xbd5b894f	-0.053597745
18	0x3d370e22	0.044691212
19	0x3c351811	0.011053101
20	0x3d972707	0.07380491
21	0x3dc34424	0.09534481
22	0x3dc8270b	0.09773072
23	0x3dfd4ef9	0.123685785
24	0x3d142208	0.036165267
25	0x3e47741b	0.19477884
26	0xbdcda3e1	-0.10041023
27	0x3e1ceb4c	0.15324134
28	0x3e288afd	0.1645927
29	0x3d477930	0.048699558
30	0x3e3af029	0.18255676
31	0x3d2aa3eb	0.04166023

fc3.weight f4 [2, 32]
0	0x3e910ef2	0.28331715
1	0x3e76719b	0.24066775
2	0x3e9965cc	0.29960477
3	0xbe15135e	-0.14558169
4	0xbd18bb06	-0.037287734
5	0x3e368bad	0.1782672
6	0x3e127350	0.143018
7	0x3e25e81e	0.16201827
8	0x3e68b37f	0.22724722
9	0x3e13a894	0.14419776
10	0x3e148484	0.14503676
11	0xbd3c4042	-0.04595972
12	0xbd27bf66	-0.040954016
13	0xbdd47b2a	-0.10375054
14	0x3e8b99f5	0.27265897
15	0xbcc54a39	-0.024083244
16	0xbabb45d2	-0.0014287776
17	0xbe0765ab	-0.13222377
18	0xbc195837	-0.009359411
19	0xbe11434e	-0.14185831
20	0x3e7b55cd	0.24544449
21	0xbe0f1d35	-0.13975985
22	0x3e6ffb83	0.23435788
23	0x3e3bdfe5	0.18347128
24	0xbd3c0b0d	-0.045908976
25	0x3e0a82fa	0.13526526
26	0xbd187730	-0.03722304
27	0x3e63592f	0.2220199
28	0x3e9063af	0.28201053
29	0x3e211237	0.15729605
30	0x3e60fc9a	0.2197136
31	0xbccda320	-0.025102198
32	0x3cb5df80	0.0222013
33	0x3d227d46	0.03967025
34	0xbd4868c7	-0.04892805
35	0x3d375309	0.044756923
36	0xbd4dd4c6	-0.050251745
37	0x3be42fc0	0.0069637
38	0xbdf4973a	-0.11942907
39	0xbe1f7b43	-0.15574364
40	0xbcc5f460	-0.024164379
41	0x3d3113f7	0.04323193
42	0xbd9784f2	-0.07398404
43	0xbdd2f1ec	-0.10300049
44	0x3d4713da	0.048602916
45	0xbd3b5404	-0.04573442
46	0xbe224938	-0.15848243
47	0x3d6c2d4a	0.05766038
48	0xbe18a4b9	-0.14906587
49	0xbd85de4d	-0.06536541
50	0xbd8323bc	-0.064033
51	0x3d6bc7f8	0.057563752
52	0x3cd82044	0.026382573
53	0x3da6e810	0.08149731
54	0x3de5ba8c	0.112172216
55	0x3dd6c7aa	0.10487302
56	0xbdb3a5cb	-0.08771857
57	0xbdf78d98	-0.12087554
58	0x3e08c834	0.13357621
59	0x3df7b434	0.12094918
60	0x3dce0708	0.10059935
61	0x3d5fac1b	0.054607492
62	0x3d9c6003	0.076355
63	0x3e15b88f	0.14621185

fc3.bias f4 [2]
0	0xbc976085	-0.018478641
1	0x3d571f2a	0.052519955
