model_checkpoint.pth (torch, 279850 bytes, 30 tensors)

raycast_branch.0.weight f4 [16, 1, 3]
00000000: d7f7 683f f24d 313f 0b2e 57bf 7c34 9a3f
00000010: 3be0 aebe e22d ac3e 46a5 cfbc 1436 f03e
00000020: 42fe ea3e b6a2 f1be 2043 c63f 066d e33e
00000030: a81f 823f 7d44 503e 6087 653e 6997 5200
00000040: d641 9180 a6af 7200 3af7 a5be 352a 7dbe
00000050: 8d87 8bbe 7682 36bf 8221 24bf 3968 473f
00000060: e129 8f80 7e3b 7180 0945 6c80 a9a9 0780
00000070: cfae 0c80 418c 1280 1256 6c81 a462 8a81
00000080: 3e14 5281 14f0 0780 5c67 0280 65fb 0980
00000090: 89e5 e2be 8651 ba3f a432 fdbe 85ca 0780
000000a0: 0356 0880 1397 0000 9467 0000 45d1 0180
000000b0: 52c0 0c80 3005 1280 df46 0f80 802e 3580
0.91003174 0.6925956 -0.8405463 1.2047267 -0.3415545 0.33628756 -0.025347363 0.46916258
0.45897108 -0.4719445 1.5489235 0.44419116 1.0165911 0.20338626 0.22414923 7.584826e-39
-1.3339764e-38 1.0532257e-38 -0.3241518 -0.24723132 -0.27251855 -0.7129282 -0.6411363 0.77893406
-1.3147499e-38 -1.0398753e-38 -9.942999e-39 -7.03711e-40 -1.164735e-39 -1.703353e-39 -4.3408107e-38 -5.0834736e-38
-3.8585431e-38 -7.28972e-40 -2.2075e-40 -9.16703e-40 -0.44315746 1.4556129 -0.49452698 -7.15499e-40
-7.65539e-40 5.4195e-41 3.7157e-41 -1.66907e-40 -1.171017e-39 -1.6549e-39 -1.402956e-39 -4.883962e-39

raycast_branch.0.bias f4 [16]
00000000: eef0 89be 677b 34bf ac5a 1fbf 6a26 30bf
00000010: d96b 54bf cfa4 cd80 bbec f33e 10d9 053f
00000020: 4c5a 9b80 830c 1380 e8bc 3a81 4fdf 1780
00000030: f6a7 83be 5253 1b80 ce28 1980 d376 1880
-0.26941627 -0.705008 -0.6224773 -0.68808615 -0.8297706 -1.8885399e-38 0.4764155 0.52284336
-1.4266894e-38 -1.749363e-39 -3.4298338e-38 -2.192324e-39 -0.25714082 -2.509448e-39 -2.310525e-39 -2.246678e-39

raycast_branch.3.weight f4 [32, 16, 3]
00000000: 08be 1b80 4826 1680 943b 1780 0bf2 2880
00000010: a14d 2980 de4e 2580 e848 2880 b4be 2780
00000020: 9f4c 2080 73ca 2380 cfe4 1e80 fb91 1780
00000030: 5f1e 1e80 a41b 2780 84c9 2480 c03d 9081
00000040: c03d 9081 0063 b980 f08a 3d80 4b70 3b80
00000050: 8292 3180 8fed 2080 8c05 1780 7b3d 2180
00000060: 001e 2801 80d2 0d01 008a 3d01 cacc 0f80
00000070: 1ba5 3780 38fc 1a00 116e 2780 1154 0d00
00000080: 7483 0680 d4c1 2680 648b 0a80 d394 4280
00000090: 4b7e 3080 b897 2680 1651 2a80 200f 1800
000000a0: 404a 8301 b89b 1b80 2b7f 0500 26f7 1180
000000b0: 4e59 0b80 006b 0780 4018 dc01 40cb b281
000000c0: 1f58 1a80 d5ed 0c80 9de7 1780 c13d 2e80
000000d0: 9579 2680 6b7c 3180 c94b 2380 a6c1 2280
000000e0: 7051 1580 f513 1080 d47d 1980 622b 1880
000000f0: 7aaf 1d80 85ad 1c80 8b21 2580 c03b 3e80
00000100: c092 1900 7071 2401 5923 8880 dc34 6d80
00000110: 0295 5b80 65ef 0c80 ce65 2480 0337 1a80
00000120: 000d 6200 0002 1d01 00c5 4a81 5b23 1980
00000130: 42b7 1e80 b29f 1180 00d9 3d01 8088 9701
00000140: 803c 0701 de53 0700 3ab7 0b00 8804 3580
00000150: 6a07 2280 f6b7 2a80 0578 2380 a814 d400
00000160: 00ec f980 bea3 b281 0079 8f00 8091 a001
00000170: 8029 c801 e238 2000 0e89 4280 4881 6001
00000180: 0a3a 1c80 978e 2280 1deb 2280 b840 0480
00000190: 7c1b 0d80 ca5d 0580 52aa 1c80 8e86 0a00
000001a0: 5ecf 0200 4098 2380 e2bd 2380 b04b 2080
000001b0: e4dc 0f80 c6da 1780 f3c5 1080 99e8 1a80
000001c0: 2f89 1a80 ce49 4480 7d71 4700 32e7 0d00
000001d0: 1490 2080 4574 1c80 0ac0 1d80 6573 1880
000001e0: 918e 0600 1e7e 0380 13d8 0400 0013 4e80
000001f0: 000b 3f80 c0ea be81 5a69 1a00 bd50 1b00
00000200: 31f9 3300 8104 3b80 07f5 1300 ae69 0e80
00000210: a060 1980 ca60 1b80 509f 1780 29ea 2f00
00000220: ff12 1180 69cb 1d80 0074 0700 9054 1300
00000230: 6053 0600 00d5 6181 c0d6 8281 8017 6981
00000240: 40aa 2401 327b 8381 4d35 7d81 0ef4 ba80
00000250: 725b 4280 d221 8001 180f 3d80 5c0b 4f80
00000260: e889 2e80 4fbb 9d00 ea1c 7e81 09fc 9281
00000270: 66d6 f080 9317 4281 d2f6 c180 e09e 2b80
00000280: 503e c580 4065 c701 6c09 1201 8c33 0e81
00000290: d0df 2a80 a8e1 0b81 29ae 7981 43b9 3b80
000002a0: 8047 af01 0098 4980 00b0 3400 0056 dd01
000002b0: 8008 2a81 8008 2a81 40c1 8b01 0013 2f01
000002c0: 00e8 6680 14a1 7a81 18b5 9580 a8f4 c381
000002d0: 7a2a 5481 3eea 1c81 acb4 2c00 487a 4380
000002e0: 5e60 3f00 fc1e 1200 0083 8601 809a 1001
000002f0: 0094 4101 68c9 3300 8ea7 4880 0c14 0480
00000300: 9d21 14be 29a5 ddbe e26d 07be f97d 3bbe
00000310: a4be 36bd eb28 4dbe 288b 4400 7fc3 88bc
00000320: 855b eabd 1685 bfbe 7e9e 28be a057 2cbe
00000330: 46b4 60be ebf0 22bd 0ff6 2abe 06e3 1581
00000340: 68ec 6100 85fc 1181 f812 8a3e 7959 633e
00000350: 0b01 f93d 9723 e53e e7cf 923e 9b7e 8d3e
00000360: d0cb 1b80 4019 2300 cadb 4f00 c5f9 1880
00000370: 46ed 0200 5604 2200 c5cb 2b81 da9a 0780
00000380: 2aaa 0900 0a8e 0c00 4c0c 0480 ef3b 1080
00000390: f95a 93bc b65e edbc afbf 5bbd 9b7c 0100
000003a0: 5fb7 1b80 9665 1380 7d3b 0100 112c 4700
000003b0: a751 1300 987f 1680 4b27 1180 6d2d 1780
000003c0: ca77 0401 b60f 7281 9bba a100 7cc9 a400
000003d0: 4fb5 6281 2db5 1781 c0a7 8d00 84bf 7f00
000003e0: 901c 9200 bc1c 3e80 ea2a 4c81 121f 7900
000003f0: cae6 8c81 30de 2800 5573 2981 d234 0880
-2.547729e-39 -2.034114e-39 -2.133589e-39 -3.760249e-39 -3.793103e-39 -3.426206e-39 -3.699574e-39 -3.649996e-39
-2.966222e-39 -3.286867e-39 -2.837146e-39 -2.164584e-39 -2.76596e-39 -3.5915e-39 -3.378368e-39 -5.298585e-38
-5.298585e-38 -1.7025081e-38 -5.651807e-39 -5.458577e-39 -4.552496e-39 -3.023956e-39 -2.114206e-39 -3.052626e-39
3.087825e-38 2.6048636e-38 3.4812828e-38 -1.450997e-39 -5.110181e-39 2.478202e-39 -3.621069e-39 1.224019e-39
-5.9817e-40 -3.559281e-39 -9.68359e-40 -6.114531e-39 -4.453409e-39 -3.544175e-39 -3.886179e-39 2.209478e-39
4.8228344e-38 -2.53542e-39 5.04797e-40 -1.649864e-39 -1.042227e-39 -6.81233e-40 8.0850034e-38 -6.567852e-38
-2.419335e-39 -1.187344e-39 -2.195304e-39 -4.246586e-39 -3.533364e-39 -4.544572e-39 -3.241429e-39 -3.191875e-39
-1.95776e-39 -1.476527e-39 -2.341026e-39 -2.219615e-39 -2.726179e-39 -2.633641e-39 -3.409946e-39 -5.715235e-39
2.348531e-39 3.020343e-38 -1.2502308e-38 -1.0029031e-38 -8.410484e-39 -1.187905e-39 -3.342599e-39 -2.407457e-39
9.004542e-39 2.883778e-38 -3.724288e-38 -2.30857e-39 -2.820805e-39 -1.618491e-39 3.4869507e-38 5.566451e-38
2.483899e-38 6.72934e-40 1.07592e-39 -4.868907e-39 -3.125067e-39 -3.923084e-39 -3.257297e-39 1.9476535e-38
-2.29517e-38 -6.562183e-38 1.3175883e-38 5.89835e-38 7.3527947e-38 2.959142e-39 -6.110309e-39 4.1235057e-38
-2.592214e-39 -3.173558e-39 -3.20675e-39 -3.90559e-40 -1.203721e-39 -4.92823e-40 -2.632493e-39 9.66624e-40
2.5806e-40 -3.26886e-39 -3.28236e-39 -2.965887e-39 -1.456773e-39 -2.190698e-39 -1.540379e-39 -2.471163e-39
-2.436935e-39 -6.27129e-39 6.561032e-39 1.276799e-39 -2.990421e-39 -2.613104e-39 -2.73212e-39 -2.245448e-39
6.02156e-40 -3.20749e-40 4.44855e-40 -7.169985e-39 -5.789582e-39 -7.0131827e-38 2.425516e-39 2.508522e-39
4.773003e-39 -5.41991e-39 1.832774e-39 -1.323608e-39 -2.33055e-39 -2.51428e-39 -2.169367e-39 4.400269e-39
-1.568018e-39 -2.736199e-39 6.84461e-40 1.77521e-39 5.80922e-40 -4.1478793e-38 -4.806261e-38 -4.2812202e-38
3.024419e-38 -4.8298577e-38 -4.6507002e-38 -1.7168953e-38 -6.093947e-39 4.7068304e-38 -5.60738e-39 -7.259079e-39
-4.273904e-39 1.4485367e-38 -4.6673177e-38 -5.399358e-38 -2.2117431e-38 -3.5649086e-38 -1.7812793e-38 -4.00592e-39
-1.8113946e-38 7.324634e-38 2.6822725e-38 -2.6118264e-38 -3.93738e-39 -2.5692168e-38 -4.585903e-38 -5.484754e-39
6.4387445e-38 -6.758519e-39 4.838583e-39 8.130598e-38 -3.1230167e-38 -3.1230167e-38 5.1337836e-38 3.2156055e-38
-9.450447e-39 -4.6033316e-38 -1.3748453e-38 -7.198275e-38 -3.8968726e-38 -2.8820735e-38 4.105575e-39 -6.196844e-39
5.820206e-39 1.664154e-39 4.94118e-38 2.655947e-38 3.5554686e-38 4.755861e-39 -6.672263e-39 -3.74533e-40
-0.14465947 -0.4329007 -0.1322551 -0.18309774 -0.044615403 -0.2003514 6.294734e-39 -0.016694782
-0.11443237 -0.37406224 -0.1646671 -0.16830301 -0.21943769 -0.03978054 -0.16695426 -2.752986e-38
8.99285e-39 -2.6813468e-38 0.26967597 0.222021 0.12158402 0.44753715 0.28674242 0.27635655
-2.552673e-39 3.2233e-39 7.33385e-39 -2.293652e-39 2.68789e-40 3.123962e-39 -3.1553937e-38 -6.98399e-40
8.87563e-40 1.15298e-39 -3.71753e-40 -1.490868e-39 -0.017987715 -0.028975826 -0.0536496 1.36536e-40
-2.54534e-39 -1.781317e-39 1.13176e-40 6.536128e-39 1.774166e-39 -2.066153e-39 -1.575299e-39 -2.128512e-39
2.4330515e-38 -4.4459652e-38 1.4852456e-38 1.51333e-38 -4.1639727e-38 -2.7864307e-38 1.3008982e-38 1.1731811e-38
1.3418229e-38 -5.704109e-39 -3.7499672e-38 1.1123241e-38 -5.1759044e-38 3.753126e-39 -3.1123144e-38 -7.53632e-40

raycast_branch.3.bias f4 [32]
00000000: 6f54 7280 84d6 7780 7655 4580 6861 1e81
00000010: 05d2 a03d ab17 8981 0eed 00bf f493 8580
00000020: 9840 8380 9671 1481 abf1 09be 9f2c 1480
00000030: 82dc 6d80 b550 ae80 2eab 4981 1c6f 4080
00000040: c217 0300 5b1f 4b80 2c62 ff3e 0458 1bbf
00000050: 3398 ab3d 20a2 3780 5c6e 9a80 1788 8581
00000060: 2a11 d680 a9ce 2abe 8803 4081 c587 1380
00000070: 5b94 a9b6 5532 a980 4cb6 7381 f963 a880
-1.0499536e-38 -1.1005378e-38 -6.367307e-39 -2.9089902e-38 0.07852558 -5.0359814e-38 -0.50361717 -1.2267197e-38
-1.2053622e-38 -2.72648e-38 -0.13471095 -1.852717e-39 -1.0089172e-38 -1.6008329e-38 -3.7040685e-38 -5.91733e-39
2.84029e-40 -6.89891e-39 0.49879587 -0.60681176 0.08378639 -5.109112e-39 -1.4182256e-38 -4.9051763e-38
-1.9658953e-38 -0.16680397 -3.5267364e-38 -1.79358e-39 -5.0538633e-06 -1.5538255e-38 -4.4762843e-38 -1.5464227e-38

common_layers.0.weight f4 [64, 288]
00000000: 8df0 1b00 4f13 1a00 7fba 0f00 deed 1c00
00000010: 85a6 1e00 b28b 1a00 b50b 1900 c66a 1d00
00000020: 4825 1c00 5410 1500 2098 1000 7698 1d00
00000030: 431c 1800 3bd2 1200 ed8b 1000 f201 0580
00000040: ed94 0300 8632 0600 b0de 1d80 6df8 1d80
00000050: d1d0 1880 cc20 1980 5077 1780 7b77 1480
00000060: 373a 1b80 6f64 1f80 96f9 1c80 0f9f 9681
00000070: 64f3 4000 3eee 4600 d010 8681 aac8 4f01
00000080: 339b 7a81 bbe6 8981 5ef0 8e80 6f93 7e01
00000090: 26a6 0abc 8ed0 683b bd6c 013b 3a50 953b
000000a0: dd73 003d 3872 383d 83e2 9fbd f954 9dbd
000000b0: 8821 cabc de6f 8001 61f4 3f01 3681 c700
000000c0: 148d e400 1bce 1001 5737 0b01 d8de db00
000000d0: 63ab 5901 2818 8d01 c907 4a80 5d0c 813e
000000e0: ee08 7f3d 032c f33d 5e92 22be 245f 2b3d
000000f0: b2a0 cdba 2698 b2be 6a47 bebe 33dd 5480
00000100: 290a 5780 d10d 5480 ad26 6080 0dc2 5b80
00000110: f56f 6480 788a 5b80 af3c 4f80 d819 5a80
00000120: 4031 0500 1ab5 1a00 e2cf 5380 c086 0900
00000130: 4883 8000 835c 2f00 70ca 7d80 c802 8700
00000140: 18af 6380 c89a 1d80 5498 2880 9610 4980
00000150: 211c 0701 fc81 4280 61ab 1501 f1f3 0e01
00000160: 48ca 2980 54c9 1701 7856 8619 8353 72bb
00000170: 1379 48bc 4840 a6be cdc5 a53e 567c 1f3d
00000180: 4649 50bd 1ef1 0581 3a7d 1881 ccff 0801
00000190: 9e27 5f00 9c2e 5d00 2e9a 9a00 f00f 4400
000001a0: 2a91 2e80 5e5a 5100 664b e580 9e47 e480
000001b0: 78ea 6e80 e85b 9700 00f4 5800 908b 4280
000001c0: 703f 7880 2042 1900 3889 0800 785a 4b00
000001d0: 7b6c 3100 ee0d 7700 b88f f200 7801 c700
000001e0: f2c9 ca81 50fa 8e00 4087 0380 3a4a 8a01
000001f0: c6a8 0881 24f1 6481 29ef 2b01 49eb 4e81
00000200: 8c2d 5681 7269 4f80 b13d 3f80 b5cc 3680
00000210: cc9d 4001 5024 2101 05ff 4580 7272 0680
00000220: 2a73 2300 5ca7 3600 568e da00 306f 3200
00000230: fe57 1100 4881 c000 fe42 7200 0ed5 c600
00000240: 6089 9500 dbcd 7b00 d85e 9200 e46b 9000
00000250: b00a a400 e1bd 1180 ae1f a100 4f71 8800
00000260: a210 9300 f008 2480 e3ba 2100 7793 0780
00000270: 8d2a 1180 b574 1300 3550 2300 70ab 1700
00000280: 5079 0e00 84a7 0f80 ac89 14be 5610 0fbe
00000290: a403 9b3b 31b4 973c e758 95be 7af2 803e
000002a0: 9948 2b3e 65b2 19bd 4ba1 c83d 8180 823d
000002b0: 0d0e 2a3d 7415 8fbc 3687 a2bc 6df0 0b3c
000002c0: dd62 8c2d d276 30bd 6b17 9bbd f89c 3080
000002d0: 60c2 12be 1994 b3bc e2e1 f638 8046 7f3c
000002e0: f83e 29bf e636 213d d581 a73e 22f0 87be
000002f0: d63f 2236 afae 6c00 dcdb 1080 b4d8 6980
00000300: d85d b380 7bd4 b480 cc21 4400 7762 0a00
00000310: 0207 5980 20e0 4a80 3222 1600 f5f8 bc00
00000320: 2c2b 0701 6d64 2a01 9e7d 4401 485a bd80
00000330: 97fd 2300 0259 5301 42e5 8201 500f 2c80
00000340: 938b 6700 58e7 0580 4c48 6480 116f 6e80
00000350: 3f9b 4000 4748 a680 42f3 7400 f340 1580
00000360: 0659 1980 4243 1a80 1c6d 1580 7eab 1c80
00000370: 2bf7 1980 91a3 1580 5418 1780 51cf 0d80
00000380: ee73 1080 d81c d43c 9134 69bc b59c d93d
00000390: 8f78 a0be 64f3 8f3e abea 80bb d934 62be
000003a0: b8d6 76bd 82a1 8e25 b150 9500 c2f5 1a00
000003b0: d660 3f00 3703 5500 3393 7500 2100 ce00
000003c0: 8dfd c800 c2ac 7381 6358 fe00 a414 0500
000003d0: a269 8a00 4755 2080 acd4 e900 7a00 0501
000003e0: 1a3d 0981 3704 f680 3199 0b80 884a 0981
000003f0: fc8b 72a7 f8d8 e9b1 4e09 e2ad 315f 43aa
2.565852e-39 2.39465e-39 1.444435e-39 2.656725e-39 2.814801e-39 2.437836e-39 2.300087e-39 2.701532e-39
2.584768e-39 1.934403e-39 1.52394e-39 2.717922e-39 2.21419e-39 1.728455e-39 1.519564e-39 -4.59875e-40
3.28931e-40 5.69137e-40 -2.743115e-39 -2.752348e-39 -2.278961e-39 -2.307653e-39 -2.155018e-39 -1.879571e-39
-2.500442e-39 -2.882929e-39 -2.660928e-39 -5.5329536e-38 5.964784e-39 6.51395e-39 -4.924795e-38 3.8163865e-38
-4.6029098e-38 -5.0656934e-38 -1.3126868e-38 4.675821e-38 -0.008462464 0.00355247 0.001974865 0.004556683
0.031360496 0.045030802 -0.078068756 -0.07682223 -0.024674192 4.7180296e-38 3.5256493e-38 1.8321616e-38
2.0989102e-38 2.6596496e-38 2.5569972e-38 2.0191915e-38 3.997957e-38 5.182988e-38 -6.79862e-39 0.25204745
0.062264375 0.11873629 -0.15876147 0.04183878 -0.001568815 -0.34881705 -0.3716386 -7.793533e-39
-7.993333e-39 -7.719138e-39 -8.830082e-39 -8.426642e-39 -9.223712e-39 -8.406703e-39 -7.276773e-39 -8.274466e-39
4.76845e-40 2.45269e-39 -7.69692e-39 8.74859e-40 1.1802038e-38 4.349455e-39 -1.1552058e-38 1.239879e-38
-9.154526e-39 -2.718754e-39 -3.728065e-39 -6.709941e-39 2.4815765e-38 -6.107772e-39 2.7489936e-38 2.62563e-38
-3.83782e-39 2.7878766e-38 1.38902e-23 -0.0036976046 -0.012235898 -0.32470918 0.32377473 0.038936935
-0.05085113 -2.4601235e-38 -2.8007836e-38 2.516278e-38 8.738584e-39 8.557421e-39 1.4197976e-38 6.250531e-39
-4.276508e-39 7.471093e-39 -2.1057376e-38 -2.0964185e-38 -1.0186016e-38 1.390013e-38 8.169054e-39 -6.111208e-39
-1.1043017e-38 2.319609e-39 7.83909e-40 6.920116e-39 4.538855e-39 1.0933421e-38 2.2275747e-38 1.827579e-38
-7.449286e-38 1.3130436e-38 -3.24025e-40 5.0799704e-38 -2.5100344e-38 -4.2049996e-38 3.157933e-38 -3.8005033e-38
-3.933827e-38 -7.292831e-39 -5.807767e-39 -5.032552e-39 3.5378044e-38 2.9597083e-38 -6.428133e-39 -5.92068e-40
3.255555e-39 5.019154e-39 2.0071199e-38 4.631661e-39 1.592769e-39 1.7678793e-38 1.0493279e-38 1.8259858e-38
1.373277e-38 1.1369613e-38 1.3442006e-38 1.3263015e-38 1.5064855e-38 -1.629319e-39 1.479688e-38 1.2530275e-38
1.3505785e-38 -3.309284e-39 3.097614e-39 -6.95749e-40 -1.576468e-39 1.786741e-39 3.243015e-39 2.173717e-39
1.329216e-39 -1.437626e-39 -0.14505643 -0.13971075 0.0047306586 0.01851854 -0.2916939 0.25184995
0.16726913 -0.037523646 0.09796389 0.063721664 0.041517306 -0.017466284 -0.019839864 0.008541209
1.5960061e-11 -0.043082066 -0.07572826 -4.464414e-39 -0.1433196 -0.021921204 0.00011772268 0.015580773
-0.6611171 0.039358996 0.3271624 -0.26550394 2.4177039e-06 9.980898e-39 -1.548239e-39 -9.720466e-39
-1.6472219e-38 -1.6606613e-38 6.256938e-39 9.53677e-40 -8.175873e-39 -6.876228e-39 2.032648e-39 1.7354382e-38
2.4826558e-38 3.129612e-38 3.608964e-38 -1.7389296e-38 3.305213e-39 3.881844e-38 4.8083427e-38 -4.046255e-39
9.509126e-39 -5.42168e-40 -9.209485e-39 -1.0141748e-38 5.933164e-39 -1.527062e-38 1.0740182e-38 -1.951845e-39
-2.327823e-39 -2.41185e-39 -1.967686e-39 -2.632914e-39 -2.384555e-39 -1.987222e-39 -2.120944e-39 -1.268233e-39
-1.510956e-39 0.02589266 -0.014233724 0.106255926 -0.3134198 0.2811538 -0.0039342246 -0.22090472
-0.060263366 2.4742515e-16 1.3712436e-38 2.475884e-39 5.820374e-39 7.80717e-39 1.0797558e-38 1.8918158e-38
1.8458056e-38 -4.4756e-38 2.3357923e-38 4.66582e-40 1.2711192e-38 -2.969328e-39 2.1473963e-38 2.4428584e-38
-2.5206764e-38 -2.2593044e-38 -1.065145e-39 -2.52164e-38 -3.3660132e-15 -6.805859e-09 -2.5697357e-11 -1.7352505e-13

common_layers.0.bias f4 [64]
00000000: b6da 7d3d 2e86 64bd a91c 93b0 3ace adbc
00000010: 4482 79be ce4b 26bc 76d1 38be 082b 19bd
00000020: 6cc3 12be c82d debc 8171 6abe 081b c93d
00000030: 1bc4 583d 9b06 42bc ae0c 973d 8a60 1ab3
00000040: 3dfe 2bbd 30dc cc3d 79cb 58bc 0ac1 05bd
00000050: 40e4 de3d 9fca 9dbd f89d 593d 1e4b 06be
00000060: d9de 7e3c de0a a63d 0851 5f3d 0c29 50bd
00000070: 2ff9 00bd f501 2cbe caa6 9dbd 6fbe adbd
00000080: 038d 1fbe 557a 4abb c13c c2bb d6b2 a6bd
00000090: 5766 07a9 c0d4 60bd 0713 b5bc 4729 48be
000000a0: c8a8 21bd b8ab b8bd f031 22be 3769 10bb
000000b0: c4ce 06bc 1751 6eb7 2972 ba3d 65aa 66bd
000000c0: 9189 d2bd d821 40bd 07f5 26be 838a b1bd
000000d0: 7469 c9bd 7449 16bc 449c a93d 02eb 733d
000000e0: a4c4 ea3d 0a97 a33d d011 55b1 c495 e33d
000000f0: 6b57 abbd f132 333d 1f13 e23d f836 ffbd
0.061976157 -0.055792026 -1.0703803e-09 -0.0212165 -0.24366099 -0.010149909 -0.18048653 -0.037394553
-0.1433236 -0.02712144 -0.22894861 0.09819609 0.052921396 -0.011842395 0.07375465 -3.594372e-08
-0.041990507 0.10002935 -0.013232105 -0.0326548 0.10883379 -0.077046625 0.053129166 -0.13114592
0.015556061 0.081075415 0.054520637 -0.050820395 -0.03148764 -0.16797622 -0.07697828 -0.08483588
-0.15581135 -0.003089567 -0.0059276526 -0.08139579 -3.0064787e-14 -0.054890394 -0.0221038 -0.19546996
-0.039467603 -0.09017128 -0.15839362 -0.002203537 -0.008228008 -1.4204786e-05 0.091038056 -0.056314845
-0.10280145 -0.046907276 -0.16304408 -0.08668997 -0.09834567 -0.009172786 0.082817584 0.059550293
0.114632875 0.07987793 -3.1005705e-09 0.1111255 -0.08366283 0.043749753 0.11038803 -0.12461656

common_layers.3.weight f4 [32, 64]
00000000: be20 953c 985d e53d 1976 c600 5da2 853d
00000010: 33c4 2e3d 0065 16bb 688d da3c 2d16 333d
00000020: 6b4e 01be 2d33 bd3d 5d18 4e3d ef17 9b3c
00000030: c1d4 eb3b d819 2d3d d3fa ac3b d926 2b30
00000040: 688e 013d 5892 03be eb96 35b7 0faa ad3d
00000050: d473 953c 392a c23d 99fd b93d 2708 8c3d
00000060: f47e 3d3b 4d05 cfbd 63c2 82bc e322 16be
00000070: a7ed 0c3b f5d1 cbbd 9f83 4abd 1b12 db3c
00000080: 43c7 723d fe68 bebb b52d e5bc da81 d23d
00000090: 3e81 7881 13ce e2bd 98d6 4dbd d224 9e3d
000000a0: ba01 3ebd 4314 73bc 2f52 d839 2139 89bd
000000b0: 0564 953d b492 b200 b9b5 84bd c921 9abd
000000c0: 94fa 993c a888 b13d 106c aabd 4fc1 d03d
000000d0: 0959 d1bd 1527 663d 8dac 0fbe 5c04 5b3c
000000e0: 0492 4fbc 8314 783c db8f 9c00 d545 02be
000000f0: 0507 7b3d c105 2c3d c4ab 7cbc ea5d f13d
00000100: 1fbc df3c 6f34 d33d 4a81 b080 03df 9c3d
00000110: b7fd 843d 6e0b 4b3c 7df7 d13c b8da ec3c
00000120: 0ded 01be 8aa9 b03d 5d48 713d a43e ad3c
00000130: ae2a b2bb bec8 6b3d 61b4 dc3c 2342 7230
00000140: 9381 363d f88d f8bd 9a65 30b8 7a8f a13d
00000150: 949e 9c3c dd93 a53d bbef ca3d 8f95 ac3d
00000160: 46bd 893c acb3 e0bd 52a5 d2bb 4a8e 11be
00000170: d97a 7c3c 71d3 debd 6b9e 61bd 371c f53c
00000180: 804c 8e3d a382 d9bb 2a17 1bbd 298c c83d
00000190: dec1 4f80 feed dbbd e77f 2fbd 4cd9 a63d
000001a0: dcb0 5abd 63ec 9dbc 34b4 933c 5420 78bd
000001b0: 5420 943d f8ad 6800 fd64 8dbd eec5 86bd
000001c0: 959a f73c 423b 903d a60e 70bd 7acf d23d
000001d0: 6e29 a6bd 0426 5b3d 79fa e0bd cae8 b03c
000001e0: 1cf3 3e3b d82e c1bc bd98 7480 4b3d dcbd
000001f0: 8f80 843d cf11 043d 7091 98bc d74d 073e
00000200: 05b0 f43b 0b88 18bd 0600 b600 085e d13d
00000210: 67d0 803d 433d 903c f0cc 9d3c 3cde 193d
00000220: 6635 283d b396 b73d 709d 003d 1eb6 e9bb
00000230: d413 b0bd 94fa 88bc e78b 62bc b569 ad2f
00000240: 05d1 1ebe af66 e73b 23d4 d63a b692 e2bd
00000250: ed78 35ba d944 3bbd af98 97bd b3c6 ca3d
00000260: 6e74 a4bd a5e1 67bd 2ae2 a2bc 15d0 af3d
00000270: e268 15be f02f 8c3d a0eb cebb 312f 51bd
00000280: d833 b03d 04ce 8fbb cfa6 af3d a383 fbbb
00000290: f45b 8481 dcc4 383d 6239 d73d 1527 a0bd
000002a0: 9848 0f3d 81fe c83d f502 dfbd 78b7 04bd
000002b0: c044 a03d 3ac4 891e 97c7 a13c 3675 633d
000002c0: af6a c3bd aafb 2dbd 9fed 5a3d 53e9 5cbd
000002d0: 2cdb 923c a85f 6abd e3ca ca3b 84f5 483c
000002e0: 7d5d 61bc 70f2 0c3c 7a6d 3801 53a5 a13b
000002f0: c610 f7bc bf86 8ebd 1ea0 f43b d4ff 99bc
00000300: 0989 98be 098a 0ebd c8b9 0301 b9b0 dcbd
00000310: 1166 8ebe 8554 5bbd 9137 6dbe 1157 21be
00000320: 4771 ce3d e2d0 c4bc cac1 7ebe 6d1e a0be
00000330: 678d b03d c475 abbc 18fa 11be edf6 cab0
00000340: 474a 78bc 260a 9b3c 6690 26bb 7af5 e8bc
00000350: ca4c a8be d9f8 70bc 627a 9a3d 3463 503d
00000360: d473 0bbe 14f7 84bd 0587 76be 0097 adbd
00000370: 72bb 753d a953 8f3d c6ed 853d f952 0a3e
00000380: 25f9 ee3d 8349 d2bb f913 ea3c c7c5 383e
00000390: 360d 8781 beb3 3abd 1518 343c e049 73bb
000003a0: 3173 bcbd 0512 3e3d 6cae 74be 5971 443e
000003b0: 27b3 3b3d e87e 78b6 0c41 a2bc 31b7 b9bd
000003c0: fd74 963d 13dc a6b9 4050 82be 0529 81bd
000003d0: 8c24 eabd eabd 7d3d d170 783c 23f6 88be
000003e0: 55b5 b9be 5d1e 6ebe 3342 0aa5 5e1b 5a3d
000003f0: dd0b 693d 6158 6dbd 320e 65be f30e 3ebe
0.01820409 0.11199492 1.8225794e-38 0.06525109 0.04266758 -0.0022948384 0.026678756 0.04372232
-0.1262757 0.09238277 0.050316203 0.01893231 0.007196993 0.042260975 0.005278924 6.2264643e-10
0.03162995 -0.12848794 -1.0823579e-05 0.08479702 0.018243708 0.094807096 0.09081573 0.068374924
0.0028914781 -0.10108433 -0.015961831 -0.14661746 0.0021503957 -0.099521555 -0.04944193 0.026742032
0.059272062 -0.005810856 -0.027975896 0.102786735 -4.5643133e-38 -0.11074462 -0.05025348 0.07721867
-0.046388365 -0.014836374 0.00041259962 -0.067003496 0.07294468 1.6399345e-38 -0.06479973 -0.07525975
0.018796243 0.08668643 -0.083213925 0.10193121 -0.1022206 0.056189615 -0.14030667 0.013367739
-0.01266909 0.015141609 1.4377943e-38 -0.12721951 0.06128599 0.041997675 -0.0154218115 0.11785491
0.027311383 0.10312735 -1.6209428e-38 0.076597236 0.06493705 0.012392862 0.025630707 0.028912887
-0.12688084 0.08626087 0.0589069 0.021148033 -0.0054372167 0.05756449 0.02694148 8.8133073e-10
0.044557165 -0.121364534 -4.2056294e-05 0.07888694 0.019118585 0.08084843 0.09909006 0.084269635
0.016813885 -0.1097177 -0.006428399 -0.14214435 0.015410149 -0.10880173 -0.05508272 0.02992068
0.06948185 -0.0066378876 -0.037863888 0.097923584 -7.32455e-39 -0.10738753 -0.042846587 0.08146915
-0.053391322 -0.019277757 0.018030263 -0.060577706 0.072327286 9.6133e-39 -0.069040276 -0.06580721
0.030225078 0.070425525 -0.05860772 0.10293479 -0.08113371 0.05350305 -0.10985274 0.021595377
0.0029136604 -0.023581907 -1.070771e-38 -0.10753878 0.06469833 0.032243546 -0.018624038 0.13213287
0.007467272 -0.037239116 1.6714069e-38 0.10223013 0.062897496 0.017607337 0.01926276 0.037565455
0.04106655 0.089642905 0.031400144 -0.0071323058 -0.08597532 -0.016721047 -0.013827301 3.1543626e-10
-0.15509422 0.0070618014 0.0016390126 -0.11063139 -0.00069226214 -0.045719955 -0.07402169 0.0990118
-0.0803002 -0.056611676 -0.019883234 0.085846104 -0.14590791 0.06845081 -0.00631471 -0.051070396
0.086036384 -0.0043885726 0.08576738 -0.0076756044 -4.862109e-38 0.045109615 0.10508992 -0.07819954
0.03498134 0.09814168 -0.10889236 -0.032401532 0.07825613 1.4586597e-20 0.019748492 0.055531703
-0.09541833 -0.042476334 0.05344927 -0.053933453 0.017926775 -0.05722013 0.0061887368 0.012265567
-0.0137551995 0.0086027235 3.3874008e-38 0.0049330383 -0.030159365 -0.069592945 0.0074653765 -0.018798746
-0.2979205 -0.03479961 2.4194192e-38 -0.10775895 -0.27812245 -0.0535474 -0.23165728 -0.1575587
0.100802 -0.024025384 -0.24878612 -0.31273213 0.0862072 -0.020930178 -0.1425556 -1.4767615e-09
-0.015154428 0.018925738 -0.0025415658 -0.028437365 -0.32871085 -0.014707767 0.07542874 0.050875857
-0.13618404 -0.06492439 -0.24074943 -0.084760666 0.059993215 0.06998379 0.06539492 0.13508214
0.11668614 -0.0064174547 0.028573977 0.18044196 -4.9610125e-38 -0.04558157 0.01099207 -0.003712289
-0.092016585 0.046403904 -0.23894662 0.19183864 0.04582515 -3.702875e-06 -0.019806407 -0.09068144
0.073465325 -0.00031825955 -0.2545185 -0.06306652 -0.11432752 0.061948694 0.015163616 -0.26750287
-0.36271158 -0.2325377 -1.1992021e-16 0.053248756 0.05689608 -0.057945613 -0.22368696 -0.1856039

common_layers.3.bias f4 [32]
00000000: ca50 4ebc a97e 28bc d3c2 813c f9dc 3e3d
00000010: 128b 6e3c 9561 6f3c 3e6e 5faf 0ec9 ac3d
00000020: 060e a1bb 2785 803c 470c 90bb 8c30 053e
00000030: 0b86 bd3c 1223 2b3c bb62 39b9 3a98 793c
00000040: a7f4 b8bb d4e5 bd3c f142 493c 8572 f2bb
00000050: 8285 2db9 9831 503c 804d 2f3c 1ffc b03d
00000060: 72b7 24bc 8117 acbb 712e ce3c e298 423c
00000070: 8716 a0bc d994 8b3c 5583 423c 21ca be3d
-0.012592504 -0.010284104 0.01583997 0.046597455 0.014559524 0.014610668 -2.0320898e-10 0.08436786
-0.004915002 0.015688492 -0.004395995 0.130068 0.023135206 0.010445373 -0.00017679755 0.015234048
-0.005644399 0.02318088 0.0122840265 -0.0073989057 -0.00016548301 0.012707137 0.01069963 0.08641838
-0.010053502 -0.0052518253 0.02516863 0.01187727 -0.019541992 0.01703875 0.011872132 0.09315897

common_layers.6.weight f4 [2, 32]
00000000: 8a7c e43e 2065 df3e 1846 d0be c2f0 e43b
00000010: c2d5 f3be 9b84 f9be aa18 8928 6bcd 63bc
00000020: c46f d43e ef28 bf3e 03f3 e53e dcdb 41bd
00000030: 0cb2 d3be 2d4b c9be 801b dcb4 4f1e edbe
00000040: c2b0 be3e ad96 dc3e 5ff2 c7be 272d c13e
00000050: 5ee6 e8b9 b1af efbe 4cbc e5be d9d7 53bc
00000060: a562 dd3e dedc ce3e 6064 ba3e d1ce e3be
00000070: 5274 6abc c957 cfbe 75a7 e1be 0982 52bb
00000080: b991 5439 6114 e436 fcea 59b8 b8d9 40bf
00000090: ce0b d6b8 2992 cbb9 1ea8 c4b2 1eb9 bdbf
000000a0: 30bf d738 2b1d f3b8 f48a bc38 e041 2cc0
000000b0: ede9 9239 9a86 a7b8 3b27 bc37 f081 f138
000000c0: 58d8 8f38 ef2b 54b9 a2f5 8338 fd64 c7b8
000000d0: 3edd 5e3b b184 82b8 a23e 7439 1978 cfbf
000000e0: 0466 cdb8 4184 0e39 9ddb 8bb6 193e 05b9
000000f0: 36f3 4abf 5d80 6f38 2144 7e39 ae22 e0bf
0.44626266 0.4363184 -0.40678477 0.0069867084 -0.47624022 -0.48733982 1.5220752e-14 -0.013903956
0.4149152 0.37335917 0.44911966 -0.047328815 -0.41346776 -0.39315167 -4.0998202e-07 -0.46312186
0.3724423 0.43083706 -0.39052102 0.3772976 -0.00044422125 -0.4681373 -0.44870222 -0.01292988
0.43239322 0.40402883 0.36404705 -0.44493726 -0.0143099595 -0.40496662 -0.44073072 -0.0032120964
0.00020272181 6.797302e-06 -5.1955678e-05 -0.7533221 -0.00010206514 -0.00038828075 -2.2893854e-08 -1.4822118
0.0001028761 -0.00011592576 8.9904206e-05 -2.6915207 0.00028021578 -7.988252e-05 2.2429615e-05 0.00011515978
6.8590685e-05 -0.00020234262 6.2923194e-05 -9.50787e-05 0.0034006382 -6.223599e-05 0.00023292986 -1.6208526
-9.7941636e-05 0.00013591444 -4.168089e-06 -0.00012707002 -0.7927736 5.7101588e-05 0.00024248708 -1.7510583

common_layers.6.bias f4 [2]
00000000: 5e3c afbb d1fb 7f3f
-0.0053477725 0.99993616

exp_avg f4 [16, 1, 3]
00000000: 9771 75ba 4eb5 8c3a f3d8 e4ba 5cab 393d
00000010: 526e 253d d094 033d f3d0 7f3b 0043 d03b
00000020: 565c ca3b 9ced 193c 5cad 593c c1ed 223c
00000030: 3caf 083d b20c c43c 85f9 a53c 1902 0000
00000040: bc03 0080 ec02 0000 b1a9 d63a 6139 5d3a
00000050: 664e 23bb 5ac3 b0bc deea efbc bc6b f2bc
00000060: ae03 0080 ea02 0080 ca02 0080 3600 0080
00000070: 5700 0080 7e00 0080 160c 0080 300e 0080
00000080: c60a 0080 3800 0080 1400 0080 4500 0080
00000090: 0324 323c b5b5 db3b 1302 87ba 3700 0080
000000a0: 3b00 0080 0000 0000 0100 0080 1000 0080
000000b0: 5800 0080 7a00 0080 6800 0080 6101 0080
-0.00093629345 0.0010735185 -0.0017459675 0.045329437 0.040388413 0.03212434 0.0039034456 0.0063556433
0.006175558 0.009395029 0.013285961 0.00994438 0.03337024 0.023931835 0.020260582 7.52e-43
-1.34e-42 1.048e-42 0.0016377476 0.0008439031 -0.0024918555 -0.021577526 -0.029286798 -0.029592387
-1.32e-42 -1.045e-42 -1e-42 -7.6e-44 -1.22e-43 -1.77e-43 -4.336e-42 -5.09e-42
-3.865e-42 -7.8e-44 -2.8e-44 -9.7e-44 0.010872844 0.006705011 -0.0010300301 -7.7e-44
-8.3e-44 0.0 -1e-45 -2.2e-44 -1.23e-43 -1.71e-43 -1.46e-43 -4.95e-43

exp_avg_sq f4 [16, 1, 3]
00000000: 144a 223b e652 1d3b 7000 2f3b 2e67 b73c
00000010: a991 9a3c 37b5 a63c 362c 653a d848 6a3a
00000020: 1c2c 653a 566e c83b 7882 b93b 1d3b 913b
00000030: d811 853c d414 533c 0206 5d3c f401 0000
00000040: f401 0000 f401 0000 566f 8039 4c2c 8b39
00000050: 760a 2e39 ae5f 2b3c 2bfb 373c 62f7 563c
00000060: f401 0000 f401 0000 f401 0000 f401 0000
00000070: f401 0000 f401 0000 f401 0000 f401 0000
00000080: f401 0000 f401 0000 f401 0000 f401 0000
00000090: d48c 823b d89a 303b 621a 3c3b f401 0000
000000a0: f401 0000 f401 0000 f401 0000 f401 0000
000000b0: f401 0000 f401 0000 f401 0000 f401 0000
0.0024763392 0.002400571 0.0026703142 0.022388067 0.018868284 0.020350082 0.00087422447 0.0008937246
0.00087422295 0.0061166687 0.005661305 0.0044320957 0.01624386 0.012883384 0.013490202 7e-43
7e-43 7e-43 0.00024497014 0.0002654515 0.0001659783 0.0104598235 0.011229317 0.013120504
7e-43 7e-43 7e-43 7e-43 7e-43 7e-43 7e-43 7e-43
7e-43 7e-43 7e-43 7e-43 0.003984073 0.0026947763 0.0028702249 7e-43
7e-43 7e-43 7e-43 7e-43 7e-43 7e-43 7e-43 7e-43

exp_avg f4 [16]
00000000: d001 e93b 788e 7f3d b601 083c 78b5 8b3c
00000010: 8954 323d 4805 0080 1da3 2039 18e1 4dbd
00000020: fe03 0080 8100 0080 8c09 0080 a000 0080
00000030: 5ec7 353c b700 0080 a900 0080 a400 0080
0.007110812 0.06239173 0.008301189 0.017054304 0.04353765 -1.895e-42 0.00015319553 -0.050263494
-1.432e-42 -1.81e-43 -3.425e-42 -2.24e-43 0.011094896 -2.56e-43 -2.37e-43 -2.3e-43

exp_avg_sq f4 [16]
00000000: 5fa0 953b f479 503d 5f38 e63a 449d 4f3c
00000010: 77d9 0e3d f401 0000 a7f5 453a c5cb f73c
00000020: f401 0000 f401 0000 f401 0000 f401 0000
00000030: 2021 173c f401 0000 f401 0000 f401 0000
0.004566237 0.050897554 0.0017564407 0.012671772 0.03487536 7e-43 0.00075515587 0.030248532
7e-43 7e-43 7e-43 7e-43 0.009224206 7e-43 7e-43 7e-43

exp_avg f4 [32, 16, 3]
00000000: b200 0080 8d00 0080 9400 0080 0801 0080
00000010: 0b01 0080 f100 0080 0c01 0080 0801 0080
00000020: d800 0080 e700 0080 c600 0080 9600 0080
00000030: c100 0080 fc00 0080 ed00 0080 c10e 0080
00000040: c10e 0080 bb04 0080 8f01 0080 8201 0080
00000050: 4101 0080 d400 0080 9300 0080 d600 0080
00000060: 9808 0000 3f07 0000 b009 0000 6400 0080
00000070: 6901 0080 b500 0000 fe00 0080 5b00 0000
00000080: 2f00 0080 fa00 0080 4100 0080 b001 0080
00000090: 3a01 0080 f900 0080 1101 0080 9a00 0000
000000a0: 6e0d 0000 b100 0080 2000 0000 7a00 0080
000000b0: 4e00 0080 3500 0080 8e02 0080 d601 0000
000000c0: a900 0080 5100 0080 9900 0080 2b01 0080
000000d0: f800 0080 4001 0080 eb00 0080 e800 0080
000000e0: 9000 0080 6500 0080 a300 0080 9a00 0080
000000f0: bf00 0080 b800 0080 ef00 0080 9c01 0080
00000100: ac00 0000 6708 0000 7803 0080 c802 0080
00000110: 5c02 0080 5100 0080 eb00 0080 a800 0080
00000120: 8702 0000 0608 0000 5e0a 0080 a100 0080
00000130: cd00 0080 7700 0080 b409 0000 800f 0000
00000140: e906 0000 3400 0000 5100 0000 5701 0080
00000150: db00 0080 1401 0080 e400 0080 6a05 0000
00000160: 6206 0080 460f 0080 a803 0000 8a0b 0000
00000170: e908 0080 cf00 0000 b001 0080 7b0b 0000
00000180: bd00 0080 e600 0080 e900 0080 2000 0080
00000190: 5a00 0080 2700 0080 b800 0080 4900 0000
000001a0: 0e00 0000 ed00 0080 ee00 0080 d800 0080
000001b0: 6c00 0080 a000 0080 7200 0080 b400 0080
000001c0: b200 0080 bc01 0080 d801 0000 5f00 0000
000001d0: d100 0080 be00 0080 c700 0080 a400 0080
000001e0: 2700 0000 1b00 0080 1c00 0000 0402 0080
000001f0: 9901 0080 4507 0080 a900 0000 b700 0000
00000200: 5901 0000 8701 0080 7f00 0000 6200 0080
00000210: aa00 0080 b700 0080 9f00 0080 3601 0000
00000220: 6c00 0080 bf00 0080 2d00 0000 7b00 0000
00000230: 2d00 0000 8c0b 0080 620d 0080 eb0b 0080
00000240: 7208 0000 730d 0080 f30c 0080 cd04 0080
00000250: b701 0080 1b0d 0000 9401 0080 0202 0080
00000260: 2d01 0080 0e04 0000 ff0c 0080 090f 0080
00000270: 2606 0080 f409 0080 fb04 0080 2201 0080
00000280: 0905 0080 e20f 0080 7e07 0000 4407 0080
00000290: 1501 0080 2507 0080 c50c 0080 8301 0080
000002a0: ee0e 0000 de01 0080 5d01 0000 e50d 0000
000002b0: b108 0080 b108 0080 4c0e 0000 f308 0000
000002c0: 9e02 0080 d10c 0080 d103 0080 360f 0080
000002d0: d90a 0080 0508 0080 2901 0000 b601 0080
000002e0: 9b01 0000 7300 0000 c20d 0000 6307 0000
000002f0: e509 0000 5701 0000 d801 0080 1700 0080
00000300: e278 8739 3680 1b39 3672 88b9 6fa9 4239
00000310: c819 ee37 fab1 81b8 c501 0000 7981 a5b7
00000320: 4595 9736 be57 5939 fc7d 74b9 0e74 67b8
00000330: 3939 7539 818e 3e38 e6e9 b9b7 b107 0080
00000340: 7e02 0000 7d07 0080 646e 98b9 1530 a7b9
00000350: 8d3e 33b9 2245 22ba 874d 19ba eb01 f6b9
00000360: ba00 0080 e200 0000 0702 0000 a000 0080
00000370: 1700 0000 e300 0000 d008 0080 2e00 0080
00000380: 4300 0000 4e00 0000 1f00 0080 6600 0080
00000390: 703d c438 979d 6db9 3ea2 aab8 0600 0000
000003a0: b200 0080 7b00 0080 0400 0000 ce01 0000
000003b0: 7b00 0000 9700 0080 7400 0080 9c00 0080
000003c0: cc06 0000 690c 0080 2004 0000 3404 0000
000003d0: 980b 0080 c807 0080 9c03 0000 4103 0000
000003e0: ba03 0000 9301 0080 700a 0080 1603 0000
000003f0: 6a0e 0080 1001 0000 a908 0080 3a00 0080
-2.5e-43 -1.98e-43 -2.07e-43 -3.7e-43 -3.74e-43 -3.38e-43 -3.76e-43 -3.7e-43
-3.03e-43 -3.24e-43 -2.77e-43 -2.1e-43 -2.7e-43 -3.53e-43 -3.32e-43 -5.293e-42
-5.293e-42 -1.697e-42 -5.59e-43 -5.41e-43 -4.5e-43 -2.97e-43 -2.06e-43 -3e-43
3.083e-42 2.6e-42 3.475e-42 -1.4e-43 -5.06e-43 2.54e-43 -3.56e-43 1.28e-43
-6.6e-44 -3.5e-43 -9.1e-44 -6.05e-43 -4.4e-43 -3.49e-43 -3.83e-43 2.16e-43
4.818e-42 -2.48e-43 4.5e-44 -1.71e-43 -1.1e-43 -7.4e-44 -9.16e-43 6.59e-43
-2.37e-43 -1.14e-43 -2.14e-43 -4.19e-43 -3.48e-43 -4.48e-43 -3.3e-43 -3.25e-43
-2.02e-43 -1.42e-43 -2.28e-43 -2.16e-43 -2.68e-43 -2.58e-43 -3.35e-43 -5.77e-43
2.41e-43 3.014e-42 -1.244e-42 -9.98e-43 -8.46e-43 -1.14e-43 -3.3e-43 -2.35e-43
9.07e-43 2.878e-42 -3.719e-42 -2.26e-43 -2.87e-43 -1.67e-43 3.481e-42 5.56e-42
2.479e-42 7.3e-44 1.14e-43 -4.8e-43 -3.07e-43 -3.87e-43 -3.2e-43 1.942e-42
-2.29e-42 -5.479e-42 1.312e-42 4.14e-42 -3.196e-42 2.9e-43 -6.05e-43 4.118e-42
-2.65e-43 -3.22e-43 -3.27e-43 -4.5e-44 -1.26e-43 -5.5e-44 -2.58e-43 1.02e-43
2e-44 -3.32e-43 -3.34e-43 -3.03e-43 -1.51e-43 -2.24e-43 -1.6e-43 -2.52e-43
-2.5e-43 -6.22e-43 6.61e-43 1.33e-43 -2.93e-43 -2.66e-43 -2.79e-43 -2.3e-43
5.5e-44 -3.8e-44 3.9e-44 -7.23e-43 -5.73e-43 -2.608e-42 2.37e-43 2.56e-43
4.83e-43 -5.48e-43 1.78e-43 -1.37e-43 -2.38e-43 -2.56e-43 -2.23e-43 4.34e-43
-1.51e-43 -2.68e-43 6.3e-44 1.72e-43 6.3e-44 -4.142e-42 -4.801e-42 -4.275e-42
3.03e-42 -4.825e-42 -4.645e-42 -1.722e-42 -6.15e-43 4.701e-42 -5.66e-43 -7.2e-43
-4.22e-43 1.455e-42 -4.662e-42 -5.394e-42 -2.206e-42 -3.57e-42 -1.787e-42 -4.06e-43
-1.806e-42 -5.698e-42 2.688e-42 -2.606e-42 -3.88e-43 -2.563e-42 -4.581e-42 -5.42e-43
5.356e-42 -6.7e-43 4.89e-43 4.984e-42 -3.118e-42 -3.118e-42 5.129e-42 3.21e-42
-9.39e-43 -4.598e-42 -1.369e-42 -5.457e-42 -3.891e-42 -2.877e-42 4.16e-43 -6.14e-43
5.76e-43 1.61e-43 4.935e-42 2.65e-42 3.55e-42 4.8e-43 -6.61e-43 -3.2e-44
0.0002583927 0.00014829714 -0.00026025035 0.000185644 2.8383816e-05 -6.18435e-05 6.35e-43 -1.9729823e-05
4.517528e-06 0.00020727419 -0.00023316586 -5.5182776e-05 0.00023386338 4.5432247e-05 -2.2162636e-05 -2.759e-42
8.94e-43 -2.686e-42 -0.00029073947 -0.00031888546 -0.00017094072 -0.0006190111 -0.0005848039 -0.00046922205
-2.6e-43 3.17e-43 7.27e-43 -2.24e-43 3.2e-44 3.18e-43 -3.161e-42 -6.4e-44
9.4e-44 1.1e-43 -4.3e-44 -1.43e-43 9.357452e-05 -0.00022660788 -8.136452e-05 8e-45
-2.5e-43 -1.72e-43 6e-45 6.47e-43 1.72e-43 -2.12e-43 -1.63e-43 -2.19e-43
2.438e-42 -4.452e-42 1.48e-42 1.508e-42 -4.159e-42 -2.791e-42 1.295e-42 1.167e-42
1.337e-42 -5.65e-43 -3.744e-42 1.107e-42 -5.171e-42 3.81e-43 -3.107e-42 -8.1e-44

exp_avg_sq f4 [32, 16, 3]
00000000: f401 0000 f401 0000 f401 0000 f401 0000
00000010: f401 0000 f401 0000 f401 0000 f401 0000
00000020: f401 0000 f401 0000 f401 0000 f401 0000
00000030: f401 0000 f401 0000 f401 0000 f401 0000
00000040: f401 0000 f401 0000 f401 0000 f401 0000
00000050: f401 0000 f401 0000 f401 0000 f401 0000
00000060: f401 0000 f401 0000 f401 0000 f401 0000
00000070: f401 0000 f401 0000 f401 0000 f401 0000
00000080: f401 0000 f401 0000 f401 0000 f401 0000
00000090: f401 0000 f401 0000 f401 0000 f401 0000
000000a0: f401 0000 f401 0000 f401 0000 f401 0000
000000b0: f401 0000 f401 0000 f401 0000 f401 0000
000000c0: f401 0000 f401 0000 f401 0000 f401 0000
000000d0: f401 0000 f401 0000 f401 0000 f401 0000
000000e0: f401 0000 f401 0000 f401 0000 f401 0000
000000f0: f401 0000 f401 0000 f401 0000 f401 0000
00000100: f401 0000 f401 0000 f401 0000 f401 0000
00000110: f401 0000 f401 0000 f401 0000 f401 0000
00000120: f401 0000 f401 0000 f401 0000 f401 0000
00000130: f401 0000 f401 0000 f401 0000 f401 0000
00000140: f401 0000 f401 0000 f401 0000 f401 0000
00000150: f401 0000 f401 0000 f401 0000 f401 0000
00000160: f401 0000 f401 0000 f401 0000 f401 0000
00000170: f401 0000 f401 0000 f401 0000 f401 0000
00000180: f401 0000 f401 0000 f401 0000 f401 0000
00000190: f401 0000 f401 0000 f401 0000 f401 0000
000001a0: f401 0000 f401 0000 f401 0000 f401 0000
000001b0: f401 0000 f401 0000 f401 0000 f401 0000
000001c0: f401 0000 f401 0000 f401 0000 f401 0000
000001d0: f401 0000 f401 0000 f401 0000 f401 0000
000001e0: f401 0000 f401 0000 f401 0000 f401 0000
000001f0: f401 0000 f401 0000 f401 0000 f401 0000
00000200: f401 0000 f401 0000 f401 0000 f401 0000
00000210: f401 0000 f401 0000 f401 0000 f401 0000
00000220: f401 0000 f401 0000 f401 0000 f401 0000
00000230: f401 0000 f401 0000 f401 0000 f401 0000
00000240: f401 0000 f401 0000 f401 0000 f401 0000
00000250: f401 0000 f401 0000 f401 0000 f401 0000
00000260: f401 0000 f401 0000 f401 0000 f401 0000
00000270: f401 0000 f401 0000 f401 0000 f401 0000
00000280: f401 0000 f401 0000 f401 0000 f401 0000
00000290: f401 0000 f401 0000 f401 0000 f401 0000
000002a0: f401 0000 f401 0000 f401 0000 f401 0000
000002b0: f401 0000 f401 0000 f401 0000 f401 0000
000002c0: f401 0000 f401 0000 f401 0000 f401 0000
000002d0: f401 0000 f401 0000 f401 0000 f401 0000
000002e0: f401 0000 f401 0000 f401 0000 f401 0000
000002f0: f401 0000 f401 0000 f401 0000 f401 0000
00000300: b40f db37 4356 0d37 2a06 6937 fabf bc35
00000310: 007f 4c33 9ee2 d334 f401 0000 fa3d 9732
00000320: 0641 ff34 a1b0 4e37 51ec 0e38 09c9 af38
00000330: de30 a935 e76c a533 eac2 f835 f401 0000
00000340: f401 0000 f401 0000 44b3 e135 1ec9 a735
00000350: f238 3f35 e178 3738 3a4c 8038 c343 8f38
00000360: f401 0000 f401 0000 f401 0000 f401 0000
00000370: f401 0000 f401 0000 f401 0000 f401 0000
00000380: f401 0000 f401 0000 f401 0000 f401 0000
00000390: eff2 9035 9640 bc35 5dbf 0a37 f401 0000
000003a0: f401 0000 f401 0000 f401 0000 f401 0000
000003b0: f401 0000 f401 0000 f401 0000 f401 0000
000003c0: 2727 e704 b5e7 6905 6919 4505 b568 8703
000003d0: 2c61 b703 9340 9203 9044 ac00 382d bc00
000003e0: d23a 7900 02f2 8705 4fe2 ad05 94d8 5d05
000003f0: ae06 f503 c679 2904 b82b 0204 f401 0000
7e-43 7e-43 7e-43 7e-43 7e-43 7e-43 7e-43 7e-43
7e-43 7e-43 7e-43 7e-43 7e-43 7e-43 7e-43 7e-43
7e-43 7e-43 7e-43 7e-43 7e-43 7e-43 7e-43 7e-43
7e-43 7e-43 7e-43 7e-43 7e-43 7e-43 7e-43 7e-43
7e-43 7e-43 7e-43 7e-43 7e-43 7e-43 7e-43 7e-43
7e-43 7e-43 7e-43 7e-43 7e-43 7e-43 7e-43 7e-43
7e-43 7e-43 7e-43 7e-43 7e-43 7e-43 7e-43 7e-43
7e-43 7e-43 7e-43 7e-43 7e-43 7e-43 7e-43 7e-43
7e-43 7e-43 7e-43 7e-43 7e-43 7e-43 7e-43 7e-43
7e-43 7e-43 7e-43 7e-43 7e-43 7e-43 7e-43 7e-43
7e-43 7e-43 7e-43 7e-43 7e-43 7e-43 7e-43 7e-43
7e-43 7e-43 7e-43 7e-43 7e-43 7e-43 7e-43 7e-43
7e-43 7e-43 7e-43 7e-43 7e-43 7e-43 7e-43 7e-43
7e-43 7e-43 7e-43 7e-43 7e-43 7e-43 7e-43 7e-43
7e-43 7e-43 7e-43 7e-43 7e-43 7e-43 7e-43 7e-43
7e-43 7e-43 7e-43 7e-43 7e-43 7e-43 7e-43 7e-43
7e-43 7e-43 7e-43 7e-43 7e-43 7e-43 7e-43 7e-43
7e-43 7e-43 7e-43 7e-43 7e-43 7e-43 7e-43 7e-43
7e-43 7e-43 7e-43 7e-43 7e-43 7e-43 7e-43 7e-43
7e-43 7e-43 7e-43 7e-43 7e-43 7e-43 7e-43 7e-43
7e-43 7e-43 7e-43 7e-43 7e-43 7e-43 7e-43 7e-43
7e-43 7e-43 7e-43 7e-43 7e-43 7e-43 7e-43 7e-43
7e-43 7e-43 7e-43 7e-43 7e-43 7e-43 7e-43 7e-43
7e-43 7e-43 7e-43 7e-43 7e-43 7e-43 7e-43 7e-43
2.6114147e-05 8.424339e-06 1.3889317e-05 1.4062964e-06 4.7612957e-08 3.9466698e-07 7e-43 1.7606897e-08
4.7544762e-07 1.2319681e-05 3.4075525e-05 8.382096e-05 1.2605703e-06 7.7032205e-08 1.8534167e-06 7e-43
7e-43 7e-43 1.681598e-06 1.2501002e-06 7.123591e-07 4.3743177e-05 6.117714e-05 6.831393e-05
7e-43 7e-43 7e-43 7e-43 7e-43 7e-43 7e-43 7e-43
7e-43 7e-43 7e-43 7e-43 1.0799539e-06 1.4025889e-06 8.269996e-06 7e-43
7e-43 7e-43 7e-43 7e-43 7e-43 7e-43 7e-43 7e-43
5.4343795e-36 1.0998165e-35 9.2675626e-36 7.958626e-37 1.0778083e-36 8.595934e-37 1.5820301e-38 1.7281295e-38
1.1133196e-38 1.2784239e-35 1.6351974e-35 1.0431149e-35 1.4401339e-36 1.992177e-36 1.5301501e-36 7e-43

exp_avg f4 [32]
00000000: f102 0080 1503 0080 ca01 0080 1808 0080
00000010: 6fd9 3eba 0e0e 0080 e0fb f83c 6f03 0080
00000020: 5803 0080 9607 0080 8bbd 1d3b 8800 0080
00000030: d402 0080 7a04 0080 570a 0080 a201 0080
00000040: 1800 0000 f001 0080 7c91 2dbc 3d7d 33bb
00000050: ece4 6abc 7101 0080 f803 0080 a80d 0080
00000060: 7705 0080 69fc 05bd d909 0080 8400 0080
00000070: dfff 0fb0 5904 0080 760c 0080 5404 0080
-1.055e-42 -1.106e-42 -6.42e-43 -2.903e-42 -0.0007280325 -5.042e-42 0.03039354 -1.232e-42
-1.2e-42 -2.721e-42 0.0024069275 -1.9e-43 -1.015e-42 -1.606e-42 -3.709e-42 -5.86e-43
3.4e-44 -6.95e-43 -0.010593768 -0.002738788 -0.014336806 -5.17e-43 -1.424e-42 -4.899e-42
-1.96e-42 -0.03271142 -3.533e-42 -1.85e-43 -5.238671e-10 -1.56e-42 -4.47e-42 -1.553e-42

exp_avg_sq f4 [32]
00000000: f401 0000 f401 0000 f401 0000 f401 0000
00000010: 10cf 233a 41fb 1207 0cfb 843c f401 0000
00000020: f401 0000 f401 0000 cdf8 da3c f401 0000
00000030: f401 0000 f401 0000 f401 0000 f401 0000
00000040: f401 0000 f401 0000 7d7a c63b 29c2 a63a
00000050: 9236 933c f401 0000 f507 9920 f401 0000
00000060: f401 0000 177d e53b 0556 bf1e f401 0000
00000070: b31c 682d f401 0000 f401 0000 3612 0000
7e-43 7e-43 7e-43 7e-43 0.0006248811 1.1057656e-34 0.01623299 7e-43
7e-43 7e-43 0.026729966 7e-43 7e-43 7e-43 7e-43 7e-43
7e-43 7e-43 0.006057082 0.0012722659 0.017970357 7e-43 2.5924474e-19 7e-43
7e-43 0.0070034373 2.0258488e-20 7e-43 1.3194046e-11 7e-43 7e-43 6.533e-42

exp_avg f4 [64, 288]
00000000: b300 0000 a700 0000 6300 0000 ba00 0000
00000010: c500 0000 aa00 0000 a000 0000 bd00 0000
00000020: b400 0000 8600 0000 6900 0000 be00 0000
00000030: 9a00 0000 7700 0000 6800 0000 2500 0080
00000040: 1300 0000 2500 0000 c800 0080 c800 0080
00000050: a700 0080 a900 0080 9e00 0080 8a00 0080
00000060: b600 0080 d200 0080 c200 0080 680f 0080
00000070: a601 0000 cd01 0000 be0d 0080 a70a 0000
00000080: d10c 0080 1b0e 0080 a503 0080 050d 0000
00000090: bd31 b235 319a 1236 7e72 8c36 aa64 9436
000000a0: ba87 16b7 0b5e 84b8 4b20 bcb8 8f1d 0bb8
000000b0: 3e87 a0b6 230d 0000 d809 0000 1f05 0000
000000c0: de05 0000 6607 0000 2507 0000 a505 0000
000000d0: 290b 0000 6f0e 0000 e101 0080 e238 af3a
000000e0: bc84 043b fe4c cf3a 2360 1737 5b3b 8636
000000f0: 7f12 29b4 b641 103a bbf5 ac3a 2802 0080
00000100: 3602 0080 2502 0080 7802 0080 5502 0080
00000110: 8e02 0080 5402 0080 0302 0080 4a02 0080
00000120: 2600 0000 ab00 0000 2102 0080 4200 0000
00000130: 4603 0000 3201 0000 3c03 0080 7103 0000
00000140: 8902 0080 be00 0080 0e01 0080 e301 0080
00000150: ef06 0000 b001 0080 a607 0000 4e07 0000
00000160: 1601 0080 c107 0000 a177 2913 ce69 c7b4
00000170: 6d3e 2237 7497 6c3a 8e10 8f3a bcec 1139
00000180: 54f4 2139 d806 0080 d307 0080 0007 0000
00000190: 7402 0000 6702 0000 f103 0000 ba01 0000
000001a0: 2d01 0080 1902 0000 db05 0080 d405 0080
000001b0: d302 0080 dc03 0000 4302 0000 b001 0080
000001c0: 1803 0080 aa00 0000 3c00 0000 ef01 0000
000001d0: 4801 0000 0803 0000 3206 0000 1405 0000
000001e0: 310c 0000 a503 0000 1b00 0080 250e 0000
000001f0: fb06 0080 b50b 0080 d208 0000 9c0a 0080
00000200: fb0a 0080 0402 0080 9a01 0080 6b01 0080
00000210: e109 0000 3c08 0000 cf01 0080 2600 0080
00000220: e400 0000 6a01 0000 9405 0000 4701 0000
00000230: 7600 0000 ea04 0000 f102 0000 1305 0000
00000240: d003 0000 2f03 0000 bb03 0000 ae03 0000
00000250: 3704 0000 7800 0080 2404 0000 7a03 0000
00000260: c003 0000 e800 0080 e100 0000 3600 0080
00000270: 6d00 0080 7c00 0000 eb00 0000 9700 0000
00000280: 6300 0000 6b00 0080 6fca 093a 8e85 4d3a
00000290: 80b8 c636 430c b337 2dde 753a 5893 603a
000002a0: d47a 3d39 19a1 273a 7912 da3a 3f03 413a
000002b0: bbc7 253a 57f6 7e38 a41b 46b6 8d61 6535
000002c0: 06d9 3227 1265 90b6 b3d8 9739 3b01 0080
000002d0: 55b8 6e34 50a4 11b6 2c6b 5437 c2dd 5437
000002e0: f35e 9c3a efdf 153b abd5 9c39 af77 f7b8
000002f0: 4f16 8e2f cc02 0000 6a00 0080 b202 0080
00000300: 9b04 0080 a504 0080 bb01 0000 4000 0000
00000310: 4302 0080 e701 0080 9500 0000 da04 0000
00000320: f006 0000 bd08 0000 0b0a 0000 dd04 0080
00000330: e800 0000 d60a 0000 630d 0000 1d01 0080
00000340: ab02 0000 2b00 0080 9502 0080 d802 0080
00000350: ab01 0000 3e04 0080 0203 0000 8700 0080
00000360: a400 0080 b000 0080 9000 0080 c000 0080
00000370: ae00 0080 9200 0080 9b00 0080 5f00 0080
00000380: 7000 0080 4faf 4039 800e 3f3a ca8a f239
00000390: a8e1 463b 8285 ef3a ca44 8e3a 344f 9a3a
000003a0: f9e8 df39 8e0f 1b1f d703 0000 ad00 0000
000003b0: a301 0000 3102 0000 0703 0000 4205 0000
000003c0: 2905 0000 760c 0080 8706 0000 1d00 0000
000003d0: 8f03 0000 d800 0080 f805 0000 cb06 0000
000003e0: 0307 0080 5006 0080 4b00 0080 0407 0080
000003f0: 87e9 f0a0 faa4 4fab 5e56 51a7 d04f bca3
2.51e-43 2.34e-43 1.39e-43 2.6e-43 2.76e-43 2.38e-43 2.24e-43 2.65e-43
2.52e-43 1.88e-43 1.47e-43 2.66e-43 2.16e-43 1.67e-43 1.46e-43 -5.2e-44
2.7e-44 5.2e-44 -2.8e-43 -2.8e-43 -2.34e-43 -2.37e-43 -2.21e-43 -1.93e-43
-2.55e-43 -2.94e-43 -2.72e-43 -5.527e-42 5.91e-43 6.46e-43 -4.93e-42 3.821e-42
-4.598e-42 -5.06e-42 -1.307e-42 4.67e-42 1.3276509e-06 2.1845447e-06 4.185654e-06 4.4224626e-06
-8.972298e-06 -6.311767e-05 -8.9705536e-05 -3.316771e-05 -4.784116e-06 4.713e-42 3.531e-42 1.837e-42
2.105e-42 2.654e-42 2.563e-42 2.025e-42 4.004e-42 5.178e-42 -6.74e-43 0.0013368393
0.0020220717 0.0015815792 9.022685e-06 4.000421e-06 -1.574608e-07 0.0005502956 0.0013195792 -7.74e-43
-7.93e-43 -7.7e-43 -8.86e-43 -8.37e-43 -9.16e-43 -8.35e-43 -7.22e-43 -8.21e-43
5.3e-44 2.4e-43 -7.64e-43 9.2e-44 1.174e-42 4.29e-43 -1.16e-42 1.235e-42
-9.1e-43 -2.66e-43 -3.78e-43 -6.77e-43 2.487e-42 -6.05e-43 2.744e-42 2.62e-42
-3.9e-43 2.782e-42 2.138978e-27 -3.7143622e-07 9.670487e-06 0.0009025254 0.0010914968 0.00013916468
0.00015445176 -2.455e-42 -2.807e-42 2.511e-42 8.8e-43 8.62e-43 1.414e-42 6.2e-43
-4.22e-43 7.52e-43 -2.1e-42 -2.091e-42 -1.013e-42 1.384e-42 8.11e-43 -6.05e-43
-1.11e-42 2.38e-43 8.4e-44 6.94e-43 4.6e-43 1.087e-42 2.222e-42 1.822e-42
4.373e-42 1.307e-42 -3.8e-44 5.074e-42 -2.504e-42 -4.2e-42 3.164e-42 -3.806e-42
-3.939e-42 -7.23e-43 -5.75e-43 -5.09e-43 3.544e-42 2.954e-42 -6.49e-43 -5.3e-44
3.2e-43 5.07e-43 2.001e-42 4.58e-43 1.65e-43 1.763e-42 1.055e-42 1.82e-42
1.368e-42 1.142e-42 1.338e-42 1.32e-42 1.512e-42 -1.68e-43 1.485e-42 1.247e-42
1.345e-42 -3.25e-43 3.15e-43 -7.6e-44 -1.53e-43 1.74e-43 3.3e-43 2.12e-43
1.39e-43 -1.5e-43 0.00052563 0.00078400306 5.9223385e-06 2.1344173e-05 0.0009379115 0.0008566878
0.00018070202 0.000639455 0.0016637585 0.00073628494 0.00063240126 6.078774e-05 -2.9520388e-06 8.5451103e-07
2.482011e-15 -4.3033006e-06 0.00028962418 -4.41e-43 2.2232537e-07 -2.1702326e-06 1.2661138e-05 1.2687817e-05
0.0011930153 0.002286907 0.00029913834 -0.000118001706 2.58455e-10 1.003e-42 -1.49e-43 -9.67e-43
-1.652e-42 -1.666e-42 6.21e-43 9e-44 -8.11e-43 -6.82e-43 2.09e-43 1.74e-42
2.489e-42 3.135e-42 3.603e-42 -1.745e-42 3.25e-43 3.887e-42 4.802e-42 -4e-43
9.57e-43 -6e-44 -9.26e-43 -1.02e-42 5.98e-43 -1.522e-42 1.079e-42 -1.89e-43
-2.3e-43 -2.47e-43 -2.02e-43 -2.69e-43 -2.44e-43 -2.05e-43 -2.17e-43 -1.33e-43
-1.57e-43 0.00018375854 0.00072882324 0.00046261243 0.0030346904 0.0018274041 0.0010854241 0.0011772872
0.00042707453 3.2835393e-20 1.377e-42 2.42e-43 5.87e-43 7.86e-43 1.086e-42 1.886e-42
1.851e-42 -4.47e-42 2.342e-42 4e-44 1.277e-42 -3.03e-43 2.141e-42 2.437e-42
-2.515e-42 -2.264e-42 -1.05e-43 -2.517e-42 -4.0812117e-19 -7.3770124e-13 -2.9051396e-15 -2.0416803e-17
