model_checkpoint.pth (torch, 279850 bytes, 30 tensors)

raycast_branch.0.weight f4 [16, 1, 3]
0.78327847 0.73405504 -1.1437782 -4.937226e-39 -2.840191e-39 1.227668e-39 -0.05149719 0.6302411
1.4319003 -0.40145683 1.4121271 0.026499908 1.2880557 0.18614602 0.42001343 -8.92067e-40
-2.15482e-40 9.45364e-40 -0.60183114 -0.37982878 -0.49032032 -0.71506 -0.8516067 0.8040034
-0.54906833 -0.571729 -0.22821715 -3.766465e-39 -4.2957e-39 -3.971295e-39 0.7029788 -2.127608
0.8257076 -2.481807e-39 -4.779278e-39 -7.548096e-39 -0.2992644 2.435083 -0.3027452 2.599539e-39
-6.62226e-40 -9.22604e-40 -6.046838e-39 -6.10057e-39 -1.445368e-39 2.536237e-39 -4.86337e-40 -1.864058e-39
00000000: f084 483f 08eb 3b3f 5367 92bf fac2 3580
00000010: 4ced 1e80 3d5e 0d00 b8ee 52bd 7b57 213f
00000020: 8248 b73f c08b cdbe 95c0 b43f 5616 d93c
00000030: 02df a43f 109d 3e3e 000c d73e b8b6 0980
00000040: ad58 0280 4a4b 0a00 9b11 1abf eb78 c2be
00000050: 440b fbbe 2c0e 37bf e602 5abf 2bd3 4d3f
00000060: be8f 0cbf d55c 12bf c2b1 69be 5f03 2980
00000070: aac6 2e80 5b3e 2b80 6bf6 333f bb2a 08c0
00000080: 9361 533f 4506 1b80 af0a 3480 0531 5280
00000090: 2f39 99be 66d8 1b40 6b01 9bbe 754e 1c00
000000a0: 0436 0780 d80b 0a80 20d8 4180 e86d 4280
000000b0: 19bd 0f80 ff9d 1b00 b64b 0580 3c4c 1480

raycast_branch.0.bias f4 [16]
-0.07529986 -8.31745e-39 -1.1763847 -0.592118 -1.1079609 -2.509882e-39 0.87909687 0.56406474
0.80561566 1.17779e-40 0.4855526 -4.559773e-39 -1.0486438 -6.747588e-39 -2.856134e-39 -6.8085e-39
00000000: d036 9abd ab91 5a80 c693 96bf 0c95 17bf
00000010: aad1 8dbf 8854 1b80 7e0c 613f 8c66 103f
00000020: d43c 4e3f 5248 0100 5a9a f83e cba6 3180
00000030: f639 86bf 8879 4980 bd19 1f80 5423 4a80

raycast_branch.3.weight f4 [32, 16, 3]
-1.4231664e-11 -1.3715401e-08 -5.7413554e-09 9.1778996e-38 -2.2180683e-38 8.4356643e-38 -7.551336e-14 -2.013883e-12
-2.4408691e-14 -2.313134e-15 -5.5404754e-14 -4.1015024e-19 -7.040721e-16 -7.723795e-14 -1.6721779e-15 2.514814e-39
2.611229e-39 -6.342935e-39 -1.7802666e-38 -8.1047074e-30 -1.9959996e-38 -5.252492e-13 -8.224647e-13 -4.22205e-19
-1.1337236e-38 9.448282e-39 -6.408268e-39 5.45632e-39 -7.0134697e-38 7.231364e-38 -6.016398e-17 -2.8487224e-16
-7.773536e-17 -3.662299e-39 -7.1730697e-38 -9.012219e-38 -1.4912063e-11 -6.0160826e-10 -1.6480919e-11 1.4073431e-38
9.726025e-38 3.1856155e-38 6.409253e-39 -5.459953e-39 5.417989e-39 4.753977e-39 1.80559e-40 -5.232629e-39
-4.945554e-39 1.8618592e-38 -1.431631e-39 -6.577359e-39 1.4166432e-37 1.4142182e-37 -8.819915e-39 -7.969755e-39
-7.234194e-39 -1.0534993e-38 -9.966794e-39 -1.2005821e-38 -9.99466e-39 -1.0237385e-38 -1.2270173e-38 -2.0374409e-38
2.2602429e-38 -4.820321e-39 -6.701539e-39 -1.0918507e-38 6.60812e-39 -8.06411e-39 -7.09436e-39 -7.076057e-39
-1.3664583e-38 -9.978313e-39 3.28271e-39 -1.9202587e-38 -1.6410573e-38 3.3911692e-38 -7.925034e-39 -6.579186e-39
-7.251002e-39 -6.9263694e-38 -7.056661e-38 1.2413217e-38 -7.610296e-39 -8.609447e-39 -9.235744e-39 3.714142e-39
4.625605e-39 5.750284e-39 3.1667103e-38 8.3560974e-38 -2.276157e-39 1.1577988e-37 9.755182e-38 -3.099429e-38
0.061153572 0.06834362 -0.27619585 -3.721752e-39 1.0909959e-38 -1.0992955e-38 -0.021840848 0.7365361
-0.04591187 0.052005813 0.44151112 0.024906268 -0.06471427 0.8809114 0.14048319 1.9242e-40
6.766394e-39 5.101821e-39 -0.32797492 -0.28586358 -0.41234344 -0.6104104 -0.11576639 -0.008746454
-0.2598678 -0.2772022 -0.2676125 -3.024928e-39 1.084993e-39 4.200713e-39 0.27103072 -0.7943141
0.5439618 -1.1654999e-38 1.397543e-38 -3.46597e-40 0.75318056 -0.650247 0.6122398 8.44652e-40
3.586353e-39 5.905156e-39 2.989219e-39 -2.81532e-39 3.923462e-39 -5.109441e-39 -5.79775e-39 4.09658e-40
-1.0941412e-05 -5.619493e-05 -5.5307326e-05 -3.07502e-39 -6.534572e-38 5.7548873e-38 -1.694684e-06 -4.8539546e-06
-1.5798647e-06 -4.803795e-07 -1.4950364e-06 -7.473882e-08 -2.9705615e-07 -1.1754018e-06 -4.28188e-07 -7.41988e-40
-7.94489e-40 -6.741284e-39 -1.6856963e-13 -6.164121e-10 -1.1074603e-15 -3.1340148e-06 -4.0012233e-06 -7.6457255e-08
-2.1727246e-14 -6.8432006e-13 -2.1234683e-26 -2.0549627e-38 -4.1501035e-38 -1.485511e-39 -4.9429457e-07 -8.1051763e-07
-9.26675e-07 -5.721531e-38 2.2839416e-38 1.027033e-37 -4.9675905e-06 -1.5072742e-05 -6.2609924e-06 -6.196844e-39
5.820206e-39 1.664154e-39 -3.747816e-39 3.946646e-39 5.496405e-39 2.348985e-39 -5.026778e-39 -2.071947e-39
0.35267422 -0.94351715 0.33144805 -7.031e-39 -1.139361e-39 -9.809133e-39 -0.66573024 -0.29593033
0.11213091 -0.36392242 0.28630728 -0.039115436 -0.3646161 -0.5911431 0.059966974 -2.827883e-39
-6.161407e-39 -8.3042e-40 0.5647358 0.06760024 -0.024554284 1.1245416 -0.1405752 -0.096566826
0.5544014 0.1233886 -0.1067617 2.832354e-39 -6.35404e-39 -5.14646e-39 -0.007160844 0.2200744
0.020984776 -8.156881e-39 1.70447e-40 2.48883e-39 -0.6957056 -0.19793129 0.108013704 -4.317765e-39
1.515965e-39 5.24332e-40 6.280737e-39 4.830384e-39 3.185785e-39 1.058346e-39 -4.991164e-39 -5.958132e-39
-0.25771856 0.11774315 0.20294803 -5.63087e-39 -6.066618e-39 1.0223455e-38 -0.8855836 -0.09735067
0.52585113 0.47959825 -0.6156346 0.11197052 -0.5572775 -0.2394572 0.061948355 2.426165e-39
00000000: b75d 7aad f9a0 6bb2 7f45 c5b1 a0d8 f901
00000010: b886 f180 00a4 e501 7d0a aaa9 e4b6 0dac
00000020: 9cda dba8 caad 26a7 5585 79a9 271c f2a0
00000030: 5aef 4aa6 a6ec ada9 7afc f0a6 4762 1b00
00000040: 0b6f 1c00 8611 4580 97da c180 0c62 248f
00000050: 5958 d980 32d8 13ab d480 67ab d139 f9a0
00000060: 9a73 7b80 f7e1 6600 a5c7 4580 006a 3b00
00000070: c0ec be81 40db c401 8cba 8aa4 b937 a4a5
00000080: db3e b3a4 00e1 2780 0045 c381 0056 f581
00000090: fb2a 83ad 6b5e 25b0 bbf7 90ad 003f 9900
000000a0: 4062 0402 0071 2d01 64ca 4500 2174 3b80
000000b0: 26ff 3a00 27c4 3300 53f7 0100 71fa 3880
000000c0: 31da 3580 0fbd ca00 ce96 0f80 009f 4780
000000d0: d0d2 4002 507e 4002 560a 6080 6fc8 5680
000000e0: fdc5 4e80 46b7 7280 5e87 6c80 58bb 8280
000000f0: 0cd5 6c80 aa79 6f80 409c 8580 90db dd80
00000100: 601e f600 187d 3480 2af9 4880 5be4 7680
00000110: c0f4 4700 75cf 5780 3040 4d80 2b0d 4d80
00000120: 4ccb 9480 7aa7 6c80 dcbe 2300 0019 d180
00000130: 00b2 b280 00a2 3801 c54b 5680 18a4 4780
00000140: d8f4 4e80 c08d bc81 c019 c081 002b 8700
00000150: 69de 5280 a3bf 5d80 7f91 6480 8471 2800
00000160: 4e5e 3200 749d 3e00 8069 2c01 8079 e301
00000170: 00c9 1880 6697 1d02 d9c7 0402 bcbf 2881
00000180: 2b7c 7a3d bdf7 8b3d 8b69 8dbe bb86 2880
00000190: 87cc 7600 e3b3 7780 94eb b2bc a18d 3c3f
000001a0: 160e 3cbd 0c04 553d bf0d e23e 3b08 cc3c
000001b0: ea88 84bd 6983 613f d3da 0f3e 6418 0200
000001c0: f4ad 4900 cd8d 3700 54ec a7be b65c 92be
000001d0: ae1e d3be db43 1cbf ee16 edbd 494d 0fbc
000001e0: 640d 85be 72ed 8dbe 8104 89be 45f0 2080
000001f0: 85d0 0b00 e1bd 2d00 8ac4 8a3e 2b58 4bbf
00000200: 1541 0b3f 65e9 7e80 d02d 9800 2cc6 0380
00000210: 71d0 403f 9676 26bf bfbb 1c3f 8c32 0900
00000220: 4b0d 2700 2c4d 4000 ba8c 2000 f7a7 1e80
00000230: 04b9 2a00 0ba3 3780 c521 3f80 f675 0400
00000240: 0291 37b7 d9b2 6bb8 caf9 67b8 e87b 2180
00000250: 52e3 b181 b6a9 9c01 e674 e3b5 27df a2b6
00000260: bd0b d4b5 6ef3 00b5 0fa9 c8b5 1a80 a0b3
00000270: 167b 9fb4 80c2 9db5 b6e1 e5b4 5c14 0880
00000280: b6a6 0880 f567 4980 e3ca 3daa 2570 29b0
00000290: 139a 9fa6 f751 52b6 3f42 86b6 d230 a4b3
000002a0: 9eb3 c3a8 759e 40ab 514c d294 00c4 df80
000002b0: 00f4 6181 002d 1080 aaaf 04b5 5992 59b5
000002c0: 9fc0 78b5 40c1 9b81 00b3 f800 e0ca 0b02
000002d0: 47af a6b6 efe0 7cb7 8415 d2b6 487a 4380
000002e0: 5e60 3f00 fc1e 1200 63cf 2880 a5f9 2a00
000002f0: bed9 3b00 0494 1900 9dbc 3680 bf8f 1680
00000300: b791 b43e 578a 71bf 8fb3 a93e 918f 4c80
00000310: 1368 0c80 dfcf 6a80 4c6d 2abf 2e84 97be
00000320: e4a4 e53d 0a54 babe de96 923e 8237 20bd
00000330: f6ae babe 2755 17bf ee9f 753d fdca 1e80
00000340: 7f17 4380 e00a 0980 8692 103f ff71 8a3d
00000350: 1126 c9bc fbf0 8f3f f2f2 0fbe d4c4 c5bd
00000360: 40ed 0d3f 2ab3 fc3d e1a5 dabd 73d7 1e00
00000370: 7a30 4580 3d0a 3880 83a5 eabb 2f5b 613e
00000380: 44e8 ab3c 11d2 5880 23db 0100 d819 1b00
00000390: c319 32bf 80ae 4abe 4a36 dd3d 2c04 2f80
000003a0: e581 1000 a0b5 0500 2464 4400 2599 3400
000003b0: acb0 2200 3d86 0b00 5659 3680 d9e0 4080
000003c0: b0f3 83be 5223 f13d 9cd1 4f3e 9350 3d80
000003d0: 430f 4280 d552 6f00 9bb5 62bf ca5f c7bd
000003e0: 2e9e 063f e78d f53e 3b9a 1dbf cd50 e53d
000003f0: bda9 0ebf 4534 75be 8fbd 7d3d 296b 1a00

raycast_branch.3.bias f4 [32]
-0.00013460321 -5.968067e-39 -0.21659535 -0.0008146523 0.047468625 0.11403985 -0.32492536 -1.5774355e-38
-0.554559 -1.0076292e-38 0.005937333 -6.755035e-39 -0.005705437 -0.000112949565 -2.891212e-20 -5.1403725e-11
-0.0042232038 -0.6224213 -4.9472887e-06 -0.00084768515 -9.9261204e-05 -0.005783433 -1.1821857e-38 -5.299798e-16
-5.5925328e-24 -0.0033748634 0.38803163 -1.6189727e-24 -0.003269103 -1.0834765e-05 -4.1317515e-05 -0.0017478777
00000000: 4624 0db9 8bfc 4080 2ccb 5dbe 648e 55ba
00000010: 766e 423d ba8d e93d 9e5c a6be 7cc4 ab80
00000020: 94f7 0dbf 9ab8 6d80 f68d c23b 4a8e 4980
00000030: adf4 babb 56df ecb8 9c88 089f 7313 62ae
00000040: cd62 8abb 0157 1fbf e300 a6b6 3037 5eba
00000050: 742a d0b8 f482 bdbb 87ba 8080 9bc1 18a6
00000060: c359 d898 d02c 5dbb 15ac c63e 1e86 fa97
00000070: 723e 56bb f6c6 35b7 584c 2db8 0b19 e5ba

common_layers.0.weight f4 [64, 288]
6.22429e-40 7.45847e-40 8.57593e-40 1.30689e-40 1.08153e-39 1.22953e-39 2.089859e-39 -1.064432e-39
4.13054e-40 1.2929324e-38 9.119901e-39 2.49775e-39 2.441154e-39 2.608964e-39 3.299574e-39 2.418931e-39
5.538404e-39 -8.039338e-39 -0.085276805 -0.127999 0.036271732 0.13764262 -0.023720903 0.21205036
0.09699266 -0.12380161 -0.14727746 -4.110349e-39 -2.418062e-38 2.047117e-38 -1.8087207e-38 -9.03849e-39
-3.695942e-39 -2.804833e-39 1.8415797e-38 -2.2358216e-38 0.0041991603 0.13082305 0.027411059 -0.1454125
-0.49761668 0.09340583 0.08092659 -0.18659258 -0.019289713 -4.36504e-40 0.15508012 0.05012235
-0.66579014 0.06835351 0.3567634 0.047613714 0.0883126 0.003966928 2.543137e-39 -0.08141978
-0.32923567 -0.16443653 -0.022142617 -0.062064014 -0.11779223 0.07878027 -0.051985957 3.144954e-39
-1.1516403e-38 2.980717e-39 1.461041e-39 -4.444135e-39 4.208036e-39 -1.619237e-39 -9.377887e-39 7.278802e-39
0.0056879474 -0.073820926 0.018262869 0.04691939 -0.244387 -0.015105056 -0.09487784 -0.04125915
0.0036229128 5.964408e-39 2.464192e-38 -6.754554e-39 -2.5558726e-38 -2.2432563e-38 1.2228403e-38 -1.916343e-38
7.134261e-39 4.088793e-39 0.02832477 0.0065127052 -0.18189085 -0.29289997 0.1914277 0.081066355
-0.10659386 5.89382e-39 0.0008872705 2.749405e-39 3.329684e-39 2.979787e-39 2.82021e-39 2.925899e-39
2.830456e-39 2.814711e-39 2.912541e-39 3.02778e-39 -1.2895252e-16 -3.5012679e-12 -2.7675502e-16 -4.3459383e-27
-6.896015e-39 -2.643656e-39 -8.707592e-36 -7.050161e-21 -6.392457e-27 -1.534809e-38 -8.362654e-39 -1.7081115e-38
-2.2065438e-38 -2.1142151e-38 -1.968641e-38 -1.1457225e-38 -7.244696e-39 -1.2642739e-38 1.6516937e-38 -2.8019652e-38
-1.4025228e-38 -4.402113e-39 3.123235e-39 1.5090886e-38 -1.458659e-39 1.1028187e-38 1.3526134e-38 6.096406e-39
9.681805e-39 1.72821e-40 1.6264213e-38 6.594766e-39 1.0942949e-38 1.6157888e-38 6.51473e-39 -2.17943e-40
-7.071846e-05 -6.318279e-05 -2.0279358e-05 1.6622987e-05 -2.899621e-06 -2.0213965e-05 -9.776006e-05 -7.0417926e-05
-7.029158e-05 -0.079348184 -0.16768627 -0.0024973387 -0.120127924 -0.023392342 0.034334287 -0.054721247
0.022063112 0.0055224216 -3.097408e-39 -3.259657e-39 -4.178634e-39 -1.528685e-39 1.318754e-39 3.8232e-41
-1.687156e-39 -4.113227e-39 -1.219016e-39 8.7441325e-14 7.8181634e-13 5.445285e-13 4.0748795e-13 -2.0755381e-13
6.8785705e-13 -1.5714911e-13 9.683016e-13 -3.8193645e-13 -1.0282561e-30 5.4553405e-28 5.2696766e-29 8.39123e-29
3.944177e-29 1.8766724e-27 5.1523937e-28 -4.7331727e-29 2.705641e-35 -3.639484e-15 -1.8627992e-10 1.356081e-38
-2.008327e-21 -4.2319023e-11 -3.5897134e-08 -4.5770235e-10 -3.2537062e-15 1.0187866e-38 2.568064e-39 2.627227e-39
5.185704e-39 4.583954e-39 3.727817e-39 2.616961e-39 2.268512e-39 2.411741e-39 2.760914e-39 -5.597103e-39
-5.291814e-39 -6.113193e-39 -7.348573e-39 -7.107042e-39 -5.497472e-39 -5.048131e-39 -6.446626e-39 -5.947622e-39
-1.404287e-26 1.4027688e-27 -1.0881454e-24 -1.0242755e-24 9.611999e-26 -2.0426028e-27 -3.8769162e-27 6.059193e-27
-1.085732e-27 -0.002115406 -0.0031464777 -0.0023654897 -0.0016393375 -0.0010617162 -0.0010336637 -0.0014710543
-0.0021365008 -0.0019881208 -0.073650844 -0.1181679 0.019922044 0.028151205 -0.05626932 0.029875534
0.029014522 -0.04132232 -0.00022613688 -2.828714e-39 -3.811193e-39 -1.587472e-39 -1.405298e-39 -1.94537e-39
-1.528378e-39 -2.766965e-39 -3.088133e-39 -1.886093e-39 0.010213592 0.010785024 0.009700811 0.008971952
00000000: 14c7 0600 1e1f 0800 9f56 0900 4f6c 0100
00000010: dec6 0b00 6e63 0d00 adc1 1600 3497 0b80
00000020: 6d7f 0400 b2c9 8c00 934e 6300 b632 1b00
00000030: f294 1a00 bb68 1c00 dfed 2300 ff56 1a00
00000040: d14e 3c00 678a 5780 9ba5 aebd 2b12 03be
00000050: ab91 143d 30f2 0c3e 5752 c2bc bb23 593e
00000060: 16a4 c63d b38b fdbd e7cf 16be fbc1 2c80
00000070: dea6 0381 4be9 de00 c6f3 c480 a26b 6280
00000080: c83e 2880 bc8a 1e80 c087 c800 9c75 f380
00000090: 1c99 893b 7af6 053e 288d e03c 04e7 14be
000000a0: 9dc7 febe 8e4b bf3d d7bc a53d 2012 3fbe
000000b0: 7605 9ebc ccc0 0480 53cd 1e3e 184d 4d3d
000000c0: 3971 2abf edfc 8b3d b1a9 b63e 9906 433d
000000d0: 3ddd b43d 01fd 813b 3bb1 1b00 6abf a6bd
000000e0: 9491 a8be 0d62 28be 6f64 b5bc d636 7ebd
000000f0: 0d3d f1bd 8d57 a13d 3aef 54bd da3e 2200
00000100: 0c67 7d80 0775 2000 cae8 0f00 7164 3080
00000110: 4bd2 2d00 c6a1 1180 bc1d 6680 5742 4f00
00000120: f661 ba3b 6d2f 97bd 039c 953c 8c2e 403d
00000130: 9640 7abe 327b 77bc 504f c2bd 5bff 28bd
00000140: 646e 6d3b 58f2 4000 d329 0601 f38c 4980
00000150: aa27 0b81 dc44 f480 d027 8500 d9ab d080
00000160: 6baf 4d00 e485 2c00 5909 e83c 8868 d53b
00000170: 9841 3abe fcf6 95be 9f05 443e 1e06 a63d
00000180: e24d dabd 922d 4000 b797 683a 39f0 1d00
00000190: ce41 2400 6f72 2000 99b5 1e00 37dc 1f00
000001a0: 29d2 1e00 45a6 1e00 fbb6 1f00 38f8 2000
000001b0: 11ac 14a5 3c61 76ac d589 9fa5 0d29 ac93
000001c0: 4917 4b80 70c9 1c80 a430 3985 7d2c 059e
000001d0: 373b fd93 3b20 a780 ad0f 5b80 33ff b980
000001e0: 7745 f080 b737 e680 b45d d680 15c2 7c80
000001f0: 44e3 4e80 d0aa 8980 80da b300 b28d 1881
00000200: a1b8 9880 4def 2f80 4f02 2200 4053 a400
00000210: 26e2 0f80 1916 7800 5c49 9300 4d62 4200
00000220: ef6c 6900 c1e1 0100 021a b100 86cf 4700
00000230: 7d28 7700 9ef1 af00 6bf0 4600 895f 0280
00000240: af4e 94b8 0181 84b8 971d aab7 9871 8b37
00000250: 1c97 42b6 2991 a9b7 8804 cdb8 56ad 93b8
00000260: 8169 93b8 4d81 a2bd f3b5 2bbe 64aa 23bb
00000270: a105 f6bd 4ca1 bfbc 1ca2 0c3d 6323 60bd
00000280: b3bd b43c 6ef5 b43b 50ba 2180 997e 2380
00000290: 5580 2d80 5aa5 1080 265c 0e00 936a 0000
000002a0: 1b5f 1280 01ca 2c80 1f46 0d80 7ee6 c429
000002b0: ce0f 5c2b 6a45 192b 3465 e52a 50af 69aa
000002c0: 539d 412b 26ef 30aa be46 882b d802 d7aa
000002d0: 16d8 a68d fbe2 2c12 289a 8510 32be d410
000002e0: 58fe 4710 70af 1413 2f49 2312 1800 7090
000002f0: 47db 0f06 5120 83a7 23d1 4caf 05aa 9300
00000300: b2be 179d fc1e 3aae 512d 1ab3 e19f fbaf
00000310: 4974 6aa7 a0ef 6e00 b8f6 1b00 a49b 1c00
00000320: a277 3800 33ea 3100 a397 2800 067f 1c00
00000330: b0b3 1800 f442 1a00 4e10 1e00 72f2 3c80
00000340: 6d9f 3980 1891 4280 d504 5080 8b63 4d80
00000350: b7dc 3b80 23f8 3680 9232 4680 8dc3 4080
00000360: e812 8b94 1047 de12 e161 a897 bc7f 9e97
00000370: 48fb ed15 e8d4 2193 9a94 9993 8407 f013
00000380: 860a ac92 a0a2 0abb 2335 4ebb 5506 1bbb
00000390: 0adf d6ba 4929 8bba 007c 87ba 64d0 c0ba
000003a0: 8904 0cbb 224b 02bb 41d6 96bd 0302 f2bd
000003b0: 8e33 a33c 5b9d e63c a97a 66bd 89bd f43c
000003c0: ddaf ed3c 9841 29bd 281f 6db9 4ecd 1e80
000003d0: 0e80 2980 3a49 1180 664d 0f80 e62e 1580
000003e0: 7fa4 1080 2c21 1e80 75a0 2180 a989 1480
000003f0: e956 273c abb3 303c 26f0 1e3c 18ff 123c

common_layers.0.bias f4 [64]
0.12732507 -0.07124177 0.083188206 0.03015061 0.050171327 0.018823856 -7.188331e-33 -0.045543678
-0.12763993 -0.08472094 -0.07924822 0.10555089 -0.050708428 -0.01764581 0.042510085 -0.053910155
-0.018459769 -0.015600331 0.021571923 0.0073367683 -0.033192985 -0.1603394 -0.043168526 -0.11723432
-0.02142587 0.01627062 0.11522738 -0.0022685821 -0.13401379 0.06630076 -0.002848294 -0.078813955
-0.122634485 -0.121385 -0.055698294 -0.11855616 -0.11857676 -0.007035032 0.117730595 -0.017466653
-0.07209455 -0.07867148 0.117822595 -0.054545786 -0.13062415 -0.008699569 -0.18593739 -0.020739816
-0.095734455 -0.12826791 0.069905594 0.059149165 0.00083549425 0.10683882 -0.18417284 -0.038960442
-0.023811856 0.058946714 -0.05051876 0.09083167 -0.021509588 -0.08448426 -0.14601864 -0.112860814
00000000: 8161 023e 35e7 91bd 945e aa3d 69fe f63c
00000010: 7380 4d3d 7d34 9a3c b94b 158a 028c 3abd
00000020: 0bb4 02be 2c82 adbd e44c a2bd 112b d83d
00000030: a4b3 4fbd f28d 90bc 0e1f 2e3d e5d0 5cbd
00000040: f138 97bc 8898 7fbc 9ab7 b03c 4669 f03b
00000050: 5ef5 07bd 0330 24be 7bd1 30bd 8c18 f0bd
00000060: 4e85 afbc f749 853c 55fc eb3d 7eac 14bb
00000070: e93a 09be b1c8 873d 72aa 3abb 3669 a1bd
00000080: ca27 fbbd b398 f8bd e523 64bd 92cd f2bd
00000090: 5fd8 f2bd 2086 e6bb bd1c f13d 3a16 8fbc
000000a0: 4fa6 93bd 831e a1bd f94c f13d 676b 5fbd
000000b0: 56c2 05be a388 0ebc 5f66 3ebe 8ce6 a9bc
000000c0: 6d10 c4bd aa58 03be aa2a 8f3d 6546 723d
000000d0: 1205 5b3a 50ce da3d ce97 3cbe fc94 1fbd
000000e0: 1511 c3bc 1c72 713d c2ec 4ebd f405 ba3d
000000f0: e034 b0bc 1506 adbd e985 15be 9223 e7bd

common_layers.3.weight f4 [32, 64]
0.022982443 0.06857829 -0.20035703 0.0127014825 -0.036329567 -0.101759285 -3.490812e-39 -0.15805645
0.089146055 0.2275023 -0.117798634 -0.24979724 -0.07514429 0.0054528965 -0.09439009 0.036728393
0.038695056 -0.070553675 -0.043031145 0.018862505 -0.052750535 0.10803191 0.18825425 0.060443003
-0.2150091 0.12604201 -0.002572928 -0.027576443 0.0012926077 -0.20748602 0.021733735 -0.1286482
-0.08853239 0.1146769 -0.09184822 0.029747698 0.21229926 -4.3931316e-09 0.051616665 -0.08590136
0.07253084 0.12983145 9.38226e-05 -0.05404956 -0.04281975 0.00013950578 0.026717268 -0.08604939
0.071787715 0.27818707 -0.08700859 -0.116655536 0.0039996686 0.05806881 0.06604204 -0.107315965
-0.12923285 -0.06510453 -0.11928828 -0.19848165 0.029043438 0.05739416 -0.048455752 0.04525821
-0.03128395 -0.068515584 0.05392783 -0.07987402 0.025573993 0.06610933 -3.896928e-39 0.18098
0.026766952 -0.16080809 0.09640451 -0.015283423 0.27248487 -0.101885125 -0.01706835 -0.12438755
-0.020291971 0.1579575 -0.08947483 0.1041872 0.08748067 -0.045682315 0.18670656 -0.048031725
-0.014630047 -0.05753689 0.03074397 -0.047771532 -0.054423206 0.02454418 -0.016380066 0.18328261
0.100088604 -0.082266934 0.17603861 -0.07396568 -0.004348169 -2.0084097e-09 -0.023820668 0.097653784
-0.15820621 -0.14864248 -0.03478245 0.12423324 0.05729229 -7.685136e-09 0.14287482 0.11117082
-0.024619766 -0.13687737 0.00966559 -0.0031034946 0.007291663 -0.07454187 -0.04280317 0.031510767
0.024815347 0.057112683 0.13274284 0.012133468 -0.1394424 0.08375085 0.09109282 0.015136808
-0.38205633 -0.16088139 -0.034535043 -0.32957008 -0.30555677 -0.2224391 -1.337828e-38 -0.025396505
-0.09223317 -0.05459814 0.011411234 0.024911541 -0.070197314 -0.24753308 -0.10997 -0.016240228
-0.16084847 0.07032578 -0.04076444 0.046890773 -0.07477829 -0.015138698 -0.10369863 0.013369591
0.016221596 0.079230145 -0.3682069 0.0583132 0.024174491 0.0018257424 0.0594788 -0.097425446
-0.0029353478 -0.022235204 -0.054969847 -0.11148749 -0.026398817 -9.216147e-06 0.04204766 -0.10822656
-0.04307524 0.043684933 -0.408457 0.11586634 -0.03314283 0.0022278333 -0.19075994 -0.06648339
-0.059080448 0.11361827 -0.13636236 -0.20576106 0.00855271 0.061583836 0.062232353 -0.20576996
-0.2875243 -0.26076022 -0.03300207 0.017148681 -0.2742318 0.013531717 0.003128355 -0.08218376
0.036702827 0.047885504 -0.3844519 0.053082436 -0.07511113 -0.2073418 -5.107966e-39 -0.05094478
-0.023320783 -0.12820081 -0.21608956 -0.39855516 -0.06338013 0.02265794 -0.32593772 -0.14960183
-0.26433223 -0.055880427 -0.016822852 -0.106473036 -0.17324066 -0.11892331 0.16923012 -0.07709775
-0.277012 -0.026001722 0.020158174 -0.0815161 0.11669069 -0.37694496 0.001523244 -0.09897757
-0.014775286 0.038972408 0.021871766 -0.13382378 -0.09016755 -1.625646e-08 0.13453414 -0.18833938
-0.18459071 -0.12109095 -0.00077114 -0.10770295 0.045401037 -0.0024508848 -0.26108068 -0.12064323
0.0062642973 0.055347923 -0.03537628 -0.16369104 0.016206771 0.046286397 0.08546928 -0.13087593
-0.13719437 -0.12875114 -0.070484936 -0.39508805 0.015155316 -0.31728372 -0.060373623 0.022778498
00000000: ad45 bc3c c672 8c3d 652a 4dbe e119 503c
00000010: 50ce 14bd 2c67 d0bd f702 2680 8dd9 21be
00000020: 3592 b63d 5df6 683e 6940 f1bd d9ca 7fbe
00000030: 40e5 99bd 36ae b23b 974f c1bd 8370 163d
00000040: b57e 1e3d 727e 90bd 6d41 30bd 8a85 9a3c
00000050: f210 58bd d63f dd3d b9c5 403e 1593 773d
00000060: 582b 5cbe 2811 013e 929e 28bb fee7 e1bc
00000070: b86c a93a 3777 54be f20a b23c 5bbc 03be
00000080: 7850 b5bd b9db ea3d eb1a bcbd 72b1 f33c
00000090: fa64 593e 65f2 96b1 ff6b 533d 0ded afbd
000000a0: 0d8b 943d 89f2 043e a0c2 c438 1263 5dbd
000000b0: c363 2fbd 4c48 1239 2cde da3c aa3a b0bd
000000c0: 7005 933d 896e 8e3e 8f31 b2bd 19e9 eebd
000000d0: a70f 833b 8fd9 6d3d 0d41 873d 79c8 dbbd
000000e0: 9e55 04be 8655 85bd 6a4d f4bd c63e 4bbe
000000f0: 81ec ed3c 2416 6b3d 8a79 46bd ac60 393d
00000100: 9923 00bd e651 8cbd 6ee3 5c3d fd94 a3bd
00000110: 8d80 d13c 5464 873d 0d6f 2a80 d252 393e
00000120: 5e46 db3c e0aa 24be ba6f c53d 5267 7abc
00000130: 2383 8b3e 26a9 d0bd edd2 8bbc e6be febd
00000140: 593b a6bc 9cbf 213e 943e b7bd 1960 d53d
00000150: 1129 b33d 611d 3bbd 0130 3f3e eabc 44bd
00000160: ddb2 6fbc cdab 6bbd c7da fb3c 15ac 43bd
00000170: deea 5ebd e010 c93c 7d2f 86bc 70ae 3b3e
00000180: 41fb cc3d 917b a8bd 7743 343e 527b 97bd
00000190: 167b 8ebb 5104 0ab1 9023 c3bc b5fe c73d
000001a0: cf00 22be bc35 18be 0b78 0ebd ff6d fe3d
000001b0: 52ab 6a3d 9607 04b2 c74d 123e 87ad e33d
000001c0: 64af c9bc 9529 0cbe 6c5c 1e3c 0064 4bbb
000001d0: e7ee ee3b 68a9 98bd 6052 2fbd 6f11 013d
000001e0: 8e49 cb3c fdee 693d bded 073e 74cb 463c
000001f0: fdc9 0ebe 9185 ab3d df8e ba3d 6000 783c
00000200: e39c c3be 17be 24be 9e74 0dbd 69bd a8be
00000210: f071 9cbe 13c7 63be 34ad 9180 550c d0bc
00000220: bfe4 bcbd 4da2 5fbd 2ff6 3a3c 4a13 cc3c
00000230: 9cc3 8fbd 5079 7dbe f437 e1bd 3a0a 85bc
00000240: 76b5 24be f606 903d 9df8 26bd 8a10 403d
00000250: 5c25 99bd 4d08 78bc f35f d4bd 210c 5b3c
00000260: 27e3 843c 6a43 a23d 9d85 bcbe d2d9 6e3d
00000270: 9509 c63c c04d ef3a 0ba0 733d fe86 c7bd
00000280: f75e 40bb 9a26 b6bc 1028 61bd 8e53 e4bd
00000290: 5542 d8bc 0d9f 1ab7 2b3a 2c3d e3a5 ddbd
000002a0: aa6f 30bd f9ee 323d 4721 d1be 554b ed3d
000002b0: c7c0 07bd d700 123b 9356 43be 7228 88bd
000002c0: 57fe 71bd b2b0 e83d 93a2 0bbe 07b3 52be
000002d0: aa20 0c3c 553f 7c3d 5ae7 7e3d 5cb5 52be
000002e0: 6336 93be 5d82 85be 2e2d 07bd 647b 8c3c
000002f0: 1c68 8cbe 22b4 5d3c 1605 4d3b f64f a8bd
00000300: b455 163d 9723 443d e1d6 c4be f86c 593d
00000310: ddd3 99bd 6951 54be ee9e 3780 79ab 50bd
00000320: 3a0b bfbc 1347 03be 9546 5dbe 6c0f ccbe
00000330: 71cd 81bd 259d b93c 4fe1 a6be 3931 19be
00000340: 8e56 87be e0e2 64bd 14d0 89bc 890e dabd
00000350: 0066 31be 108e f3bd a94a 2d3e 6de5 9dbd
00000360: 84d4 8dbe 9001 d5bc c122 a53c eaf1 a6bd
00000370: 87fb ee3d eefe c0be 96a7 c73a c1b4 cabd
00000380: 0b14 72bc 88a1 1f3d 6b2c b33c 1a09 09be
00000390: c4a9 b8bd 55a4 8bb2 51c3 093e 0adc 40be
000003a0: 5905 3dbe 88fe f7bd 5426 4aba 5d93 dcbd
000003b0: 70f6 393d 069f 20bb 5eac 85be cc13 f7bd
000003c0: bc44 cd3b 81b4 623d b8e6 10bd a09e 27be
000003d0: 10c4 843c ce96 3d3d 850a af3d 5704 06be
000003e0: ae7c 0cbe 57d7 03be 685a 90bd fb48 cabe
000003f0: 014e 783c 0373 a2be 554a 77bd f999 ba3c

common_layers.3.bias f4 [32]
0.029744983 -3.4249028e-05 0.04845076 0.043135233 0.040261902 0.055643197 0.05310609 0.04170622
0.013177081 0.03805737 0.049650785 0.022956692 0.06473759 0.034291375 0.046802677 0.031990074
0.037888184 0.038500324 0.043597043 0.067562655 0.035979606 0.05419768 0.03794741 0.062038403
0.03820067 0.029003186 0.033068407 0.034416165 0.005701406 0.039013166 0.025680823 -0.015611173
00000000: c0ab f33c 9da6 0fb8 4e74 463d 92ae 303d
00000010: aae9 243d 1fea 633d c585 593d 24d4 2a3d
00000020: afe4 573c 0be2 1b3d 9f5e 4b3d ac0f bc3c
00000030: 2495 843d 1d75 0c3d 2ab4 3f3d 0608 033d
00000040: a430 1b3d 84b2 1d3d d092 323d 4a5e 8a3d
00000050: 5a5f 133d 63fe 5d3d be6e 1b3d fb1b 7e3d
00000060: 4e78 1c3d 1798 ed3c bd72 073d f7f7 0c3d
00000070: dcd2 ba3b 45cc 1f3d 9760 d23c 01c6 7fbc

common_layers.6.weight f4 [2, 32]
0.6712678 -0.7072005 -0.003940641 -0.013382486 -0.039756976 -0.24347213 -0.35250425 0.3225104
-0.71347255 -0.062312316 0.33135194 0.6888075 0.037294816 0.10098637 0.15806524 0.1227145
-0.15386371 0.7094031 -0.5644922 0.086021975 -0.0005299718 -0.35235795 0.10197399 0.055495232
-0.565864 -0.124181144 -0.18814422 -0.057948977 -0.68782383 -0.48521528 0.09965688 0.6844583
-0.34602675 0.032847874 -1.0342737 -1.1265153 0.95857465 -1.0268383 -0.93803096 -0.8381159
-0.062603995 0.74216604 -0.77182466 -0.18283397 -1.1398966 0.6938349 -0.8772347 0.6947575
0.67621154 -0.25122818 -0.517258 -1.1301407 0.9309289 -0.88632566 0.7353695 -1.131072
-0.40374297 0.6214678 0.6394198 0.87004423 -0.020084249 -0.5696852 0.61093736 -0.0882786
00000000: 35d8 2b3f 180b 35bf 7e20 81bb 3742 5bbc
00000010: 36d8 22bd c250 79be 707b b4be 1520 a53e
00000020: 23a6 36bf 333b 7fbd f6a6 a93e b055 303f
00000030: 73c2 183d f1d1 ce3d dbdb 213e bd51 fb3d
00000040: 738e 1dbe 719b 353f 9082 10bf 4a2c b03d
00000050: ceed 0aba 4368 b4be bdd7 d03d f84e 633d
00000060: 77dc 10bf af52 febd e1a8 40be e85b 6dbd
00000070: 3915 30bf 236e f8be e818 cc3d a938 2f3f
00000080: 6b2a b1be 7e8b 063d 1563 84bf a731 90bf
00000090: 2665 753f 706f 83bf cc22 70bf c38e 56bf
000000a0: 8636 80bd 98fe 3d3f 4d96 45bf d438 3bbe
000000b0: 22e8 91bf 2a9f 313f 7492 60bf a1db 313f
000000c0: 331c 2d3f fba0 80be 056b 04bf 73a8 90bf
000000d0: 5b51 6e3f 3de6 62bf 2d41 3c3f f8c6 90bf
000000e0: 66b7 cebe 8418 1f3f 04b1 233f 38bb 5e3f
000000f0: b987 a4bc e4d6 11bf 6466 1c3f 69cb b4bd

common_layers.6.bias f4 [2]
0.0027670218 0.6569128
00000000: ec56 353b 702b 283f

exp_avg f4 [16, 1, 3]
-0.009168913 -0.004455647 -0.0036975755 -4.99e-43 -2.9e-43 1.18e-43 0.015600601 0.024153277
0.023347829 -0.016682792 -0.011202523 -0.0096916985 0.0077733006 0.011450551 0.01653921 -9.5e-44
-2.7e-44 8.8e-44 0.010713952 0.011077804 0.01138981 0.0031833674 -0.0054362696 -0.007125199
-0.0021153025 -0.0024921396 -0.0028841216 -3.83e-43 -4.36e-43 -4.02e-43 -0.00059104234 -0.007108759
-0.008620642 -2.54e-43 -4.72e-43 -7.61e-43 0.012139429 0.012764475 0.012946615 2.55e-43
-6e-44 -8.7e-44 -6e-43 -6.04e-43 -1.39e-43 2.59e-43 -4.3e-44 -1.81e-43
00000000: 3539 16bc ad00 92bb 0653 72bb 6401 0080
00000010: cf00 0080 5400 0000 aa99 7f3c 18dd c53c
00000020: f243 bf3c 5aaa 88bc c98a 37bc eec9 1ebc
00000030: 2cb7 fe3b 189b 3b3c 3d7d 873c 4400 0080
00000040: 1300 0080 3f00 0000 9289 2f3c ad7f 353c
00000050: 539c 3a3c 0ba0 503b bc22 b2bb 807a e9bb
00000060: e3a0 0abb 2a53 23bb 8803 3dbb 1101 0080
00000070: 3701 0080 1f01 0080 2ef0 1aba 98f0 e8bb
00000080: 983d 0dbc b500 0080 5101 0080 1f02 0080
00000090: 75e4 463c 1722 513c 0a1e 543c b600 0000
000000a0: 2b00 0080 3e00 0080 ac01 0080 af01 0080
000000b0: 6300 0080 b900 0000 1f00 0080 8100 0080

exp_avg_sq f4 [16, 1, 3]
0.0011130226 0.0008795567 0.0010547106 7e-43 7e-43 7e-43 0.042309158 0.022239609
0.020040086 0.004741706 0.003725649 0.0038038061 0.018427804 0.016250176 0.017269362 7e-43
7e-43 7e-43 0.0039677667 0.002872923 0.0034394045 0.0073869578 0.0052157105 0.006130875
0.0031067939 0.002350615 0.0027741748 7e-43 7e-43 7e-43 0.0027113524 0.0019089471
0.0019213838 7e-43 7e-43 7e-43 0.015754972 0.015577198 0.021716455 7e-43
7e-43 7e-43 7e-43 7e-43 7e-43 7e-43 7e-43 7e-43
00000000: d7e2 913a 0d92 663a 373e 8a3a f401 0000
00000010: f401 0000 f401 0000 5e4c 2d3d d72f b63c
00000020: 1b2b a43c 5060 9b3b 052a 743b 4749 793b
00000030: e8f5 963c 171f 853c 7a78 8d3c f401 0000
00000040: f401 0000 f401 0000 0a04 823b a647 3c3b
00000050: a267 613b 4b0e f23b 8de8 aa3b 82e5 c83b
00000060: 5a9b 4b3b c70c 1a3b eece 353b f401 0000
00000070: f401 0000 f401 0000 f2b0 313b a335 fa3a
00000080: f1d6 fb3a f401 0000 f401 0000 f401 0000
00000090: 9210 813c 8137 7f3c b5e6 b13c f401 0000
000000a0: f401 0000 f401 0000 f401 0000 f401 0000
000000b0: f401 0000 f401 0000 f401 0000 f401 0000

exp_avg f4 [16]
-0.009251453 -8.38e-43 0.038611386 -0.013170138 0.018141223 -2.56e-43 0.018766388 -0.004099402
-0.004204625 6e-45 -0.0071920315 -4.61e-43 0.029619234 -6.7e-43 -2.8e-43 -6.87e-43
00000000: 6893 17bc 5602 0080 f926 1e3d 90c7 57bc
00000010: e79c 943c b700 0080 f8bb 993c 4754 86bb
00000020: f3c6 89bb 0400 0000 22ab ebbb 4901 0080
00000030: 09a4 f23c de01 0080 c800 0080 ea01 0080

exp_avg_sq f4 [16]
0.002100531 7e-43 0.06516963 0.011282096 0.044187833 7e-43 0.008868715 0.015105982
0.0073392782 7e-43 0.0048205624 7e-43 0.04830451 7e-43 7e-43 7e-43
00000000: 10a9 093b f401 0000 a877 853d 8ad8 383c
00000010: 4dfe 343d f401 0000 164e 113c 157f 773c
00000020: 547e f03b f401 0000 cff5 9d3b f401 0000
00000030: f3da 453d f401 0000 f401 0000 f401 0000

exp_avg f4 [32, 16, 3]
-1.5798846e-15 -1.4581868e-12 -6.1497313e-13 -1.743e-42 -2.213e-42 -2.878e-42 -8.619447e-18 -2.260463e-16
-2.829078e-18 -2.6927614e-19 -6.3492097e-18 -5.12795e-23 -8.2893785e-20 -8.817192e-18 -1.9653438e-19 2.56e-43
2.66e-43 -6.4e-43 -1.785e-42 -1.3178429e-33 -2.001e-42 -5.94413e-17 -9.303493e-17 -5.3000024e-23
-1.139e-42 9.5e-43 -6.46e-43 5.51e-43 -2.183e-42 -1.11e-42 -7.269181e-21 -3.4038608e-20
-9.347368e-21 -3.6e-43 2.073e-42 -1.204e-42 -1.6435414e-15 -6.5092585e-14 -1.8275752e-15 1.401e-42
-5.3e-43 -9.2e-44 6.35e-43 -5.41e-43 5.37e-43 4.8e-43 2.4e-44 -5.17e-43
-4.89e-43 1.868e-42 -1.37e-43 -6.52e-43 1.494e-42 1.469e-42 -8.76e-43 -7.92e-43
-7.17e-43 -1.048e-42 -9.91e-43 -1.207e-42 -9.94e-43 -1.019e-42 -1.222e-42 -2.032e-42
2.255e-42 -4.88e-43 -6.64e-43 -1.086e-42 6.56e-43 -8e-43 -7.03e-43 -7.02e-43
-1.36e-42 -9.92e-43 3.34e-43 -1.914e-42 -1.647e-42 4.39e-43 -7.88e-43 -6.53e-43
-7.19e-43 4.36e-43 2.033e-42 1.236e-42 -7.55e-43 -8.55e-43 -9.18e-43 3.66e-43
4.57e-43 5.69e-43 -4.75e-43 -2.958e-42 -2.33e-43 -2.098e-42 5.23e-43 -2.755e-42
0.0007917379 -0.0050881784 0.005417162 -3.67e-43 1.086e-42 -1.104e-42 -0.00062089093 0.0046819504
0.005468294 -0.0016008869 0.0009922528 0.004403724 -0.001147761 -0.00029235813 0.0028037636 1.8e-44
6.75e-43 5.13e-43 -0.0009761472 -0.0014194215 0.0006291316 -0.0007199432 0.003535407 0.0033324063
-0.00096265605 -0.00028636286 -0.0004138022 -3.08e-43 1.14e-43 4.15e-43 0.00023843098 0.0020810652
0.002566338 -1.16e-42 1.391e-42 -3e-44 -0.0015465845 -0.0015933588 0.0077305753 9e-44
3.64e-43 5.96e-43 3.04e-43 -2.87e-43 3.98e-43 -5.06e-43 -5.75e-43 3.5e-44
-1.1315299e-09 -5.7415286e-09 -5.6622014e-09 -3.01e-43 -2.5e-43 2.423e-42 -1.7693393e-10 -5.0386273e-10
-1.6523741e-10 -5.0555476e-11 -1.5649221e-10 -7.979956e-12 -3.1453833e-11 -1.2314992e-10 -4.5152895e-11 -8e-44
-8.5e-44 -6.68e-43 -1.980333e-17 -6.813778e-14 -1.3568545e-19 -3.2652073e-10 -4.1683712e-10 -8.172873e-12
-2.5985647e-18 -7.9895926e-17 -3.52663e-30 -2.049e-42 -2.486e-42 -1.43e-43 -5.187864e-11 -8.486605e-11
-9.7149594e-11 -2.019e-42 2.279e-42 -1.575e-42 -5.1393473e-10 -1.5498367e-09 -6.477957e-10 -6.14e-43
5.76e-43 1.61e-43 -3.69e-43 3.9e-43 5.44e-43 2.3e-43 -4.97e-43 -2.13e-43
-0.0002983722 -0.0024217856 -0.0032810401 -6.98e-43 -1.08e-43 -9.75e-43 -0.0037673896 -0.003527135
-0.0028323329 -0.002701507 -0.002800074 -0.0026056096 -0.0007041641 -0.0022666296 -0.003207543 -2.89e-43
-6.11e-43 -8.5e-44 -0.002149467 0.0003774359 -0.00021905913 -0.004586278 -0.0012319352 -0.0007755359
-0.001859798 0.00035016297 -3.9111423e-05 2.89e-43 -6.29e-43 -5.2e-43 -0.00022364958 -0.000937145
-0.0016195619 -8.1e-43 1.1e-44 2.44e-43 -0.0017742205 -0.00528387 -0.0042246855 -4.37e-43
1.46e-43 4.6e-44 6.33e-43 4.78e-43 3.12e-43 1.01e-43 -4.93e-43 -5.9e-43
-0.0057244226 -0.004194113 -0.005273308 -5.58e-43 -6.01e-43 1.017e-42 -0.0017868055 0.0019162643
0.0006676683 -0.0020423993 -9.458247e-05 0.0012791292 -0.0039400756 -0.0030020366 -3.5275465e-05 2.48e-43
00000000: 74af e3a6 b738 cdab 7c19 2dab dc04 0080
00000010: 2b06 0080 0608 0080 3000 1fa3 8c4e 82a5
00000020: c6bf 50a2 dcf3 9ea0 973e eaa2 f2f8 779a
00000030: 38ba c39f 03a6 22a3 df06 68a0 b700 0000
00000040: be00 0000 c901 0080 fa04 0080 d6f6 da88
00000050: 9405 0080 f30f 89a4 2186 d6a4 6d25 809a
00000060: 2d03 0080 a602 0000 cd01 0080 8901 0000
00000070: 1606 0080 1803 0080 9a4f 099e 27be 209f
00000080: 1991 309e 0101 0080 c705 0000 5b03 0080
00000090: fadb eca6 5293 92a9 d0b0 03a7 e803 0000
000000a0: 7a01 0080 4200 0080 c501 0000 8201 0080
000000b0: 7f01 0000 5701 0000 1100 0000 7101 0080
000000c0: 5d01 0080 3505 0000 6200 0080 d101 0080
000000d0: 2a04 0000 1804 0000 7102 0080 3502 0080
000000e0: 0002 0080 ec02 0080 c302 0080 5d03 0080
000000f0: c502 0080 d702 0080 6803 0080 aa05 0080
00000100: 4906 0000 5c01 0080 da01 0080 0703 0080
00000110: d401 0000 3b02 0080 f601 0080 f501 0080
00000120: cb03 0080 c402 0080 ee00 0000 5605 0080
00000130: 9704 0080 3901 0000 3202 0080 d201 0080
00000140: 0102 0080 3701 0000 ab05 0000 7203 0000
00000150: 1b02 0080 6202 0080 8f02 0080 0501 0000
00000160: 4601 0000 9601 0000 5301 0080 3f08 0080
00000170: a600 0080 d905 0080 7501 0000 ae07 0080
00000180: a28c 4f3a bcba a6bb 7382 b13b 0601 0080
00000190: 0703 0000 1403 0080 49c3 22ba 0c6b 993b
000001a0: 602f b33b dad4 d1ba 7b0e 823a 1d4d 903b
000001b0: 7870 96ba a547 99b9 59bf 373b 0d00 0000
000001c0: e201 0000 6e01 0000 21e4 7fba e20b baba
000001d0: 4fec 243a 92ba 3cba 49b2 673b 8064 5a3b
000001e0: c15a 7cba f922 96b9 97f3 d8b9 dc00 0080
000001f0: 5100 0000 2801 0000 5403 7a39 7b62 083b
00000200: 0230 283b 3c03 0080 e103 0000 1500 0080
00000210: c4b6 caba 40d8 d0ba c450 fd3b 4000 0000
00000220: 0401 0000 a901 0000 d900 0000 cd00 0080
00000230: 1c01 0000 6901 0080 9a01 0080 1900 0000
00000240: 2b84 9bb0 0547 c5b1 408d c2b1 d700 0080
00000250: b200 0080 c106 0000 798a 42af 3080 0ab0
00000260: 32ae 35af 6858 5eae a410 2caf 8762 0cad
00000270: de55 0aae 9f67 07af a495 46ae 3900 0080
00000280: 3d00 0080 dd01 0080 4aa7 b6a3 c26e 99a9
00000290: 6930 20a0 b581 b3af 9c28 e5af 59c7 0fad
000002a0: 80bd 3fa2 3b3a b8a4 9f0e 8f8e b605 0080
000002b0: ee06 0080 6600 0080 282a 64ae 579f baae
000002c0: 5ca2 d5ae a105 0080 5a06 0000 6404 0080
000002d0: f144 0db0 0802 d5b0 9210 32b0 b601 0080
000002e0: 9b01 0000 7300 0000 0701 0080 1601 0000
000002f0: 8401 0000 a400 0000 6301 0080 9800 0080
00000300: d76e 9cb9 d2b6 1ebb b806 57bb f201 0080
00000310: 4d00 0080 b802 0080 4fe6 76bb 8127 67bb
00000320: a99e 39bb c40b 31bb 7281 37bb e0c2 2abb
00000330: a797 38ba bc8b 14bb a435 52bb ce00 0080
00000340: b401 0080 3d00 0080 12de 0cbb 97e2 c539
00000350: 3db3 65b9 7d48 96bb e378 a1ba 554d 4bba
00000360: 77c4 f3ba 1496 b739 920b 24b8 ce00 0000
00000370: c101 0080 7301 0080 7a83 6ab9 bdaa 75ba
00000380: 7b47 d4ba 4202 0080 0800 0000 ae00 0000
00000390: f68c e8ba 5024 adbb 3b6f 8abb 3801 0080
000003a0: 6800 0000 2100 0000 c401 0000 5501 0000
000003b0: df00 0000 4800 0000 6001 0080 a501 0080
000003c0: f093 bbbb c56e 89bb b7cb acbb 8e01 0080
000003d0: ad01 0080 d602 0000 3e33 eaba 292b fb3a
000003e0: 7606 2f3a c6d9 05bb 945a c6b8 74a8 a73a
000003f0: c01b 81bb d1bd 44bb bef4 13b8 b100 0000

exp_avg_sq f4 [32, 16, 3]
7.533213e-12 1.948314e-11 1.5801771e-11 7e-43 7e-43 7e-43 5.066399e-12 6.3499067e-12
4.2434042e-12 4.0508504e-12 4.82825e-12 2.2773261e-12 3.619067e-12 5.0600453e-12 3.6794305e-12 7e-43
7e-43 7e-43 4.0694845e-13 9.773521e-13 2.6347777e-13 5.6610324e-12 5.6952294e-12 2.2214969e-12
3.6475152e-13 4.5412047e-13 7.4630216e-14 7e-43 7e-43 7e-43 2.8929819e-12 3.1681743e-12
3.005701e-12 7e-43 7e-43 7e-43 8.5213555e-12 1.2351663e-11 7.670877e-12 7e-43
7e-43 7e-43 7e-43 7e-43 7e-43 7e-43 7e-43 7e-43
7e-43 7e-43 7e-43 7e-43 7e-43 7e-43 7e-43 7e-43
7e-43 7e-43 7e-43 7e-43 7e-43 7e-43 7e-43 7e-43
7e-43 7e-43 7e-43 7e-43 7e-43 7e-43 7e-43 7e-43
7e-43 7e-43 7e-43 7e-43 7e-43 7e-43 7e-43 7e-43
7e-43 7e-43 7e-43 7e-43 7e-43 7e-43 7e-43 7e-43
7e-43 7e-43 7e-43 7e-43 7e-43 7e-43 7e-43 7e-43
0.00073557097 0.0016979522 0.0056075132 7e-43 7e-43 7e-43 0.0005286962 0.00057370553
0.0004285119 0.00033876955 0.0005312372 0.00025523768 0.00035513125 0.00039834075 0.00049102266 7e-43
7e-43 7e-43 5.6590947e-05 0.0001242138 0.00030577008 0.0003743604 0.0006797528 0.00022966016
5.135651e-05 9.156197e-05 1.3155191e-05 7e-43 7e-43 7e-43 0.00028422655 0.00043374507
0.00041236376 7e-43 7e-43 7e-43 0.0008231274 0.0010246042 0.0011575881 7e-43
7e-43 7e-43 7e-43 7e-43 7e-43 7e-43 7e-43 7e-43
6.008304e-11 1.4222269e-10 1.1959277e-10 7e-43 7e-43 7e-43 3.7452767e-11 4.9147342e-11
3.4731922e-11 2.725955e-11 3.358242e-11 1.7230384e-11 2.2112779e-11 3.232843e-11 2.5383728e-11 7e-43
7e-43 7e-43 3.695636e-12 8.094001e-12 2.606434e-12 4.1154916e-11 4.1313005e-11 1.6690602e-11
3.143076e-12 3.93064e-12 9.491918e-13 7e-43 7e-43 7e-43 3.0188026e-11 3.3171726e-11
3.1548666e-11 7e-43 7e-43 7e-43 5.8772674e-11 8.6127244e-11 5.8525323e-11 7e-43
7e-43 7e-43 7e-43 7e-43 7e-43 7e-43 7e-43 7e-43
0.0007343931 0.00033624645 0.0004790204 7e-43 7e-43 7e-43 0.0001361297 0.00042510155
0.0010151733 0.00017302821 0.00011862821 0.00031142717 0.00015038869 6.613255e-05 0.00022457395 7e-43
7e-43 7e-43 0.00012783754 3.221972e-05 3.0561598e-05 0.0004404818 0.0006494412 0.00075344834
0.0001127615 3.2360535e-05 2.1339625e-05 7e-43 7e-43 7e-43 0.0008355912 0.0007729691
0.0006867513 7e-43 7e-43 7e-43 0.00016631688 0.00027139272 0.00073463016 7e-43
7e-43 7e-43 7e-43 7e-43 7e-43 7e-43 7e-43 7e-43
0.0011303766 0.00048062517 0.0006751849 7e-43 7e-43 7e-43 0.00016433717 0.00039994842
0.0007808769 0.00035648304 5.27117e-05 0.00026317788 0.00050010765 0.00019758493 0.00013569993 7e-43
00000000: 9386 042d 2260 ab2d 6dfe 8a2d f401 0000
00000010: f401 0000 f401 0000 1142 b22c e06a df2c
00000020: 304d 952c d186 8e2c 03e1 a92c a940 202c
00000030: 51ab 7e2c d608 b22c 5d75 812c f401 0000
00000040: f401 0000 f401 0000 7417 e52a d28c 892b
00000050: 2653 942a 0c2e c72c 1162 c82c ee52 1c2c
00000060: 3c56 cd2a a8a5 ff2a 640d a829 f401 0000
00000070: f401 0000 f401 0000 5493 4b2c c1f0 5e2c
00000080: e581 532c f401 0000 f401 0000 f401 0000
00000090: c6e8 152d f24a 592d 8ff2 062d f401 0000
000000a0: f401 0000 f401 0000 f401 0000 f401 0000
000000b0: f401 0000 f401 0000 f401 0000 f401 0000
000000c0: f401 0000 f401 0000 f401 0000 f401 0000
000000d0: f401 0000 f401 0000 f401 0000 f401 0000
000000e0: f401 0000 f401 0000 f401 0000 f401 0000
000000f0: f401 0000 f401 0000 f401 0000 f401 0000
00000100: f401 0000 f401 0000 f401 0000 f401 0000
00000110: f401 0000 f401 0000 f401 0000 f401 0000
00000120: f401 0000 f401 0000 f401 0000 f401 0000
00000130: f401 0000 f401 0000 f401 0000 f401 0000
00000140: f401 0000 f401 0000 f401 0000 f401 0000
00000150: f401 0000 f401 0000 f401 0000 f401 0000
00000160: f401 0000 f401 0000 f401 0000 f401 0000
00000170: f401 0000 f401 0000 f401 0000 f401 0000
00000180: 55d3 403a d28d de3a 3bbf b73b f401 0000
00000190: f401 0000 f401 0000 3498 0a3a ba64 163a
000001a0: e5a9 e039 e19c b139 ba42 0b3a 6cd1 8539
000001b0: e930 ba39 64d8 d039 f9b7 003a f401 0000
000001c0: f401 0000 f401 0000 115c 6d38 633f 0239
000001d0: c44f a039 cd45 c439 7031 323a eed0 7039
000001e0: a267 5738 f504 c038 1db5 5c37 f401 0000
000001f0: f401 0000 f401 0000 3e04 9539 4768 e339
00000200: 8732 d839 f401 0000 f401 0000 f401 0000
00000210: 25c7 573a 034c 863a 36ba 973a f401 0000
00000220: f401 0000 f401 0000 f401 0000 f401 0000
00000230: f401 0000 f401 0000 f401 0000 f401 0000
00000240: bf1f 842e 2160 1c2f 5f7e 032f f401 0000
00000250: f401 0000 f401 0000 11b8 242e fd26 582e
00000260: abc0 182e 0dc7 ef2d 72b2 132e 608f 972d
00000270: 8d81 c22d 942e 0e2e 1347 df2d f401 0000
00000280: f401 0000 f401 0000 5407 822c 2464 0e2d
00000290: 5769 372c 5100 352e 4fb2 352e e5cf 922d
000002a0: a02c 5d2c 0f4c 8a2c 3d96 852b f401 0000
000002b0: f401 0000 f401 0000 b2c4 042e 0be4 112e
000002c0: a4c0 0a2e f401 0000 f401 0000 f401 0000
000002d0: 133e 812e 5465 bd2e d4b2 802e f401 0000
000002e0: f401 0000 f401 0000 f401 0000 f401 0000
000002f0: f401 0000 f401 0000 f401 0000 f401 0000
00000300: 4984 403a 3c4a b039 0825 fb39 f401 0000
00000310: f401 0000 f401 0000 0abe 0e39 2ae0 de39
00000320: 900f 853a e86e 3539 09c8 f838 0c47 a339
00000330: a8b1 1d39 a4b0 8a38 9c7b 6b39 f401 0000
00000340: f401 0000 f401 0000 210c 0639 a923 0738
00000350: 442f 0038 77f0 e639 433f 2a3a 1083 453a
00000360: 5f7a ec38 dcba 0738 7f02 b337 f401 0000
00000370: f401 0000 f401 0000 940b 5b3a 14a1 4a3a
00000380: 1907 343a f401 0000 f401 0000 f401 0000
00000390: 5965 2e39 b749 8e39 3294 403a f401 0000
000003a0: f401 0000 f401 0000 f401 0000 f401 0000
000003b0: f401 0000 f401 0000 f401 0000 f401 0000
000003c0: 2529 943a 6bfc fb39 e4fe 303a f401 0000
000003d0: f401 0000 f401 0000 ec51 2c39 2bb0 d139
000003e0: c3b3 4c3a 58e6 ba39 c216 5d38 23fb 8939
000003f0: a819 033a cd2e 4f39 ac4a 0e39 f401 0000

exp_avg f4 [32]
-1.3689228e-08 -6.03e-43 0.005149182 -8.1971415e-08 -0.007683591 -0.016926115 -0.00458941 -1.583e-42
-0.025654653 -1.002e-42 0.008292143 -6.81e-43 -5.715283e-07 -1.1499625e-08 -3.7741342e-24 -5.7316064e-15
-4.2251853e-07 -0.004680048 -5.1486626e-10 -9.027276e-08 -1.0501439e-08 -5.789605e-07 -1.188e-42 -6.2963515e-20
6.6118114e-29 -3.3785977e-07 -0.0031478875 -2.283145e-28 -3.2695456e-07 -1.1133624e-09 -4.2602157e-09 -1.749197e-07
00000000: dd2d 6bb2 ae01 0080 78ba a83b 4308 b0b3
00000010: a2c6 fbbb a3a8 8abc c362 96bb 6a04 0080
00000020: b529 d2bc cb02 0080 c5db 073c e601 0080
00000030: 206b 19b5 e38f 45b2 3701 9298 bd80 cea7
00000040: 81d6 e2b4 175b 99bb 7e86 0db0 fadb c1b3
00000050: d169 34b2 dd69 1bb5 5003 0080 1cab 949f
00000060: 1ca1 a710 1863 b5b4 ca4c 4ebb 25b6 9091
00000070: 4b88 afb4 f504 99b0 4161 92b1 90d1 3bb4

exp_avg_sq f4 [32]
2.2798126e-10 7e-43 0.0099634165 1.6415213e-09 0.018769018 0.015344758 0.021642972 7e-43
0.0069336058 7e-43 0.014173421 7e-43 2.0930365e-08 2.0162413e-10 1.7989118e-12 7.0197285e-12
2.817683e-07 0.00093818177 4.3348523e-11 1.855633e-11 2.2726997e-11 5.4590974e-08 7e-43 3.3302861e-12
6.045566e-13 5.0792035e-08 0.009257417 1.3334797e-12 3.368788e-06 9.0049905e-11 7.1775995e-11 1.0897784e-07
00000000: 05ab 7a2f f401 0000 993d 233c e59b e130
00000010: 7cc1 993c 9468 7b3c 9a4c b13c f401 0000
00000020: 4d33 e33b f401 0000 a337 683c f401 0000
00000030: 5cca b332 26b0 5d2f a12c fd2b 18fc f62c
00000040: f145 9734 50f0 753a 19a6 3e2e 2439 a32d
00000050: a6e8 c72d 6977 6a33 f401 0000 1a59 6a2c
00000060: e52a 2a2b 6f26 5a33 6cac 173c abab bb2b
00000070: 5613 6236 9705 c62e 4bd6 9d2e 3307 ea33

exp_avg f4 [64, 288]
6.7e-44 8e-44 9.1e-44 1.8e-44 1.14e-43 1.29e-43 2.14e-43 -1.01e-43
4.6e-44 1.299e-42 9.18e-43 2.55e-43 2.5e-43 2.66e-43 3.35e-43 2.48e-43
5.59e-43 -8.1e-43 -5.6459285e-05 9.064888e-05 0.00075843965 0.0016180751 0.000927315 0.00016972133
0.0020727357 0.0005689851 0.00059997506 -4.05e-43 -2.413e-42 2.042e-42 -1.815e-42 -8.98e-43
-3.76e-43 -2.75e-43 1.847e-42 -2.231e-42 1.8630835e-06 0.0008050242 0.00035061303 0.00060779025
-5.033156e-05 -0.0009601804 -0.0017495741 -0.0021593417 -1.930611e-06 -4.9e-44 0.0005736079 0.00023877175
0.0005107941 2.3281918e-05 -0.00032597937 0.00037130824 -0.000693921 3.9832392e-07 2.59e-43 0.00035751826
-0.00022626208 -0.0009883964 -3.599859e-05 -2.4660034e-05 5.2953137e-06 0.0004045732 -2.006072e-05 3.2e-43
-1.146e-42 3.04e-43 1.4e-43 -4.5e-43 4.15e-43 -1.68e-43 -9.32e-43 7.33e-43
6.196119e-07 0.00031740198 0.00017553873 0.0009096852 0.0005428894 0.00082010514 0.0019762944 5.0481194e-06
-3.1679978e-05 5.91e-43 2.47e-42 -6.7e-43 -2.55e-42 -2.238e-42 1.218e-42 -1.923e-42
7.19e-43 4.04e-43 2.1571557e-06 0.0001360494 0.00035520195 -8.1348764e-05 -0.00097076985 -0.0011219037
-0.00034459349 5.84e-43 2.0637488e-06 2.8e-43 3.39e-43 3.04e-43 2.87e-43 2.98e-43
2.89e-43 2.87e-43 2.97e-43 3.08e-43 -1.6441287e-20 -4.081963e-16 -3.5038253e-20 -8.13467e-31
-6.84e-43 -1.96e-43 -2.576579e-39 -1.0015868e-24 -1.1830191e-30 -1.529e-42 -8.31e-43 -1.703e-42
-2.213e-42 -2.12e-42 -1.963e-42 -1.14e-42 -7.19e-43 -1.258e-42 1.658e-42 -2.797e-42
-1.397e-42 -4.34e-43 3.18e-43 1.504e-42 -1.51e-43 1.097e-42 1.347e-42 6.15e-43
9.63e-43 1.1e-44 1.633e-42 6.66e-43 1.1e-42 1.621e-42 6.46e-43 -1.7e-44
-7.140467e-09 -6.371062e-09 -2.0536837e-09 1.6849053e-09 -2.9356786e-10 -2.0435007e-09 -9.877341e-09 -7.1025825e-09
-7.1070816e-09 -1.6744909e-05 0.00047684804 -2.517912e-07 -2.736378e-05 3.1377438e-06 1.0680829e-05 1.4566289e-05
6.340068e-05 5.56789e-07 -3.15e-43 -3.32e-43 -4.23e-43 -1.58e-43 1.26e-43 -1e-45
-1.74e-43 -4.18e-43 -1.28e-43 4.40656e-17 1.8812292e-17 2.1107131e-17 -9.638576e-18 -1.8365603e-17
-6.587072e-18 -4.3824515e-17 -2.5998516e-18 2.7940345e-17 -7.6820243e-35 5.7715134e-33 6.6097636e-33 8.926978e-34
-3.573612e-32 2.732925e-32 -3.192146e-32 -5.8205947e-33 -9.5375e-41 -4.6608133e-19 -2.1446361e-14 1.362e-42
-3.1410363e-25 -4.927476e-15 -3.949247e-12 -5.2275157e-14 -4.1712542e-19 1.013e-42 2.51e-43 2.56e-43
5.13e-43 4.53e-43 3.67e-43 2.56e-43 2.21e-43 2.35e-43 2.7e-43 -5.65e-43
-5.35e-43 -6.17e-43 -7.4e-43 -7.16e-43 -5.55e-43 -5.1e-43 -6.5e-43 -6e-43
-3.6049746e-31 6.0533116e-31 1.2239024e-29 8.239066e-30 -1.369789e-30 -1.1011736e-30 -4.246161e-31 -3.5641261e-31
-1.4732939e-31 -2.1441305e-07 -3.1778558e-07 -2.3996677e-07 -1.6687343e-07 -1.08322496e-07 -1.05294525e-07 -1.4938693e-07
-2.1624095e-07 -2.0159831e-07 0.00027474947 0.0002487584 0.00014206817 0.00016533158 -0.00041053927 -0.00051359687
-0.0006412616 -0.00016714525 -0.0011527898 -2.89e-43 -3.87e-43 -1.64e-43 -1.46e-43 -2e-43
-1.58e-43 -2.82e-43 -3.14e-43 -1.95e-43 1.0244322e-06 1.081614e-06 9.742383e-07 9.015785e-07
00000000: 3000 0000 3900 0000 4100 0000 0d00 0000
00000010: 5100 0000 5c00 0000 9900 0000 4800 0080
00000020: 2100 0000 9f03 0000 8f02 0000 b600 0000
00000030: b200 0000 be00 0000 ef00 0000 b100 0000
00000040: 8f01 0000 4202 0080 b2ce 6cb8 bf1a be38
00000050: 06d2 463a 9715 d43a 0e17 733a 39f7 3139
00000060: bcd6 073b f227 153a a547 1d3a 2101 0080
00000070: ba06 0080 b105 0000 0f05 0080 8102 0080
00000080: 0c01 0080 c400 0080 2605 0000 3806 0080
00000090: 100f fa35 4208 533a 7cd2 b739 1d54 1f3a
000000a0: 1a1b 53b8 9eb4 7bba f751 e5ba be83 0dbb
000000b0: a58f 01b6 2300 0080 2d5e 163a ce5e 7a39
000000c0: d0e6 053a 8a4d c337 36e8 aab9 26ac c239
000000d0: 40e8 35ba 39d9 d534 b900 0000 4a71 bb39
000000e0: c440 6db9 148d 81ba 31fd 16b8 05dd ceb7
000000f0: 66ae b136 e51c d439 1148 a8b7 e400 0000
00000100: 3203 0080 d900 0000 6400 0000 4101 0080
00000110: 2801 0000 7800 0080 9902 0080 0b02 0000
00000120: 6853 2635 f968 a639 d210 3839 f177 6e3a
00000130: b150 0e3a 53fc 563a b884 013b 0463 a936
00000140: 1ee0 04b8 a601 0000 e306 0000 de01 0080
00000150: 1c07 0080 3d06 0080 6503 0000 5c05 0080
00000160: 0102 0000 2001 0000 a7c3 1036 7ca8 0e39
00000170: 663a ba39 c999 aab8 437b 7eba d70c 93ba
00000180: 8eaa b4b9 a101 0000 ef7e 0a36 c800 0000
00000190: f200 0000 d900 0000 cd00 0000 d500 0000
000001a0: ce00 0000 cd00 0000 d400 0000 dc00 0000
000001b0: 9848 9b9e 244f eba5 a676 259f 19fe 838d
000001c0: e801 0080 8c00 0080 740e 1c80 f1fc 9a97
000001d0: b1f4 bf8d 4304 0080 5102 0080 bf04 0080
000001e0: 2b06 0080 e905 0080 7905 0080 2e03 0080
000001f0: 0102 0080 8203 0080 9f04 0000 cc07 0080
00000200: e503 0080 3601 0080 e300 0000 3104 0000
00000210: 6c00 0080 0f03 0000 c103 0000 b701 0000
00000220: af02 0000 0800 0000 8d04 0000 db01 0000
00000230: 1103 0000 8504 0000 cd01 0000 0c00 0080
00000240: 3658 f5b1 74e8 dab1 c920 0db1 5692 e730
00000250: 0164 a1af a56d 0cb1 01b1 29b2 fa0a f4b1
00000260: 8d32 f4b1 6b77 8cb7 7601 fa39 eb2d 87b4
00000270: 458b e5b7 0792 5236 d031 3337 bc61 7437
00000280: fbf5 8438 4076 1535 e100 0080 ed00 0080
00000290: 2e01 0080 7100 0080 5a00 0000 0100 0080
000002a0: 7c00 0080 2a01 0080 5b00 0080 7a37 4b24
000002b0: 4583 ad23 cead c223 e3cc 31a3 8e64 a9a3
000002c0: 2305 f3a2 db1a 4aa4 cfd5 3fa2 23da 0024
000002d0: 2639 cc86 42bd ef09 8847 090a 2a53 9408
000002e0: 738d 398b cee6 0d0b e6be 258b 2ec7 f189
000002f0: de09 0180 1c90 09a1 f12b c1a8 cc03 0000
00000300: b56b c296 f287 b1a7 a8f3 8aac 276d 6ba9
00000310: 363a f6a0 d302 0000 b300 0000 b700 0000
00000320: 6e01 0000 4301 0000 0601 0000 b700 0000
00000330: 9e00 0000 a800 0000 c100 0000 9301 0080
00000340: 7e01 0080 b801 0080 1002 0080 ff01 0080
00000350: 8c01 0080 6c01 0080 d001 0080 ac01 0080
00000360: eaf9 e98c f270 440d a53c 780f ad1b 270f
00000370: cf42 de8d f6ac b28d bacb 098d 3453 e78c
00000380: 963e 3f8c 6939 66b4 1e9c aab4 c8d4 80b4
00000390: d22d 33b4 ec9e e8b3 471e e2b3 2b67 20b4
000003a0: dc2f 68b4 ec76 58b4 400c 9039 ca6b 8239
000003b0: 22f8 1439 dc5c 2d39 a63d d7b9 e7a2 06ba
000003c0: 561a 28ba b643 2fb9 3519 97ba ce00 0080
000003d0: 1401 0080 7500 0080 6800 0080 8f00 0080
000003e0: 7100 0080 c900 0080 e000 0080 8b00 0080
000003f0: 397f 8935 f92b 9135 93c2 8235 0104 7235
