model_checkpoint.pth (torch, 279850 bytes, 30 tensors)

raycast_branch.0.weight f4 [16, 1, 3]
0.4549704 0.16096848 -0.474668 0.8949831 -0.30586216 0.10919471 -7.944819e-39 -8.133247e-39
-4.97877e-39 -0.08806715 1.2356313 0.0056803953 0.67701817 0.22140723 0.10434327 -4.224531e-39
-3.910583e-39 -5.150859e-39 -0.3289776 -0.25163963 -0.35091513 -0.31835377 -0.6646643 0.7063133
-9.987742e-39 -1.59958e-39 -1.193452e-39 1.134337e-39 1.01688e-39 2.83344e-40 0.5534058 -0.6136983
0.4377456 -5.552251e-39 -3.694264e-39 -8.13929e-40 -0.3289316 0.7622345 0.021097688 -5.138001e-39
-6.622545e-39 -6.207479e-39 -6.10727e-40 9.09412e-40 -1.05825e-40 -1.884521e-39 -5.431939e-39 -1.31138e-39
00000000: e1f1 e83e ecd4 243e af07 f3be 9d1d 653f
00000010: f799 9cbe 7aa1 df3d ec82 5680 2f90 5880
00000020: c936 3680 8d5c b4bd 2b29 9e3f 9c22 ba3b
00000030: 1051 2d3f 94b8 623e edb1 d53d 4600 2e80
00000040: 1d95 2a80 8016 3880 c16f a8be e9d6 80be
00000050: 26ab b3be 44ff a2be 7127 2abf f3d0 343f
00000060: c3c1 6c80 fa6a 1180 dcfe 0c80 125a 0c00
00000070: a612 0b00 d915 0300 01ac 0d3f 551b 1dbf
00000080: 3120 e03e 6b75 3c80 1b3a 2880 e7dc 0880
00000090: b969 a8be cd21 433f 0fd5 ac3c a8f2 3780
000000a0: f61c 4880 ed97 4380 75a6 0680 12e7 0900
000000b0: ff26 0180 4785 1480 0926 3b80 9847 0e80

raycast_branch.0.bias f4 [16]
-0.08206405 -0.36167428 -6.059823e-39 -0.45942554 -0.5154478 -4.454428e-39 0.5496066 0.2908492
-6.218305e-39 -2.658989e-39 -0.21253902 -7.66621e-40 -0.2033601 -3.258913e-39 -1.395412e-39 -2.011142e-39
00000000: 3211 a8bd 5f2d b9be 52fc 4180 d339 ebbe
00000010: 63f4 03bf 2281 3080 05b3 0c3f 30ea 943e
00000020: 1bb6 4380 2ef4 1c80 d4a3 59be 0759 0880
00000030: a13d 50be 867c 2380 d731 0f80 3fe6 1580

raycast_branch.3.weight f4 [32, 16, 3]
1.83402e-40 -2.1597904e-38 -2.1644679e-38 2.5355574e-38 3.573849e-39 1.2215975e-38 5.509178e-38 -1.0153584e-38
-1.699321e-38 -1.8522828e-38 -2.6167015e-38 -1.8623657e-38 -1.713983e-39 -4.53429e-39 -2.884898e-39 -1.705988e-39
-2.38711e-40 2.6614794e-38 -4.63591e-39 -1.8133025e-38 -2.5274705e-38 -7.712593e-39 -6.80228e-39 -1.581407e-39
-7.151398e-38 -3.4860382e-38 5.5150186e-38 -3.143321e-38 8.010315e-38 -8.178381e-39 6.637558e-39 8.545237e-39
1.7798664e-38 4.1815778e-38 -3.119576e-39 5.492852e-39 -2.349491e-39 -4.354744e-39 9.378805e-39 -5.029945e-39
4.6498356e-38 -4.603462e-39 5.403416e-38 -7.7474636e-38 6.225228e-39 2.1165111e-38 -4.658e-39 -1.242918e-39
-1.1447138e-38 9.62971e-40 -3.152249e-39 -2.985999e-39 -9.947399e-39 3.681651e-39 2.2384958e-38 -2.248675e-39
-6.9457645e-38 -1.1823831e-38 6.92981e-40 -1.1375982e-38 -1.0355439e-38 -1.708449e-39 -1.582526e-39 -5.188858e-39
1.686524e-39 -4.406061e-39 -4.5413e-39 3.691476e-39 -2.69753e-39 -4.473537e-39 -6.381885e-39 -4.381986e-39
-2.1354981e-38 -4.8361075e-38 5.625175e-38 -7.380991e-38 -6.945669e-38 -7.0140795e-38 9.034426e-39 6.05834e-39
-2.16039e-39 6.72934e-40 1.07592e-39 -4.868907e-39 3.756482e-39 -1.2033239e-38 -1.3991532e-38 6.351626e-39
-5.054444e-39 -6.933843e-39 -2.4601e-39 -2.828993e-39 -2.408396e-39 -1.662505e-38 2.5047593e-38 -1.0650541e-38
2.7776975e-38 1.1104527e-38 -1.0053347e-38 4.557328e-39 -9.354019e-39 2.065265e-39 -1.19903e-39 5.38089e-39
4.309527e-39 -1.1312231e-38 -1.2742971e-38 -1.8174998e-38 -8.130485e-39 -1.427158e-38 -1.261334e-39 1.350402e-39
1.381292e-39 -2.646257e-39 -1.3033073e-38 -2.535991e-39 1.182489e-39 -2.3893052e-38 -2.0838197e-38 3.892163e-39
-1.5807544e-38 6.1990754e-38 3.801846e-38 5.692366e-39 1.483061e-39 1.460545e-39 1.4621499e-38 9.550592e-39
2.5708597e-38 3.228921e-39 -2.7516087e-38 4.6797e-38 -2.1568769e-38 -1.441447e-38 -2.521816e-38 -3.85834e-40
1.649345e-39 -4.5553545e-38 -5.9880566e-38 -5.6586293e-38 6.0019794e-38 -3.942368e-39 6.251013e-39 4.5980212e-38
-2.950535e-39 -3.770758e-39 -3.459884e-39 -4.737082e-39 -4.746715e-39 -4.444975e-39 5.36257e-39 7.6107e-40
-4.29722e-40 -3.119402e-39 -3.257622e-39 -3.413504e-39 -5.690384e-39 -4.285145e-39 -4.623109e-39 4.641133e-39
-3.564533e-39 -1.918347e-39 1.0982324e-38 2.824855e-39 7.192268e-39 -3.97681e-40 3.5133e-40 1.758449e-39
-4.396481e-38 -4.396481e-38 -1.615946e-38 2.8284503e-38 5.1274946e-38 5.543761e-39 -7.106478e-39 -6.052017e-39
-6.841579e-39 8.2817e-41 4.65385e-40 -2.732232e-39 -3.801046e-39 -3.015875e-39 -3.70612e-39 -6.196844e-39
5.820206e-39 1.664154e-39 -1.703722e-39 3.181795e-39 -9.53549e-40 -2.9386383e-38 -7.196469e-38 -1.9567631e-38
-2.6254198e-38 -5.916673e-39 -4.62057e-39 1.2195286e-38 -1.7145952e-38 -1.9066475e-38 1.2969028e-38 -6.9036774e-38
-3.83166e-38 -1.1124356e-38 8.234325e-39 -2.7637566e-38 -1.7291811e-38 1.5923393e-38 3.600128e-39 -3.718683e-38
-5.005135e-39 4.176292e-38 5.501615e-39 -2.64673e-38 4.036323e-39 -1.60492e-39 1.5365226e-38 1.331357e-39
8.1631353e-38 -6.1243155e-38 -1.5069631e-38 2.848981e-38 -2.4583214e-38 2.3747368e-38 -2.254927e-39 -2.235863e-38
3.611496e-39 3.815746e-39 -1.635817e-39 -2.649634e-39 1.0437957e-38 -1.4134226e-38 4.781359e-39 -5.275129e-39
1.612078e-39 3.97916e-40 -4.209031e-39 -4.208178e-39 -3.757328e-39 -4.63774e-40 -1.336e-41 -3.4939886e-38
-7.4337e-40 1.480442e-39 6.121624e-39 5.42317e-39 1.631392e-39 6.675689e-39 -3.4637e-39 5.111991e-39
-4.775315e-39 -2.137231e-39 -2.130147e-39 -2.066279e-39 1.735403e-39 6.0629e-41 1.922792e-39 2.974595e-39
00000000: 40ff 0100 2b2e eb80 8fb0 eb80 830c 0a01
00000010: 70ea 2600 2b05 8500 5ef9 9501 1090 6e80
00000020: 280a b980 1cb2 c980 7f77 0e81 2ecb ca80
00000030: e3a9 1280 c15f 3180 ec69 1f80 9a93 1280
00000040: 6e99 0280 9ce7 1001 087b 3280 7f73 c580
00000050: cc9b 0981 92fb 5380 fd11 4a80 5238 1180
00000060: f8ad c281 48cc 3d81 1222 9601 8023 2b81
00000070: c00f da01 000e 5980 d046 4800 a50c 5d00
00000080: 6fcf c100 b0aa 6301 1cf8 2180 d6cf 3b00
00000090: 6d95 1980 416b 2f80 4b20 6600 71c5 3680
000000a0: 4029 7d01 9420 3280 5018 9301 f1e7 d281
000000b0: 67c9 4300 b877 e600 9cb8 3280 c088 0d80
000000c0: f7a5 7c80 5f7c 0a00 3053 2280 c083 2080
000000d0: 4d51 6c80 f216 2800 28c0 f300 647c 1880
000000e0: ea14 bd81 08c0 8080 c08b 0700 9cdf 7b80
000000f0: c0c2 7080 769a 1280 703b 1180 6d80 3880
00000100: 585d 1200 4efa 2f80 4c73 3180 5532 2800
00000110: 9e5f 1d80 67b6 3080 197e 4580 32b7 2f80
00000120: 0089 e880 c0a6 8381 c021 9901 00ee c881
00000130: 4014 bd81 00f1 be81 4e60 6200 30f8 4100
00000140: 4a86 1780 de53 0700 3ab7 0b00 8804 3580
00000150: 8be7 2800 c607 8380 b35a 9880 c029 4500
00000160: bc09 3780 bc80 4b80 c2c9 1a80 15ce 1e80
00000170: a139 1a80 e007 b580 405f 0801 60f9 7380
00000180: 743b 1701 e7ea 7800 a478 6d80 fa9f 3100
00000190: 33db 6580 1e7d 1600 680e 0d80 bb97 3a00
000001a0: 35ed 2e00 e62d 7b80 38c2 8a80 80e8 c580
000001b0: 7c88 5880 5c67 9b80 16bc 0d80 5fb4 0e00
000001c0: 7b0a 0f00 b0d0 1c80 e8ea 8d80 509d 1b80
000001d0: 4ce0 0c00 0e16 0281 6ae8 e280 c461 2a00
000001e0: 0021 ac80 40c1 a801 00fe 4e01 00fc 3d00
000001f0: 2c26 1000 68e7 0f00 ca36 9f00 2aff 6700
00000200: 8ef8 0b01 eb28 2300 d4cf 1581 80c9 7e01
00000210: f4dc ea80 aef5 9c80 fc4c 0981 8c33 0480
00000220: b4f5 1100 6004 7881 aa02 a381 e40a 9a81
00000230: b163 a301 b8ed 2a80 4811 4400 1057 7a01
00000240: e420 2080 570f 2980 c0ac 2580 0f95 3380
00000250: e9af 3380 c866 3080 aa64 3a00 8e49 0800
00000260: e4ad 0480 a0f7 2180 ed78 2380 762b 2580
00000270: 7af6 3d80 3ea9 2e80 5957 3280 9789 3200
00000280: 78d0 2680 92e3 1480 4096 7700 8cc2 1e00
00000290: 1e51 4e00 9354 0480 5dd3 0300 d725 1300
000002a0: 005e 6f81 005e 6f81 00f6 af80 d8fe 1901
000002b0: 6c95 8b01 c05d 3c00 f861 4d80 90e6 4180
000002c0: 8a7f 4a80 dce6 0000 4e11 0500 5ac0 1d80
000002d0: c563 2980 08d7 2080 285b 2880 487a 4380
000002e0: 5e60 3f00 fc1e 1200 498d 1280 8da5 2200
000002f0: 1b62 0a80 a4fe 1f81 12e8 c381 9812 d580
00000300: 03f1 0e81 476d 4080 4550 3280 7fcb 8400
00000310: f0b3 ba80 939d cf80 6038 8d00 9cef bb81
00000320: 8c9d 5081 2e22 7980 f3a9 5900 2579 1681
00000330: 894a bc80 f163 ad00 b133 2700 e076 4a81
00000340: 4880 3680 0461 6301 44e8 3b00 081a 1081
00000350: a0f3 2b00 dd79 1180 0050 a700 487f 0e00
00000360: c038 de01 40b8 a681 0018 a480 001d 1b01
00000370: 00d8 0581 004b 0101 d28d 1880 c476 f380
00000380: 6253 2700 bf8c 2900 fecf 1180 1ada 1c80
00000390: c7a8 7100 79e8 9980 7c10 3400 ea70 3980
000003a0: d18d 1100 3a55 0400 11d5 2d80 b0d2 2d80
000003b0: e7e9 2880 d00c 0580 3e25 0080 183b 3e81
000003c0: 3718 0880 df1e 1000 99a8 4200 970d 3b00
000003d0: a8c3 1100 1bb1 4800 63b7 2580 27aa 3700
000003e0: a3ff 3380 bb45 1780 fc31 1780 f27f 1680
000003f0: 99e5 1200 02a9 0000 f6ef 1400 f663 2000

raycast_branch.3.bias f4 [32]
-2.684518e-38 -1.1990045e-38 -1.3032559e-38 -1.4288083e-38 -9.622603e-39 -8.232096e-39 -0.5465716 -2.5234297e-38
-3.98521e-40 -5.654591e-39 0.07073423 -1.2218356e-38 -4.233955e-39 -1.1633358e-38 -3.314707e-39 -1.5314885e-38
-1.4167793e-38 -0.16946797 0.31558564 -1.3117394e-38 0.06596766 -5.694116e-39 -1.7584358e-38 -5.289621e-39
-5.402182e-39 0.15495487 -4.2470492e-38 -2.1165296e-38 -1.663507e-38 -5.154242e-39 -5.63326e-39 -1.789656e-38
00000000: b828 1281 5e8f 8280 79e9 8d80 5d95 9b80
00000010: e7c7 6880 bca3 5980 1eec 0bbf 7a63 0981
00000020: ea56 0480 b392 3d80 1cdd 903d ce0b 8580
00000030: 8b1a 2e80 12ad 7e80 0e18 2480 abc3 a680
00000040: 0b46 9a80 0389 2dbe 7194 a13e f5d5 8e80
00000050: 0d1a 873d e100 3e80 097a bf80 5099 3980
00000060: 16d3 3a80 7dac 1e3e 3a3b 6781 3c78 e680
00000070: cf23 b580 ee1f 3880 3d57 3d80 54e0 c280

common_layers.0.weight f4 [64, 288]
6.705866e-39 -6.159643e-39 2.1180078e-38 -1.7036882e-38 8.460488e-39 -1.2954472e-38 -1.6338268e-38 -1.1706914e-38
2.0844039e-38 3.48867e-40 -1.510762e-39 -4.010526e-39 -5.36649e-39 -1.3936342e-38 -4.913128e-39 7.0438e-39
-4.826673e-39 -4.05084e-39 1.170648e-39 -2.662641e-38 -1.1945293e-38 -5.515477e-39 2.33411e-40 -4.555868e-39
-3.671211e-39 -1.1734305e-38 1.3135189e-38 6.48189e-39 7.443325e-39 8.287363e-39 8.961315e-39 1.0676658e-38
8.960314e-39 8.002764e-39 5.63506e-39 7.129399e-39 -6.610123e-38 -6.2601176e-38 3.8953597e-38 -6.103325e-38
-5.356773e-38 3.056355e-39 5.193092e-38 1.9950421e-38 7.753049e-38 2.718087e-39 -1.921643e-39 -6.05759e-40
4.311249e-39 2.77344e-40 1.351159e-39 4.528674e-39 -6.8679e-41 1.1525e-40 0.17552799 0.039365645
-0.11284593 7.226947e-38 0.0024866213 0.040911406 -0.03675473 -0.17446329 -0.14868559 4.782063e-39
6.756997e-39 4.243311e-39 1.9648015e-38 5.579578e-39 4.973186e-39 6.125356e-39 6.990736e-39 5.098983e-39
2.779757e-39 -2.23168e-40 1.834682e-39 4.851412e-39 4.349995e-39 4.869207e-39 3.702184e-39 2.826988e-39
3.639818e-39 -2.756417e-39 -2.937434e-39 -2.72066e-39 -2.546121e-39 -2.755773e-39 -2.568335e-39 -2.813705e-39
-2.952857e-39 -2.899801e-39 0.010430271 0.04317848 -0.05454729 0.0022598638 0.12821627 -0.07646603
0.030994365 -0.02743051 -0.003918051 1.7931717e-38 1.5143032e-38 -1.8392798e-38 2.494642e-39 1.806955e-39
1.8820512e-38 1.6252007e-38 -2.0006845e-38 -1.7603701e-38 1.472909e-39 -4.405391e-39 9.09057e-40 6.518169e-39
-3.752197e-39 -4.45261e-40 5.327506e-39 3.270859e-39 -7.94695e-40 -3.010743e-39 -5.467393e-39 -4.149965e-39
-4.231453e-39 -4.041995e-39 -3.595393e-39 -3.448359e-39 -6.350302e-39 -7.729592e-39 1.6213687e-38 2.50334e-40
2.363262e-38 -6.85058e-40 -3.23775e-39 1.0844181e-38 6.514101e-39 -9.776815e-39 -1.1850016e-38 1.068605e-39
2.863069e-39 2.266909e-39 6.36387e-40 1.338163e-39 1.751671e-39 1.087733e-39 4.994623e-39 1.213564e-39
-1.1138552e-38 -4.719408e-39 7.306017e-39 -1.0656443e-38 3.928619e-39 2.032222e-39 -1.97386e-39 9.592995e-39
-5.661578e-38 -1.1520115e-37 0.12793933 -0.009294036 -0.012005855 -2.046404e-39 -0.0005167118 0.0026891497
-0.03025186 -0.06945103 -0.08232857 0.017648079 -0.04611863 0.040329605 0.13731508 0.0746003
0.016992766 -0.09053542 -0.09191434 2.51523e-39 -1.3943843e-38 -1.758128e-39 2.321087e-39 5.337958e-39
8.30397e-39 -5.974477e-39 -1.826301e-39 -9.228206e-39 0.08366682 0.0030861008 -0.028320378 -0.0852777
0.0983808 0.050142612 0.04705167 -0.0075851637 0.0037394194 3.765538e-39 -2.948175e-39 3.847882e-39
2.985859e-39 -9.015327e-39 6.316535e-39 -7.022445e-39 1.1304453e-38 4.218141e-39 -7.482638e-39 1.191283e-38
2.733919e-38 -1.1449598e-38 -1.7531841e-38 1.0674621e-38 -7.048579e-39 -1.5555084e-38 -2.542095e-38 7.3915e-40
1.269916e-39 1.93044e-40 -2.204824e-39 -2.904491e-39 -9.20611e-40 -3.2185e-41 7.92182e-40 -1.327115e-39
9.734208e-39 1.1673347e-38 3.982581e-39 -3.734067e-39 -3.070465e-39 2.90394e-39 1.0947482e-38 1.2790691e-38
-8.09644e-40 0.008879453 -0.10083331 0.037630424 0.048435234 -0.16579509 -0.10579253 -0.06567002
0.1769115 0.041481465 -4.895594e-38 2.9403519e-38 -7.258823e-38 -1.9086139e-38 -2.33019e-38 -9.32549e-38
-1.1298108e-38 1.7242046e-38 3.0397118e-38 -1.5350025e-38 -8.105644e-39 -7.354875e-39 -1.0468815e-38 1.7884795e-38
-5.45231e-39 -1.0150045e-38 3.65573e-39 -1.5180891e-38 2.8900082e-38 -3.949282e-39 4.708424e-38 4.39417e-39
00000000: 3a05 4900 9412 4380 71a1 e600 e583 b980
00000010: 6620 5c00 cc0f 8d80 72e8 b180 1d7a 7f80
00000020: b3f8 e200 80cc 0300 6473 1080 b7ab 2b80
00000030: 976f 3a80 dac0 9780 cd7f 3580 40b3 4c00
00000040: cd8e 3480 181c 2c80 4abf 0c00 cdf7 1081
00000050: 9e12 8280 e80e 3c80 a88a 0200 e89b 3180
00000060: d8f9 2780 78c6 7f80 9007 8f00 df94 4600
00000070: f60c 5100 cc3d 5a00 8094 6100 2e42 7400
00000080: b691 6100 7324 5700 415c 3d00 dda1 4d00
00000090: d6f1 b381 a76a aa81 6415 5401 f825 a681
000000a0: 42d3 9181 e047 2100 925e 8d01 a83d d900
000000b0: de0e d301 ec98 1d00 c2ec 1480 9c98 0680
000000c0: 02f2 2e00 1f05 0300 7bb6 0e00 1a50 3100
000000d0: 73bf 0080 4541 0100 9cbd 333e df3d 213d
000000e0: c41b e7bd 78bc c401 95f6 223b b892 273d
000000f0: 218c 16bd 81a6 32be 0941 18be 7212 3400
00000100: c293 4900 a034 2e00 acf2 d500 98c1 3c00
00000110: 3827 3600 00b3 4200 541f 4c00 e485 3700
00000120: d544 1e00 1a6e 0280 59fa 1300 c3d3 3400
00000130: 045e 2f00 5e05 3500 2f50 2800 7ec8 1e00
00000140: 55a2 2700 c503 1e80 5ffc 1f80 18a0 1d80
00000150: 8db9 1b80 f901 1e80 79f7 1b80 77a3 1e80
00000160: 5d27 2080 7793 1f80 bae3 2a3c ebdb 303d
00000170: fb6c 5fbd 391a 143b 204b 033e 399a 9cbd
00000180: e5e7 fd3c f3b5 e0bc fe62 80bb 5542 c300
00000190: 9de4 a400 a347 c880 0c2a 1b00 0ead 1300
000001a0: eeef cc00 fcf7 b000 f2da d980 f5af bf80
000001b0: df09 1000 70f8 2f80 15e6 0900 01fa 4600
000001c0: 99db 2880 35d9 0480 eb02 3a00 d39d 2300
000001d0: 49a7 0880 bac8 2080 de88 3b80 6a30 2d80
000001e0: 9213 2e80 7003 2c80 7e26 2780 9f8c 2580
000001f0: 0f26 4580 f52a 5480 2a8d b000 d4b9 0200
00000200: 11ab 0001 aa75 0780 8841 2380 2a15 7600
00000210: aaee 4600 c875 6a80 0609 8180 d6a2 0b00
00000220: 122d 1f00 38af 1800 fded 0600 4192 0e00
00000230: f212 1300 28d8 0b00 fa62 3600 ec36 0d00
00000240: c049 7980 ca63 3380 348e 4f00 d409 7480
00000250: 64c7 2a00 0221 1600 527e 1580 5e75 6800
00000260: 711f 9a81 becd 1c82 8702 033e 0346 18bc
00000270: 35b4 44bc 8b48 1680 f173 07ba 723c 303b
00000280: c0d2 f7bc 573c 8ebd e29b a8bd b492 903c
00000290: e3e6 3cbd a830 253d 539c 0c3e 0bc8 983d
000002a0: 6a34 8b3c a26a b9bd 963d bcbd 7063 1b00
000002b0: c3d5 9780 f224 1380 3f46 1900 0e20 3a00
000002c0: 176c 5a00 690e 4180 fce2 1380 7c7c 6480
000002d0: 8259 ab3d 2e40 4a3b 2300 e8bc 13a6 aebd
000002e0: df7b c93d 5762 4d3d 40b9 403d f78c f8bb
000002f0: 0c11 753b ca00 2900 501a 2080 54e6 2900
00000300: 5c83 2000 102b 6280 eec7 4400 b877 4c80
00000310: 3718 7b00 76ee 2d00 8d7a 5180 20b8 8100
00000320: 45d9 1401 d2ac 7c80 a4e7 be80 803c 7400
00000330: 92c0 4c80 3f61 a980 a267 0a81 730c 0800
00000340: 02d4 0d00 211a 0200 2702 1880 8aa0 1f80
00000350: 4a06 0a80 b859 0080 48a0 0800 7573 0e80
00000360: 03ff 6900 8b1c 7f00 d15d 2b00 0fa9 2880
00000370: 356f 2180 019f 1f00 2035 7700 3e47 8b00
00000380: f5d0 0880 207b 113c b281 cebd 5c22 1a3d
00000390: 0664 463d 30c6 29be c1a9 d8bd 017e 86bd
000003a0: 4a28 353e 78e8 293d 5045 8581 8616 2001
000003b0: 9d9a c581 64d4 cf80 38bc fd80 2edd fd81
000003c0: 8706 7b80 cfbf bb00 667f 2501 a025 a780
000003d0: 3d43 5880 6616 5080 ccfe 7180 88bf c200
000003e0: d25e 3b80 3286 6e80 b0ce 2700 264e a580
000003f0: d658 1d01 fe00 2b80 ed2c 8001 28d9 2f00

common_layers.0.bias f4 [64]
-0.023913931 0.0066671153 -0.024771135 0.0009580481 -0.07588378 -0.002502378 0.00094901246 -4.6063946e-38
-0.022806713 -0.028945496 -0.074772805 0.0008176139 -0.0057363347 -0.016446117 -0.0015661183 -0.027711159
-0.022441676 -2.160907e-38 -0.017782481 -1.924348e-38 -2.7011984e-38 -0.021731999 -4.410803e-38 -0.0011725054
-2.1086703e-37 -4.0527267e-38 0.0030111282 -0.022299603 -2.999776e-38 0.0036601757 -0.0049673924 -0.021199472
-0.033809517 -0.030643241 -8.628827e-39 -2.6783813e-38 -9.629541e-38 -0.02984003 -0.008161354 -1.1365328e-38
-0.030092128 0.011130223 -0.004165887 -1.4744209e-38 -7.1952825e-38 -0.012010037 -0.011223049 -1.8135818e-38
0.03657909 0.0057065953 0.012117362 -0.021164386 -1.4159794e-38 -1.2857041e-38 -5.8263384e-38 -1.6454232e-38
-0.032087605 0.008482734 -0.012563541 -5.5535246e-38 -3.6702885e-38 -0.007410688 0.008423464 0.039061613
00000000: 26e7 c3bc d177 da3b d6ec cabc 8525 7b3a
00000010: f568 9bbd f0fe 23bb 26c7 783a c5cb 7a81
00000020: 25d5 babc 1b1f edbc 7c22 99bd 2455 563a
00000030: ddf7 bbbb 02ba 86bc 3646 cdba 8302 e3bc
00000040: 9bd7 b7bc 4c4d eb80 91ac 91bc fe8a d180
00000050: 3611 1381 4e07 b2bc 9f25 7081 c1ae 99ba
00000060: 3882 8f82 c4a6 5c81 5956 453b a8ad b6bc
00000070: c652 2381 8fdf 6f3b 82c5 a2bb 84aa adbc
00000080: d97b 0abd 8907 fbbc a9f5 5d80 30d3 1181
00000090: 0e12 0382 1473 f4bc 33b7 05bc e9c1 7b80
000000a0: c483 f6bc 8a5b 363c fe81 88bb db8c a080
000000b0: cddf c381 bfc5 44bc e1e0 37bc 487b c580
000000c0: f5d3 153d 64fe ba3b e687 463c ef60 adbc
000000d0: bf2f 9a80 3300 8c80 a79b 9e81 b42b b380
000000e0: 4b6e 03bd 2afb 0a3c 4fd7 4dbc 6b2e 9781
000000f0: 5bd4 4781 5bd5 f2bb 9202 0a3c 12ff 1f3d

common_layers.3.weight f4 [32, 64]
0.12586176 0.0166474 0.06533019 0.10114906 -0.058346372 0.045508668 -0.0291721 -2.3006207e-38
0.09333603 -0.01976401 -0.059730593 0.11606381 0.14457397 0.11636808 0.10723269 -0.050060652
0.10972057 1.5953789e-38 0.04744083 4.1526393e-38 -4.145178e-39 0.10845787 3.1505707e-38 -0.039757416
7.2924665e-38 6.152814e-39 0.09901888 -0.060278688 -5.524894e-39 -0.12625115 0.058998026 0.10560569
-0.053565882 -0.09425173 8.828567e-39 -3.685687e-39 3.547392e-38 -0.016660616 0.10652388 1.8626452e-38
-0.06595454 -0.14735758 0.15676408 9.50373e-40 7.151284e-38 0.027556384 0.13626735 7.736663e-39
-0.12396324 -0.0649409 -0.14465186 0.11038528 -6.01161e-39 -1.279622e-38 4.2350278e-38 5.885386e-39
-0.08264989 -0.06657685 -0.09612034 4.357134e-38 -3.6699177e-38 -0.07925893 -0.03762368 -0.14077023
0.12016982 0.013364688 0.070043884 0.09862591 -0.05686174 0.055296633 -0.025873804 3.0960557e-38
0.09708322 -0.018161468 -0.057979632 0.113756806 0.15196317 0.12137031 0.10658518 -0.048263405
0.106336534 6.248704e-39 0.05584537 4.6791985e-38 6.97405e-40 0.106254 3.7700638e-38 -0.037809208
1.0084331e-37 -1.05061e-39 0.09830432 -0.061077688 3.612312e-39 -0.12800436 0.058908083 0.11112957
-0.047390513 -0.08362148 3.62471e-39 -4.96273e-39 5.5167383e-38 -0.013105362 0.09577087 1.7147335e-38
-0.07129338 -0.1448825 0.15276587 9.587572e-39 -3.6580711e-38 0.026501035 0.13865276 9.033688e-39
-0.117726825 -0.06414527 -0.13996585 0.1030089 -7.875995e-39 -1.3917717e-38 -7.5360794e-38 9.529796e-39
-0.084925376 -0.0676396 -0.09667232 -4.41807e-40 -5.5482933e-38 -0.08080878 -0.03734829 -0.1281376
0.12364025 0.028780928 0.08192021 0.08251804 -0.04486225 0.03523585 -0.046066362 -7.589664e-39
0.10388119 -0.029023172 -0.046719596 0.09405585 0.14473131 0.11737688 0.08368955 -0.043892834
0.11465933 -4.698702e-39 0.06523257 4.142698e-38 -3.001066e-39 0.118133634 -2.248285e-39 -0.05477178
1.4147711e-37 -2.933213e-38 0.079240575 -0.05687187 -5.123542e-39 -0.09779038 0.07473861 0.10712502
-0.04178099 -0.071535565 3.004078e-39 4.292305e-39 8.5196206e-38 -0.029301593 0.07284372 2.245886e-38
-0.076672524 -0.052207857 0.13360438 6.976573e-39 4.4222017e-38 0.043769192 0.14414787 3.275996e-39
-0.029170774 -0.08753565 -0.049522154 0.11683534 -5.131119e-39 -9.266308e-39 -8.254002e-38 7.89272e-40
-0.08925722 -0.072379045 -0.10015454 7.770452e-39 -1.136695e-39 -0.08316952 -0.06332153 -0.04371362
-6.069685e-39 1.9710418e-38 1.328711e-39 2.6736068e-38 5.6999945e-38 4.3653855e-38 1.2223123e-38 3.6857244e-38
1.0971595e-38 2.2111862e-38 2.1852924e-38 -8.630026e-39 -1.075195e-37 6.006873e-39 2.538062e-38 -4.7414167e-38
1.0312743e-37 -3.5135328e-38 1.0381326e-37 -3.6068032e-38 -1.568555e-39 4.5758628e-38 1.731842e-39 -9.50336e-38
7.5758646e-38 -1.0528555e-38 -3.586696e-39 -3.26321e-39 4.7597333e-38 -7.186261e-38 -5.5385223e-38 -3.172745e-38
-8.341201e-38 -8.1806683e-38 2.760645e-39 2.7963909e-38 1.3150054e-38 -1.0344201e-37 6.6792645e-38 1.02751e-39
1.1393935e-38 -6.2934545e-38 -7.664274e-38 2.2616352e-38 -3.591593e-38 7.4290544e-38 -9.84373e-39 -4.783266e-38
-2.227541e-38 1.248159e-38 -6.175333e-38 -2.9137333e-38 1.0427634e-38 5.162128e-38 2.3940433e-38 7.92081e-40
-8.5525673e-38 -4.16791e-40 -2.5230043e-38 -6.921547e-38 -4.274597e-38 8.607413e-38 -2.518463e-38 4.7019382e-38
00000000: e8e1 003e 2160 883c d6cb 853d 3d27 cf3d
00000010: 9bfc 6ebd 4c67 3a3d 54fa eebc f283 fa80
00000020: f626 bf3d 22e8 a1bc 11a8 74bd ddb2 ed3d
00000030: 330b 143e 6352 ee3d d09c db3d 660c 4dbd
00000040: 2eb5 e03d acb8 ad00 5151 423d 5817 6201
00000050: 1223 2d80 291f de3d 8c88 2b01 acd8 22bd
00000060: 1385 c601 8bff 4200 69ca ca3d c9e6 76bd
00000070: 2829 3c80 fb47 01be eaa7 713d cc47 d83d
00000080: e667 5bbd 0d07 c1bd 7422 6000 3222 2880
00000090: 6e23 4101 d87b 88bc 3129 da3d f8d2 ca00
000000a0: 2d13 87bd e8e4 16be c386 203e 4159 0a00
000000b0: 2dad c201 edbd e13c ab89 0b3e ab3e 5400
000000c0: 70e0 fdbd bcff 84bd 9e1f 14be ad11 e23d
000000d0: ec75 4180 a856 8b80 ac93 6601 1016 4000
000000e0: 5844 a9bd 7259 88bd beda c4bd 9639 6d01
000000f0: 30cf 4781 8252 a2bd 4a1b 1abd 1226 10be
00000100: 981b f63d 90f7 5a3c 2b73 8f3d 62fc c93d
00000110: dbe7 68bd b97e 623d 4df5 d3bc b890 2801
00000120: 91d3 c63d 5cc7 94bc 0d7c 6dbd 54f9 e83d
00000130: 3c9c 1b3e ff90 f83d 5549 da3d d9af 45bd
00000140: f8c6 d93d d80a 4400 1dbe 643d 82c2 7e01
00000150: 1598 0700 b29b d93d 0543 4d01 d4dd 1abd
00000160: c442 0902 ac70 0b80 c653 c93d 992c 7abd
00000170: a855 2700 9313 03be 9a49 713d e697 e33d
00000180: 8e1c 42bd bd41 abbd 3778 2700 120a 3680
00000190: 0e2e 9601 dfb7 56bc 8523 c43d cbb7 ba00
000001a0: 4302 92bd 145c 14be a86e 1c3e 4066 6800
000001b0: 122a 4781 b318 d93c fdfa 0d3e 3f5e 6200
000001c0: c31a f1bd 985e 83bd 3553 0fbe 55f6 d23d
000001d0: 12c3 5580 ef8c 9780 cf26 cd81 32c5 6700
000001e0: 5bed adbd a186 8abd 23fc c5bd 94cf 0480
000001f0: f609 9781 137f a5bd 85fa 18bd 8136 03be
00000200: 1937 fd3d fbc5 eb3c c8c5 a73d 38ff a83d
00000210: 7bc1 37bd 7753 103d 15b0 3cbd e5a4 5280
00000220: a9bf d43d 01c2 edbc 0c5d 3fbd 5aa0 c03d
00000230: 7234 143e 4a63 f03d 6d65 ab3d f9c8 33bd
00000240: 83d2 ea3d 122a 3380 a798 853d c88c 6101
00000250: c0ad 2080 0cf0 f13d 4e7b 1880 6058 60bd
00000260: 9491 4002 06b3 1f81 e248 a23d 7af2 68bd
00000270: 5aca 3780 5346 c8bd 8e10 993d 5d64 db3d
00000280: 8b22 2bbd 3d81 92bd 26b6 2000 33bd 2e00
00000290: 17ed e701 e509 f0bc 172f 953d 2a8e f400
000002a0: 7c06 9dbd e8d7 55bd 96cf 083e d9f7 4b00
000002b0: 7fc4 7001 5347 333d 809b 133e 25ac 2300
000002c0: 8cf7 eebc e445 b3bd bed7 4abd 5e47 ef3d
000002d0: 79df 3780 b2e6 6480 00b2 e081 2b98 0800
000002e0: 7dcc b6bd 773b 94bd d31d cdbd dc9c 5400
000002f0: a560 0c80 c854 aabd b8ae 81bd 0e0d 33bd
00000300: d017 4280 a0a0 d600 e877 0e00 a490 1101
00000310: 2a2b 9b01 98ac 6d01 1819 8500 80ab 4801
00000320: 5878 7700 e0c6 f000 10f5 ed00 00f9 5d80
00000330: 1459 1282 b868 4100 6c2f 0a01 da12 8181
00000340: aa5e 0c02 804b 3f81 a44d 0d02 805f 4481
00000350: 7e14 1180 3822 7901 acdb 1200 605a 0182
00000360: 123c ce01 54a5 7280 400e 2780 8088 2380
00000370: 8092 8101 eea0 c381 dec5 9681 9cbd 2c81
00000380: b011 e381 f0b2 de81 8e0f 1e00 0040 1801
00000390: 0031 8f00 48cc 0c82 aed3 b501 4830 0b00
000003a0: a811 7c00 fa52 ab81 32a4 d081 3045 f600
000003b0: 808b 4381 f43c ca01 5030 6b80 8036 8281
000003c0: c88e f280 98e9 8700 ca1b a881 84a3 1e81
000003d0: 008c 7100 c886 8c01 1858 0201 00a0 0800
000003e0: b2d2 e881 d889 0480 8c5d 0981 246c bc81
000003f0: 30bb 6881 ea50 ea01 401e 0981 74ff 7f01

common_layers.3.bias f4 [32]
0.010145006 0.010410822 0.01072199 -1.0114169e-37 0.009569049 0.0038257046 0.0074783033 -2.607595e-38
-3.4776433e-38 0.0038556994 0.01966876 -2.2318961e-38 0.006348627 0.007157635 -5.4442267e-38 0.005391434
0.011839119 0.012468607 -3.5877983e-38 0.008026411 0.0068609365 0.0060773646 0.004286533 -4.4855228e-38
0.009213914 0.009493177 0.01040814 -5.4278814e-38 -3.516947e-38 0.007942085 0.004676532 -2.0453902e-38
00000000: 3d37 263c 2792 2a3c 49ab 2f3c bcaa 0982
00000010: 80c7 1c3c acb8 7a3b 8e0c f53b 92f8 0d81
00000020: 4657 3d81 e7af 7c3b 6120 a13c 2f08 f380
00000030: 2508 d03b 988a ea3b b934 9481 a0aa b03b
00000040: ddf8 413c 2149 4c3c 9c56 4381 3581 033c
00000050: b5d1 e03b a124 c73b 0c76 8c3b 1037 7481
00000060: f5f5 163c 4589 1b3c e786 2a3c d0c2 9381
00000070: 167b 3f81 851f 023c 983d 993b 28b9 de80

common_layers.6.weight f4 [2, 32]
0.5982632 0.59597284 0.5303968 8.07847e-38 0.5898294 -0.5564795 -0.25935555 1.2116652e-38
-2.1057861e-38 -0.55841774 0.34554446 -1.740819e-38 -0.54969454 -0.54649323 -8.780409e-39 -0.5537351
0.5468071 0.5450718 7.925037e-38 0.6019535 -0.53631043 -0.53994447 -0.5471356 -1.3567389e-38
0.5730712 -0.15572129 0.5753563 -1.2946214e-38 5.8531486e-38 -0.5376191 -0.5577442 -2.0983249e-38
7.0430087e-06 -2.6918537e-05 1.9155435e-05 -6.513067e-38 -7.7437635e-06 -8.485445e-06 -1.5094527e-06 -2.4806265e-38
-3.5961693e-38 1.4177337e-05 -3.0227075e-05 -2.918533e-38 2.8853628e-06 -2.8263776e-05 -5.524484e-38 3.5343655e-05
-3.4048899e-06 2.6621901e-05 6.90303e-38 3.3890647e-05 -1.429585e-05 9.218476e-06 -4.580529e-06 -2.1489653e-38
2.0872983e-05 2.0804786e-05 -2.2577979e-05 -6.185058e-38 -6.575648e-39 -5.994731e-06 9.452401e-08 3.3341403e-38
00000000: c727 193f ad91 183f 16c8 073f b8ea db01
00000010: 0fff 163f 7175 0ebf 40ca 84be 4cf0 8300
00000020: c04c e580 77f4 0ebf 34eb b03e f48e bd80
00000030: c8b8 0cbf fbe6 0bbf 359c 5f80 95c1 0dbf
00000040: 8dfb 0b3f d389 0b3f 72bd d701 a019 1a3f
00000050: a44b 09bf cd39 0abf 1411 0cbf 5cbc 9380
00000060: cbb4 123f 6775 1fbe 8d4a 133f c7f8 8c80
00000070: 7e56 9f01 68a1 09bf 53c8 0ebf c37c e480
00000080: fc52 ec36 1ecf e1b7 fcaf a037 744d b181
00000090: 36eb 01b7 b55c 0eb7 6698 cab5 e30e 0781
000000a0: 49cb 4381 33db 6d37 2690 fdb7 6ae6 1e81
000000b0: 28a2 4136 ff17 edb7 0964 9681 f63d 1438
000000c0: 907f 64b6 1952 df37 19eb bb01 ce25 0e38
000000d0: 35d8 6fb7 0ea9 1a37 72b2 99b6 6900 ea80
000000e0: 6418 af37 f085 ae37 d765 bdb7 905f a881
000000f0: 3b9a 4780 5926 c9b6 20fd ca33 2287 3501

common_layers.6.bias f4 [2]
-0.011174287 1.0000027
00000000: 5b14 37bc 1700 803f

exp_avg f4 [16, 1, 3]
-0.00072162464 -0.0005902965 0.00065232464 0.0018745749 -0.00081831875 -0.0020103087 -7.89e-43 -8.07e-43
-4.92e-43 -0.0026924727 -0.00059922587 -0.004933491 0.0030832014 0.0025013706 3.7715607e-05 -4.27e-43
-3.97e-43 -5.21e-43 0.008507484 0.0062610256 0.007577501 -0.0027766405 -0.001179632 4.1593492e-05
-9.94e-43 -1.65e-43 -1.25e-43 1.19e-43 1.08e-43 3.4e-44 -0.0046194857 -0.0062646293
-0.0076389033 -5.6e-43 -3.76e-43 -8.7e-44 -0.0017803982 0.0002890748 -0.000119061035 -5.2e-43
-6.68e-43 -6.15e-43 -5.6e-44 8.5e-44 -1.7e-44 -1.82e-43 -5.5e-43 -1.37e-43
00000000: 692b 3dba 21be 1aba c400 2b3a 4cb4 f53a
00000010: 7184 56ba 62bf 03bb 3302 0080 4002 0080
00000020: 5f01 0080 3274 30bb 5e15 1dba 1fa9 a1bb
00000030: 890f 4a3b 09ee 233b d330 1e38 3101 0080
00000040: 1b01 0080 7401 0080 f962 0b3c 4a29 cd3b
00000050: af4c f83b 4cf8 35bb e29d 9aba ac74 2e38
00000060: c502 0080 7600 0080 5900 0080 5500 0000
00000070: 4d00 0000 1800 0000 0e5f 97bb 8547 cdbb
00000080: c44f fabb 9001 0080 0c01 0080 3e00 0080
00000090: 405c e9ba f68e 9739 68b0 f9b8 7301 0080
000000a0: dd01 0080 b701 0080 2800 0080 3d00 0000
000000b0: 0c00 0080 8200 0080 8801 0080 6200 0080

exp_avg_sq f4 [16, 1, 3]
0.00022786348 0.00020888905 0.00013043529 0.00055341655 0.00055957364 0.00063862745 7e-43 7e-43
7e-43 0.0008388218 0.00071416685 0.0007981513 0.00050091103 0.00049761165 0.0005116492 7e-43
7e-43 7e-43 0.0005104771 0.00041101544 0.0005599239 0.0003076601 0.00025165145 0.00028331543
7e-43 7e-43 7e-43 7e-43 7e-43 7e-43 0.0004154801 0.00040039088
0.00051204755 7e-43 7e-43 7e-43 0.000268092 0.0001482068 0.00016535855 7e-43
7e-43 7e-43 7e-43 7e-43 7e-43 7e-43 7e-43 7e-43
00000000: a3ee 6e39 3a09 5b39 75c5 0839 2813 113a
00000010: 5ab0 123a 9069 273a f401 0000 f401 0000
00000020: f401 0000 61e4 5b3a ed36 3b3a 073b 513a
00000030: 924f 033a 2772 023a 3220 063a f401 0000
00000040: f401 0000 f401 0000 8ad1 053a 8f7d d739
00000050: dbc7 123a 714d a139 16f0 8339 f489 9439
00000060: f401 0000 f401 0000 f401 0000 f401 0000
00000070: f401 0000 f401 0000 ccd4 d939 8eeb d139
00000080: ee3a 063a f401 0000 f401 0000 f401 0000
00000090: b38e 8c39 f667 1b39 1964 2d39 f401 0000
000000a0: f401 0000 f401 0000 f401 0000 f401 0000
000000b0: f401 0000 f401 0000 f401 0000 f401 0000

exp_avg f4 [16]
-0.0014606093 0.0022528323 -6.11e-43 -0.008637147 0.0024878616 -4.51e-43 0.014847081 0.0006363982
-6.28e-43 -2.6e-43 -0.008571893 -7.1e-44 -0.0026438092 -3.32e-43 -1.46e-43 -2.07e-43
00000000: ea71 bfba 41a4 133b b401 0080 d282 0dbc
00000010: 640b 233b 4201 0080 2c41 733c f6d3 263a
00000020: c001 0080 ba00 0080 2071 0cbc 3300 0080
00000030: c243 2dbb ed00 0080 6800 0080 9400 0080

exp_avg_sq f4 [16]
0.00044588977 0.0013782372 7e-43 0.0020988365 0.0012718164 7e-43 0.0016107017 0.00064228254
7e-43 7e-43 0.00096566253 7e-43 0.00034035603 7e-43 7e-43 7e-43
00000000: 50c6 e939 f7a5 b43a f401 0000 a28c 093b
00000010: 14b3 a63a f401 0000 2e1e d33a da5e 283a
00000020: f401 0000 f401 0000 8424 7d3a f401 0000
00000030: d071 b239 f401 0000 f401 0000 f401 0000

exp_avg f4 [32, 16, 3]
1.3e-44 -2.165e-42 -2.16e-42 2.53e-42 3.52e-43 1.216e-42 5.503e-42 -1.01e-42
-1.694e-42 -1.858e-42 -2.61e-42 -1.868e-42 -1.77e-43 -4.6e-43 -2.94e-43 -1.65e-43
-1.8e-44 2.655e-42 -4.7e-43 -1.819e-42 -2.534e-42 -7.76e-43 -6.85e-43 -1.64e-43
-7.145e-42 -3.481e-42 5.51e-42 -3.138e-42 8.004e-42 -8.24e-43 6.7e-43 8.49e-43
1.774e-42 4.176e-42 -3.07e-43 5.44e-43 -2.41e-43 -4.41e-43 9.32e-43 -5.09e-43
4.644e-42 -4.67e-43 5.398e-42 -7.742e-42 6.28e-43 2.11e-42 -4.6e-43 -1.3e-43
-1.15e-42 1.02e-43 -3.1e-43 -3.04e-43 -9.9e-43 3.74e-43 2.232e-42 -2.3e-43
-6.94e-42 -1.177e-42 7.4e-44 -1.132e-42 -1.041e-42 -1.65e-43 -1.53e-43 -5.13e-43
1.63e-43 -4.34e-43 -4.48e-43 3.74e-43 -2.76e-43 -4.41e-43 -6.43e-43 -4.33e-43
-2.13e-42 -4.83e-42 5.619e-42 -7.375e-42 -6.94e-42 -7.008e-42 8.98e-43 6.11e-43
-2.1e-43 7.3e-44 1.14e-43 -4.8e-43 3.81e-43 -1.198e-42 -1.393e-42 6.29e-43
-5e-43 -6.88e-43 -2.52e-43 -2.89e-43 -2.47e-43 -1.656e-42 2.499e-42 -1.06e-42
2.772e-42 1.115e-42 -9.99e-43 4.61e-43 -9.42e-43 2e-43 -1.26e-43 5.32e-43
4.37e-43 -1.136e-42 -1.28e-42 -1.823e-42 -8.18e-43 -1.432e-42 -1.32e-43 1.4e-43
1.33e-43 -2.59e-43 -1.298e-42 -2.48e-43 1.12e-43 -2.384e-42 -2.09e-42 3.84e-43
-1.575e-42 6.194e-42 3.796e-42 5.63e-43 1.43e-43 1.4e-43 1.467e-42 9.5e-43
2.566e-42 3.28e-43 -2.747e-42 4.675e-42 -2.162e-42 -1.448e-42 -2.528e-42 -3.4e-44
1.71e-43 -4.55e-42 -5.982e-42 -5.653e-42 5.996e-42 -3.88e-43 6.2e-43 4.592e-42
-2.9e-43 -3.71e-43 -3.4e-43 -4.68e-43 -4.7e-43 -4.39e-43 5.42e-43 8.1e-44
-3.8e-44 -3.07e-43 -3.2e-43 -3.36e-43 -5.63e-43 -4.23e-43 -4.57e-43 4.7e-43
-3.5e-43 -1.86e-43 1.093e-42 2.77e-43 7.13e-43 -3.4e-44 4e-44 1.81e-43
-4.39e-42 -4.39e-42 -1.61e-42 2.822e-42 5.122e-42 5.5e-43 -7.05e-43 -6e-43
-6.78e-43 3e-45 4e-44 -2.79e-43 -3.74e-43 -2.96e-43 -3.64e-43 -6.14e-43
5.76e-43 1.61e-43 -1.65e-43 3.24e-43 -9e-44 -2.933e-42 -7.191e-42 -1.95e-42
-2.62e-42 -5.86e-43 -4.57e-43 1.214e-42 -1.71e-42 -1.913e-42 1.292e-42 -6.899e-42
-3.826e-42 -1.107e-42 8.3e-43 -2.758e-42 -1.735e-42 1.597e-42 3.66e-43 -3.713e-42
-5.06e-43 4.17e-42 5.56e-43 -2.641e-42 4.09e-43 -1.67e-43 1.53e-42 1.28e-43
8.157e-42 -6.118e-42 -1.501e-42 2.843e-42 -2.452e-42 2.37e-42 -2.31e-43 -2.231e-42
3.56e-43 3.87e-43 -1.58e-43 -2.7e-43 1.05e-42 -1.42e-42 4.72e-43 -5.32e-43
1.56e-43 3.4e-44 -4.26e-43 -4.26e-43 -3.81e-43 -4e-44 -7e-45 -3.488e-42
-6.9e-44 1.43e-43 6.18e-43 5.37e-43 1.57e-43 6.61e-43 -3.4e-43 5.17e-43
-4.72e-43 -2.2e-43 -2.19e-43 -2.12e-43 1.68e-43 0.0 1.86e-43 2.91e-43
00000000: 0900 0000 0906 0080 0506 0080 0d07 0000
00000010: fb00 0000 6403 0000 570f 0000 d102 0080
00000020: b904 0080 2e05 0080 4707 0080 3505 0080
00000030: 7e00 0080 4801 0080 d200 0080 7600 0080
00000040: 0d00 0080 6707 0000 4f01 0080 1205 0080
00000050: 1007 0080 2a02 0080 e901 0080 7500 0080
00000060: eb13 0080 b409 0080 5c0f 0000 bf08 0080
00000070: 5016 0000 4c02 0080 de01 0000 5e02 0000
00000080: f204 0000 a40b 0000 db00 0080 8401 0000
00000090: ac00 0080 3b01 0080 9902 0000 6b01 0080
000000a0: f20c 0000 4d01 0080 0c0f 0000 9515 0080
000000b0: c001 0000 e205 0000 4801 0080 5d00 0080
000000c0: 3503 0080 4900 0000 dd00 0080 d900 0080
000000d0: c202 0080 0b01 0000 3906 0000 a400 0080
000000e0: 5913 0080 4803 0080 3500 0000 2803 0080
000000f0: e702 0080 7600 0080 6d00 0080 6e01 0080
00000100: 7400 0000 3601 0080 4001 0080 0b01 0000
00000110: c500 0080 3b01 0080 cb01 0080 3501 0080
00000120: f005 0080 770d 0080 aa0f 0000 8f14 0080
00000130: 5913 0080 8913 0080 8102 0000 b401 0000
00000140: 9600 0080 3400 0000 5100 0000 5701 0080
00000150: 1001 0000 5703 0080 e203 0080 c101 0000
00000160: 6501 0080 eb01 0080 b400 0080 ce00 0080
00000170: b000 0080 9e04 0080 f706 0000 f402 0080
00000180: ba07 0000 1c03 0000 c902 0080 4901 0000
00000190: a002 0080 8f00 0000 5a00 0080 7c01 0000
000001a0: 3801 0000 2b03 0080 9103 0080 1505 0080
000001b0: 4802 0080 fe03 0080 5e00 0080 6400 0000
000001c0: 5f00 0000 b900 0080 9e03 0080 b100 0080
000001d0: 5000 0000 a506 0080 d305 0080 1201 0000
000001e0: 6404 0080 4411 0000 950a 0000 9201 0000
000001f0: 6600 0000 6400 0000 1704 0000 a602 0000
00000200: 2707 0000 ea00 0000 a807 0080 080d 0000
00000210: 0706 0080 0904 0080 0c07 0080 1800 0080
00000220: 7a00 0000 af0c 0080 ad10 0080 c20f 0080
00000230: b710 0000 1501 0080 ba01 0000 cd0c 0000
00000240: cf00 0080 0901 0080 f300 0080 4e01 0080
00000250: 4f01 0080 3901 0080 8301 0000 3a00 0000
00000260: 1b00 0080 db00 0080 e400 0080 f000 0080
00000270: 9201 0080 2e01 0080 4601 0080 4f01 0000
00000280: fa00 0080 8500 0080 0c03 0000 c600 0000
00000290: fd01 0000 1800 0080 1d00 0000 8100 0000
000002a0: 3d0c 0080 3d0c 0080 7d04 0080 de07 0000
000002b0: 470e 0000 8801 0000 f701 0080 ac01 0080
000002c0: e401 0080 0200 0000 1d00 0000 c700 0080
000002d0: 0b01 0080 d300 0080 0401 0080 b601 0080
000002e0: 9b01 0000 7300 0000 7600 0080 e700 0000
000002f0: 4000 0080 2d08 0080 0c14 0080 7005 0080
00000300: 4e07 0080 a201 0080 4601 0080 6203 0000
00000310: c404 0080 5505 0080 9a03 0000 3b13 0080
00000320: aa0a 0080 1603 0080 5002 0000 b007 0080
00000330: d604 0080 7404 0000 0501 0000 5a0a 0080
00000340: 6901 0080 a00b 0000 8d01 0000 5d07 0080
00000350: 2401 0000 7700 0080 4404 0000 5b00 0000
00000360: bd16 0000 0e11 0080 2f04 0080 ed07 0000
00000370: d606 0080 9b06 0000 a500 0080 3806 0080
00000380: fe00 0000 1401 0000 7100 0080 c100 0080
00000390: ed02 0000 f503 0080 5101 0000 7c01 0080
000003a0: 6f00 0000 1800 0000 3001 0080 3001 0080
000003b0: 1001 0080 1d00 0080 0500 0080 b909 0080
000003c0: 3100 0080 6600 0000 b901 0000 7f01 0000
000003d0: 7000 0000 d801 0000 f300 0080 7101 0000
000003e0: 5101 0080 9d00 0080 9c00 0080 9700 0080
000003f0: 7800 0000 0000 0000 8500 0000 d000 0000

exp_avg_sq f4 [32, 16, 3]
7e-43 7e-43 7e-43 7e-43 7e-43 7e-43 7e-43 7e-43
7e-43 7e-43 7e-43 7e-43 7e-43 7e-43 7e-43 7e-43
7e-43 7e-43 7e-43 7e-43 7e-43 7e-43 7e-43 7e-43
7e-43 7e-43 7e-43 7e-43 7e-43 7e-43 7e-43 7e-43
7e-43 7e-43 7e-43 7e-43 7e-43 7e-43 7e-43 7e-43
7e-43 7e-43 7e-43 7e-43 7e-43 7e-43 7e-43 7e-43
7e-43 7e-43 7e-43 7e-43 7e-43 7e-43 7e-43 7e-43
7e-43 7e-43 7e-43 7e-43 7e-43 7e-43 7e-43 7e-43
7e-43 7e-43 7e-43 7e-43 7e-43 7e-43 7e-43 7e-43
7e-43 7e-43 7e-43 7e-43 7e-43 7e-43 7e-43 7e-43
7e-43 7e-43 7e-43 7e-43 7e-43 7e-43 7e-43 7e-43
7e-43 7e-43 7e-43 7e-43 7e-43 7e-43 7e-43 7e-43
7e-43 7e-43 7e-43 7e-43 7e-43 7e-43 7e-43 7e-43
7e-43 7e-43 7e-43 7e-43 7e-43 7e-43 7e-43 7e-43
7e-43 7e-43 7e-43 7e-43 7e-43 7e-43 7e-43 7e-43
7e-43 7e-43 7e-43 7e-43 7e-43 7e-43 7e-43 7e-43
7e-43 7e-43 7e-43 7e-43 7e-43 7e-43 7e-43 7e-43
7e-43 7e-43 7e-43 7e-43 7e-43 7e-43 7e-43 7e-43
7e-43 7e-43 7e-43 7e-43 7e-43 7e-43 7e-43 7e-43
7e-43 7e-43 7e-43 7e-43 7e-43 7e-43 7e-43 7e-43
7e-43 7e-43 7e-43 7e-43 7e-43 7e-43 7e-43 7e-43
7e-43 7e-43 7e-43 7e-43 7e-43 7e-43 7e-43 7e-43
7e-43 7e-43 7e-43 7e-43 7e-43 7e-43 7e-43 7e-43
7e-43 7e-43 7e-43 7e-43 7e-43 7e-43 7e-43 7e-43
7e-43 7e-43 7e-43 7e-43 7e-43 7e-43 7e-43 7e-43
7e-43 7e-43 7e-43 7e-43 7e-43 7e-43 7e-43 7e-43
7e-43 7e-43 7e-43 7e-43 7e-43 7e-43 7e-43 7e-43
7e-43 7e-43 7e-43 7e-43 7e-43 7e-43 7e-43 7e-43
7e-43 7e-43 7e-43 7e-43 7e-43 7e-43 7e-43 7e-43
7e-43 7e-43 7e-43 7e-43 7e-43 7e-43 7e-43 7e-43
7e-43 7e-43 7e-43 7e-43 7e-43 7e-43 7e-43 7e-43
7e-43 7e-43 7e-43 7e-43 7e-43 7e-43 7e-43 7e-43
00000000: f401 0000 f401 0000 f401 0000 f401 0000
00000010: f401 0000 f401 0000 f401 0000 f401 0000
00000020: f401 0000 f401 0000 f401 0000 f401 0000
00000030: f401 0000 f401 0000 f401 0000 f401 0000
00000040: f401 0000 f401 0000 f401 0000 f401 0000
00000050: f401 0000 f401 0000 f401 0000 f401 0000
00000060: f401 0000 f401 0000 f401 0000 f401 0000
00000070: f401 0000 f401 0000 f401 0000 f401 0000
00000080: f401 0000 f401 0000 f401 0000 f401 0000
00000090: f401 0000 f401 0000 f401 0000 f401 0000
000000a0: f401 0000 f401 0000 f401 0000 f401 0000
000000b0: f401 0000 f401 0000 f401 0000 f401 0000
000000c0: f401 0000 f401 0000 f401 0000 f401 0000
000000d0: f401 0000 f401 0000 f401 0000 f401 0000
000000e0: f401 0000 f401 0000 f401 0000 f401 0000
000000f0: f401 0000 f401 0000 f401 0000 f401 0000
00000100: f401 0000 f401 0000 f401 0000 f401 0000
00000110: f401 0000 f401 0000 f401 0000 f401 0000
00000120: f401 0000 f401 0000 f401 0000 f401 0000
00000130: f401 0000 f401 0000 f401 0000 f401 0000
00000140: f401 0000 f401 0000 f401 0000 f401 0000
00000150: f401 0000 f401 0000 f401 0000 f401 0000
00000160: f401 0000 f401 0000 f401 0000 f401 0000
00000170: f401 0000 f401 0000 f401 0000 f401 0000
00000180: f401 0000 f401 0000 f401 0000 f401 0000
00000190: f401 0000 f401 0000 f401 0000 f401 0000
000001a0: f401 0000 f401 0000 f401 0000 f401 0000
000001b0: f401 0000 f401 0000 f401 0000 f401 0000
000001c0: f401 0000 f401 0000 f401 0000 f401 0000
000001d0: f401 0000 f401 0000 f401 0000 f401 0000
000001e0: f401 0000 f401 0000 f401 0000 f401 0000
000001f0: f401 0000 f401 0000 f401 0000 f401 0000
00000200: f401 0000 f401 0000 f401 0000 f401 0000
00000210: f401 0000 f401 0000 f401 0000 f401 0000
00000220: f401 0000 f401 0000 f401 0000 f401 0000
00000230: f401 0000 f401 0000 f401 0000 f401 0000
00000240: f401 0000 f401 0000 f401 0000 f401 0000
00000250: f401 0000 f401 0000 f401 0000 f401 0000
00000260: f401 0000 f401 0000 f401 0000 f401 0000
00000270: f401 0000 f401 0000 f401 0000 f401 0000
00000280: f401 0000 f401 0000 f401 0000 f401 0000
00000290: f401 0000 f401 0000 f401 0000 f401 0000
000002a0: f401 0000 f401 0000 f401 0000 f401 0000
000002b0: f401 0000 f401 0000 f401 0000 f401 0000
000002c0: f401 0000 f401 0000 f401 0000 f401 0000
000002d0: f401 0000 f401 0000 f401 0000 f401 0000
000002e0: f401 0000 f401 0000 f401 0000 f401 0000
000002f0: f401 0000 f401 0000 f401 0000 f401 0000
00000300: f401 0000 f401 0000 f401 0000 f401 0000
00000310: f401 0000 f401 0000 f401 0000 f401 0000
00000320: f401 0000 f401 0000 f401 0000 f401 0000
00000330: f401 0000 f401 0000 f401 0000 f401 0000
00000340: f401 0000 f401 0000 f401 0000 f401 0000
00000350: f401 0000 f401 0000 f401 0000 f401 0000
00000360: f401 0000 f401 0000 f401 0000 f401 0000
00000370: f401 0000 f401 0000 f401 0000 f401 0000
00000380: f401 0000 f401 0000 f401 0000 f401 0000
00000390: f401 0000 f401 0000 f401 0000 f401 0000
000003a0: f401 0000 f401 0000 f401 0000 f401 0000
000003b0: f401 0000 f401 0000 f401 0000 f401 0000
000003c0: f401 0000 f401 0000 f401 0000 f401 0000
000003d0: f401 0000 f401 0000 f401 0000 f401 0000
000003e0: f401 0000 f401 0000 f401 0000 f401 0000
000003f0: f401 0000 f401 0000 f401 0000 f401 0000

exp_avg f4 [32]
-2.69e-42 -1.194e-42 -1.309e-42 -1.435e-42 -9.68e-43 -8.28e-43 -0.0015312881 -2.518e-42
-4.5e-44 -5.72e-43 0.0026954676 -1.228e-42 -4.29e-43 -1.169e-42 -3.38e-43 -1.537e-42
-1.422e-42 -0.0023814864 0.00195507 -1.317e-42 0.0067115813 -5.75e-43 -1.764e-42 -5.34e-43
-5.47e-43 -0.011333898 -4.253e-42 -2.11e-42 -1.669e-42 -5.21e-43 -5.69e-43 -1.795e-42
00000000: 8007 0080 5403 0080 a603 0080 0004 0080
00000010: b302 0080 4f02 0080 81b5 c8ba 0507 0080
00000020: 2000 0080 9801 0080 71a6 303b 6c03 0080
00000030: 3201 0080 4203 0080 f100 0080 4904 0080
00000040: f703 0080 b612 1cbb a220 003b ac03 0080
00000050: d3ec db3b 9a01 0080 eb04 0080 7d01 0080
00000060: 8601 0080 d0b1 39bc db0b 0080 e205 0080
00000070: a704 0080 7401 0080 9601 0080 0105 0080

exp_avg_sq f4 [32]
7e-43 7e-43 7e-43 7e-43 7e-43 7e-43 0.00082670193 7e-43
7e-43 7e-43 0.0021101253 7e-43 7e-43 7e-43 7e-43 7e-43
7e-43 0.00030525608 0.0014460632 7e-43 0.00088085624 7e-43 7e-43 7e-43
7e-43 0.0009895825 7e-43 7e-43 7e-43 7e-43 7e-43 7e-43
00000000: f401 0000 f401 0000 f401 0000 f401 0000
00000010: f401 0000 f401 0000 07b7 583a f401 0000
00000020: f401 0000 f401 0000 074a 0a3b f401 0000
00000030: f401 0000 f401 0000 f401 0000 f401 0000
00000040: f401 0000 c70a a039 d489 bd3a f401 0000
00000050: 43e9 663a f401 0000 f401 0000 f401 0000
00000060: f401 0000 e1b4 813a f401 0000 f401 0000
00000070: f401 0000 f401 0000 f401 0000 f401 0000

exp_avg f4 [64, 288]
6.66e-43 -6.22e-43 2.123e-42 -1.71e-42 8.52e-43 -1.3e-42 -1.64e-42 -1.176e-42
2.078e-42 4e-44 -1.46e-43 -3.95e-43 -5.31e-43 -1.389e-42 -4.86e-43 7.1e-43
-4.88e-43 -4e-43 1.12e-43 -2.657e-42 -1.188e-42 -5.47e-43 3e-44 -4.5e-43
-3.62e-43 -1.167e-42 1.307e-42 6.43e-43 7.38e-43 8.23e-43 8.91e-43 1.062e-42
8.9e-43 7.95e-43 5.58e-43 7.08e-43 -6.604e-42 -6.254e-42 3.89e-42 -6.097e-42
-5.352e-42 3e-43 5.188e-42 1.99e-42 7.748e-42 2.66e-43 -1.98e-43 -6.6e-44
4.26e-43 3.4e-44 1.4e-43 4.47e-43 -1.3e-44 6e-45 0.0010321396 7.549426e-05
4.723413e-05 7.221e-42 7.831868e-07 -3.5491923e-06 7.204794e-05 4.4510285e-05 -2.6306983e-05 4.72e-43
6.81e-43 4.19e-43 1.959e-42 5.52e-43 5.03e-43 6.07e-43 7.05e-43 5.16e-43
2.72e-43 -2.8e-44 1.78e-43 4.79e-43 4.4e-43 4.92e-43 3.64e-43 2.77e-43
3.59e-43 -2.82e-43 -3e-43 -2.77e-43 -2.6e-43 -2.82e-43 -2.62e-43 -2.87e-43
-3.01e-43 -2.96e-43 9.3486767e-07 0.0003195286 0.00076867995 0.0011168363 0.0012864247 0.0005077899
7.202868e-05 2.028999e-05 8.306447e-06 1.799e-42 1.52e-42 -1.846e-42 2.55e-43 1.86e-43
1.876e-42 1.62e-42 -1.995e-42 -1.766e-42 1.42e-43 -4.34e-43 9.7e-44 6.46e-43
-3.7e-43 -5e-44 5.27e-43 3.32e-43 -7.4e-44 -3.07e-43 -5.52e-43 -4.2e-43
-4.29e-43 -4.09e-43 -3.66e-43 -3.5e-43 -6.4e-43 -7.79e-43 1.616e-42 3.1e-44
2.357e-42 -6.3e-44 -3.18e-43 1.09e-42 6.46e-43 -9.73e-43 -1.191e-42 1.01e-43
2.91e-43 2.33e-43 6.9e-44 1.39e-43 1.7e-43 1.15e-43 4.93e-43 1.28e-43
-1.108e-42 -4.78e-43 7.36e-43 -1.06e-42 3.87e-43 1.98e-43 -2.03e-43 9.54e-43
-5.656e-42 -1.1526e-41 0.0002891445 2.1886284e-05 -1.1402723e-06 -2.1e-43 1.7227948e-07 4.3003755e-07
1.6584116e-05 -3.2964263e-06 0.00019457452 5.9311733e-05 0.00038477092 0.0017444676 0.0012556474 0.000589735
0.00011974357 0.00014576022 5.664649e-05 2.56e-43 -1.389e-42 -1.7e-43 2.38e-43 5.28e-43
8.25e-43 -6.03e-43 -1.77e-43 -9.18e-43 -3.814718e-05 1.9654948e-07 9.579149e-05 0.00039319697
0.0011341614 0.0007456914 0.00011740598 2.0194058e-05 3.7401887e-07 3.71e-43 -2.89e-43 3.8e-43
2.93e-43 -8.95e-43 6.26e-43 -6.96e-43 1.125e-42 4.27e-43 -7.54e-43 1.185e-42
2.728e-42 -1.15e-42 -1.759e-42 1.062e-42 -6.99e-43 -1.55e-42 -2.536e-42 8e-44
1.33e-43 2.5e-44 -2.14e-43 -2.84e-43 -8.7e-44 3e-45 8.5e-44 -1.28e-43
9.68e-43 1.162e-42 3.92e-43 -3.78e-43 -3.01e-43 2.84e-43 1.089e-42 1.274e-42
-7.6e-44 9.278574e-05 0.0011430259 0.0014860647 0.0010721635 0.00094197644 0.00015425243 0.00013404519
0.000624057 0.00037282635 -4.902e-42 2.946e-42 -7.264e-42 -1.914e-42 -2.336e-42 -9.331e-42
-1.135e-42 1.729e-42 3.034e-42 -1.54e-42 -8.04e-43 -7.3e-43 -1.052e-42 1.782e-42
-5.4e-43 -1.009e-42 3.6e-43 -1.512e-42 2.895e-42 -4.01e-43 4.703e-42 4.46e-43
00000000: db01 0000 bc01 0080 eb05 0000 c404 0080
00000010: 6002 0000 a003 0080 9204 0080 4703 0080
00000020: cb05 0000 1d00 0000 6800 0080 1a01 0080
00000030: 7b01 0080 df03 0080 5b01 0080 fb01 0000
00000040: 5c01 0080 1d01 0080 5000 0000 6807 0080
00000050: 5003 0080 8601 0080 1500 0000 4101 0080
00000060: 0201 0080 4103 0080 a503 0000 cb01 0000
00000070: 0f02 0000 4b02 0000 7c02 0000 f602 0000
00000080: 7b02 0000 3702 0000 8e01 0000 f901 0000
00000090: 6912 0080 6f11 0080 d80a 0000 ff10 0080
000000a0: eb0e 0080 d600 0000 760e 0000 8c05 0000
000000b0: 9915 0000 be00 0000 8d00 0080 2f00 0080
000000c0: 3001 0000 1800 0000 6400 0000 3f01 0000
000000d0: 0900 0080 0400 0000 dc48 873a ac52 9e38
000000e0: 431d 4638 2114 0000 303c 5235 a92e 6eb6
000000f0: 7118 9738 8eb0 3a38 d1ad dcb7 5101 0000
00000100: e601 0000 2b01 0000 7605 0000 8a01 0000
00000110: 6701 0000 b101 0000 f701 0000 7001 0000
00000120: c200 0000 1400 0080 7f00 0000 5601 0000
00000130: 3a01 0000 5f01 0000 0401 0000 c600 0000
00000140: 0001 0000 c900 0080 d600 0080 c600 0080
00000150: ba00 0080 c900 0080 bb00 0080 cd00 0080
00000160: d700 0080 d300 0080 9ef3 7a35 6786 a739
00000170: 3d81 493a cf62 923a 409d a83a 341d 053a
00000180: 1a0e 9738 6c34 aa37 eb5b 0b37 0405 0000
00000190: 3d04 0000 2505 0080 b600 0000 8500 0000
000001a0: 3b05 0000 8404 0000 9005 0080 ec04 0080
000001b0: 6500 0000 3601 0080 4500 0000 cd01 0000
000001c0: 0801 0080 2400 0080 7801 0000 ed00 0000
000001d0: 3500 0080 db00 0080 8a01 0080 2c01 0080
000001e0: 3201 0080 2401 0080 0501 0080 fa00 0080
000001f0: c901 0080 2c02 0080 8104 0000 1600 0000
00000200: 9206 0000 2d00 0080 e300 0080 0a03 0000
00000210: cd01 0000 b602 0080 5203 0080 4800 0000
00000220: d000 0000 a600 0000 3100 0000 6300 0000
00000230: 7900 0000 5200 0000 6001 0000 5b00 0000
00000240: 1703 0080 5501 0080 0d02 0000 f402 0080
00000250: 1401 0000 8d00 0000 9100 0080 a902 0000
00000260: c40f 0080 2120 0080 5198 9739 7098 b737
00000270: 750b 99b5 9600 0080 d3fb 3834 e9df e634
00000280: 1e1e 8b37 2c38 5db6 b306 4c39 7dc5 7838
00000290: 14bb c939 9fa6 e43a 8994 a43a 7298 1a3a
000002a0: d71e fb38 36d7 1839 b597 6d38 b700 0000
000002b0: df03 0080 7900 0080 aa00 0000 7901 0000
000002c0: 4d02 0000 ae01 0080 7e00 0080 8f02 0080
000002d0: 3900 20b8 1c0b 5334 aae3 c838 0126 ce39
000002e0: 24a8 943a 817a 433a db37 f638 6966 a937
000002f0: c3cc c834 0901 0000 ce00 0080 0f01 0000
00000300: d100 0000 7f02 0080 bf01 0000 f101 0080
00000310: 2303 0000 3101 0000 1a02 0080 4e03 0000
00000320: 9b07 0000 3503 0080 e704 0080 f602 0000
00000330: f301 0080 5204 0080 1207 0080 3900 0000
00000340: 5f00 0000 1200 0000 9900 0080 cb00 0080
00000350: 3e00 0080 0200 0000 3d00 0000 5b00 0080
00000360: b302 0000 3d03 0000 1801 0000 0e01 0080
00000370: d700 0080 cb00 0000 0903 0000 8d03 0000
00000380: 3600 0080 f795 c238 96d1 953a 0fc8 c23a
00000390: d687 8c3a f8ee 763a d2be 2139 7b8e 0c39
000003a0: c297 233a e877 c339 aa0d 0080 3608 0000
000003b0: 4014 0080 5605 0080 8306 0080 031a 0080
000003c0: 2a03 0080 d204 0000 7508 0000 4b04 0080
000003d0: 3e02 0080 0902 0080 ef02 0080 f804 0000
000003e0: 8101 0080 d002 0080 0101 0000 3704 0080
000003f0: 1208 0000 1e01 0080 1c0d 0000 3e01 0000
