model_checkpoint.pth (torch, 280298 bytes, 30 tensors)

raycast_branch.0.weight f4 [16, 1, 3]
-4.9705e-41 -4.991e-41 4.9083e-41 1.6474338 -0.42491364 0.033940174 -4.913e-41 4.9452e-41
-4.968e-41 -0.5963677 0.68103063 0.23093158 0.55746955 0.7608758 0.55641973 -0.00073903677
-0.0006610505 -0.00067174877 -0.4624162 -0.014864104 -0.8341691 -0.65610164 -0.9588293 0.83230484
-4.9343e-41 -4.9188e-41 -4.9104e-41 -4.9062e-41 -4.9181e-41 -4.9376e-41 0.643753 -1.3732063
0.49966192 -4.9336e-41 -4.9805e-41 5.0707e-41 -0.21706046 2.2050447 -0.22685593 4.9344e-41
4.9089e-41 4.9184e-41 4.9455e-41 4.9214e-41 4.9316e-41 4.9205e-41 4.9057e-41 4.9078e-41
00000000: 8f8a 0080 218b 0080 d388 0000 1cdf d23f
00000010: 488e d9be da04 0b3d f488 0080 da89 0000
00000020: 7d8a 0080 8eab 18bf 0658 2e3f 5479 6c3e
00000030: 53b6 0e3f c2c8 423f 8671 0e3f ebbb 41ba
00000040: 594a 2dba 4c18 30ba d1c1 ecbe 9288 73bc
00000050: 1b8c 55bf 47f6 27bf d675 75bf ee11 553f
00000060: 8c89 0080 1e89 0080 e288 0080 c488 0080
00000070: 1989 0080 a489 0080 ffcc 243f 39c5 afbf
00000080: b0d3 ff3e 8789 0080 d68a 0080 5a8d 0000
00000090: 1945 5ebe 741f 0d40 ec4c 68be 8d89 0000
000000a0: d788 0000 1b89 0000 dc89 0000 3089 0000
000000b0: 7989 0000 2a89 0000 c088 0000 cf88 0000

raycast_branch.0.bias f4 [16]
-4.9485e-41 -0.7035612 -4.9289e-41 -0.224432 -1.1074756 -0.0014093661 0.88947356 0.6267892
-4.913e-41 -4.9263e-41 0.19980744 -5.6943e-41 -0.81207615 4.942e-41 -4.9179e-41 4.9337e-41
00000000: f289 0080 961c 34bf 6689 0080 81d1 65be
00000010: c3c1 8dbf 7bba b8ba 8ab4 633f 4275 203f
00000020: f488 0080 5389 0080 529a 4c3e bc9e 0080
00000030: 39e4 4fbf c389 0000 1789 0080 8889 0000

raycast_branch.3.weight f4 [32, 16, 3]
4.9303e-41 -4.9571e-41 -4.9065e-41 4.9204e-41 -3.36532e-40 4.9428e-41 6.2604e-41 -6.1339e-41
-5.39e-41 4.9216e-41 4.9173e-41 -4.9188e-41 4.9375e-41 4.9193e-41 4.9113e-41 -5.2141e-41
-5.7923e-41 6.1339e-41 4.9445e-41 -6.3394563e-32 -9.619e-41 -4.503328e-26 -2.408877e-25 -7.38343e-40
4.951e-41 -5.9772e-41 -5.0947e-41 6.0836e-41 5.1799e-41 4.9368e-41 4.908e-41 4.9407e-41
4.9306e-41 5.1188e-41 5.2284e-41 5.015e-41 -3.2583102e-16 -3.8198028e-14 -2.5190106e-16 5.2474e-41
-5.7177e-41 4.9183e-41 -5.5627e-41 -5.1323e-41 -6.1202e-41 -5.454e-41 -5.2861e-41 5.073e-41
-6.2787e-41 5.2135e-41 5.5491e-41 -4.9588e-41 -1.60757e-40 4.9418e-41 5.6855e-41 5.8426e-41
-4.9101e-41 -4.936e-41 -4.9089e-41 4.9427e-41 4.9385e-41 -4.9633e-41 4.909e-41 5.532e-41
-6.0029e-41 -5.966e-41 -4.9487e-41 6.999283e-30 2.8846e-41 -5.118375e-27 -1.2248667e-22 -4.281624e-39
6.1874e-41 -5.9171e-41 4.9633e-41 -6.1308e-41 -6.2178e-41 5.323e-41 -4.9331e-41 -4.9355e-41
-4.9553e-41 -5.8902e-41 -5.8902e-41 -5.8751e-41 -2.3794396e-15 -8.2031436e-13 -8.677995e-15 6.0675e-41
5.0822e-41 5.1858e-41 -4.9072e-41 -5.1913e-41 5.7554e-41 -5.898e-41 5.643e-41 4.9099e-41
-5.5468e-41 -4.9442e-41 4.9442e-41 4.9106e-41 4.9443e-41 4.9449e-41 5.7019e-41 5.852e-41
5.3897e-41 4.9411e-41 4.9385e-41 4.917e-41 4.935e-41 4.9372e-41 4.9463e-41 -5.5908e-41
5.1e-41 6.0881e-41 4.9187e-41 4.9257e-41 4.9242e-41 4.9277e-41 4.9408e-41 4.907e-41
-5.1981e-41 5.6535e-41 5.7599e-41 6.2054e-41 -5.895e-41 -5.4073e-41 4.9054e-41 4.9064e-41
4.9132e-41 -5.7083e-41 5.72e-41 -5.3254e-41 4.9355e-41 4.9201e-41 4.9293e-41 4.9797e-41
-6.0766e-41 5.025e-41 -5.1485e-41 -5.0335e-41 -4.9781e-41 -5.9402e-41 -5.7675e-41 -5.0866e-41
4.9223e-41 4.9232e-41 4.9515e-41 -6.731827e-05 -4.6621644e-05 -4.9920152e-05 4.9892e-41 -5.935e-41
6.0777e-41 -1.5452242e-05 -1.581688e-05 -3.6269732e-05 -4.2400057e-05 -4.974224e-05 -9.8858436e-05 -6.1531e-41
-5.2361e-41 5.3238e-41 -7.82886e-05 -5.2356278e-05 -0.00013399906 -9.749997e-05 -0.00010171865 -0.00013272927
-4.9382e-41 4.9738e-41 -4.96e-41 -5.403e-41 5.0492e-41 -5.0026e-41 -9.542132e-05 -6.447375e-05
-7.814532e-05 -6.2048e-41 5.9587e-41 -5.6618e-41 -8.846364e-05 -7.978108e-05 -0.0001255409 5.6226e-41
5.6226e-41 5.3799e-41 -5.9163e-41 5.3985e-41 -5.1252e-41 4.9401e-41 -5.011e-41 5.0158e-41
5.0036e-41 4.9228e-41 5.0377e-41 -0.0005156267 -0.00067774014 -0.0006074186 -5.6027e-41 5.7351e-41
4.9103e-41 -5.8956277e-05 -8.96811e-05 -3.9025297e-10 -0.00050717295 -0.0007553698 -0.000554497 -5.7802e-41
5.0636e-41 -5.5368e-41 -0.00027822788 -0.00084703247 -0.0005327362 -0.0012195196 -0.001254249 -0.00063773675
5.1453e-41 -4.9806e-41 -5.7211e-41 -5.48e-41 -4.9225e-41 -5.6181e-41 -0.00010601862 -0.00010057942
-8.812451e-05 -5.6056e-41 5.7502e-41 -5.2008e-41 -0.0020422407 -0.0022821473 -0.0021963972 -4.96e-41
-5.6825e-41 -5.2794e-41 -5.1091e-41 5.7904e-41 5.8796e-41 -5.9372e-41 5.1585e-41 5.6903e-41
5.8651e-41 -6.2602e-41 -4.9871e-41 0.31755343 0.2884802 -0.051319994 -4.9163e-41 4.953e-41
-4.9556e-41 0.11640013 -0.0022686608 0.0080302935 0.1586537 -0.012845683 0.0065870993 -2.1939335e-19
00000000: 7089 0000 2f8a 0080 c688 0080 2989 0000
00000010: 1daa 0380 c989 0000 84ae 0000 fdaa 0080
00000020: 4096 0080 3289 0000 1389 0000 1e89 0080
00000030: a389 0000 2189 0000 e888 0000 5991 0080
00000040: 77a1 0080 fdaa 0000 d589 0000 ea94 a48b
00000050: 230c 0180 77fe 5e95 2e1a 9596 330a 0880
00000060: 048a 0000 9fa6 0080 058e 0080 96a9 0000
00000070: 6590 0000 9e89 0000 d188 0000 ba89 0000
00000080: 7289 0000 b18e 0000 bf91 0000 cc8b 0000
00000090: 2cd4 bba5 5407 2ca9 0936 91a5 4792 0000
000000a0: 639f 0080 1a89 0000 119b 0080 118f 0080
000000b0: 9baa 0080 0998 0080 5b93 0080 6a8d 0000
000000c0: 06af 0080 5591 0000 b09a 0000 3b8a 0080
000000d0: 20c0 0180 c289 0000 7d9e 0000 dea2 0000
000000e0: e088 0080 9889 0080 d788 0080 c889 0000
000000f0: aa89 0000 5b8a 0080 d888 0000 369a 0000
00000100: 56a7 0080 4fa6 0080 f389 0080 5bf6 0d0f
00000110: 6950 0000 7dc2 ca93 ca13 149b 6d9f 2e80
00000120: 7bac 0000 f2a4 0080 5b8a 0000 e7aa 0080
00000130: 54ad 0080 6294 0000 8489 0080 9589 0080
00000140: 228a 0080 32a4 0080 32a4 0080 c6a3 0080
00000150: ea74 2ba7 e1e5 66ab 3054 1ca8 23a9 0000
00000160: ac8d 0000 8f90 0000 cb88 0080 b690 0080
00000170: 70a0 0000 6aa4 0080 4e9d 0000 de88 0000
00000180: 9f9a 0080 d389 0080 d389 0000 e388 0000
00000190: d489 0000 d889 0000 f29e 0000 21a3 0000
000001a0: 3e96 0000 bd89 0000 aa89 0000 1189 0000
000001b0: 9189 0000 a189 0000 e289 0000 d99b 0080
000001c0: 2b8e 0000 b6a9 0000 1d89 0000 4f89 0000
000001d0: 4489 0000 5d89 0000 bb89 0000 ca88 0000
000001e0: e790 0080 999d 0000 90a0 0000 fbac 0000
000001f0: 54a4 0080 bc96 0080 be88 0000 c588 0000
00000200: f688 0000 209f 0080 739f 0000 7394 0080
00000210: 9589 0000 2789 0000 6989 0000 d08a 0000
00000220: 64a9 0080 148c 0000 858f 0080 508c 0080
00000230: c58a 0080 97a5 0080 c6a0 0080 cb8d 0080
00000240: 3789 0000 3d89 0000 078a 0000 392d 8db8
00000250: 9c8b 43b8 5b61 51b8 148b 0000 72a5 0080
00000260: 6ca9 0000 709f 81b7 7eae 84b7 5420 18b8
00000270: b7d6 31b8 53a2 50b8 3852 cfb8 86ab 0080
00000280: f691 0080 6894 0000 df2e a4b8 2099 5bb8
00000290: 1982 0cb9 e678 ccb8 c951 d5b8 3e2d 0bb9
000002a0: a889 0080 a68a 0000 448a 0080 9d96 0080
000002b0: c08c 0000 748b 0080 ee1c c8b8 1536 87b8
000002c0: f3e1 a3b8 f7ac 0080 1ba6 0000 d49d 0080
000002d0: 8e85 b9b8 2450 a7b8 a1a3 03b9 bc9c 0000
000002e0: bc9c 0000 f895 0000 eca4 0080 7d96 0000
000002f0: df8e 0080 b689 0000 b08b 0080 d28b 0000
00000300: 7b8b 0000 3a89 0000 6e8c 0000 1f2b 07ba
00000310: 5faa 31ba 2c3b 1fba 2e9c 0080 df9f 0000
00000320: e188 0000 d247 77b8 2d13 bcb8 398b d6af
00000330: cdf3 04ba 0204 46ba aa5b 11ba 21a1 0080
00000340: 278d 0000 589a 0080 1ddf 91b9 630b 5eba
00000350: 52a7 0bba 4ad8 9fba 9d65 a4ba ca2d 27ba
00000360: 6e8f 0000 d78a 0080 7b9f 0080 c398 0080
00000370: 3889 0080 9c9c 0080 5056 deb8 2aee d2b8
00000380: 7ccf b8b8 439c 0080 4ba0 0000 fa90 0080
00000390: 1dd7 05bb 1490 15bb 6ef1 0fbb 448a 0080
000003a0: 689e 0080 2b93 0080 6c8e 0080 6aa1 0000
000003b0: e6a3 0000 81a5 0080 cc8f 0000 9f9e 0000
000003c0: 7fa3 0000 82ae 0080 058b 0080 5d96 a23e
000003d0: adb3 933e ea34 52bd 0c89 0080 128a 0000
000003e0: 248a 0080 3163 ee3d d0ad 14bb 7e91 033c
000003f0: 1e76 223e b376 52bc 98d8 d73b c981 81a0

raycast_branch.3.bias f4 [32]
-3.2659722e-07 -1.0252913e-06 -2.4127098e-16 -0.000118737255 -0.0032670477 -0.38009548 -0.22340554 -2.685079e-27
-0.42089128 -1.369779e-09 -0.07284073 -7.165357e-29 -4.4313663e-05 -5.91895e-26 -0.00043742155 -3.067937e-16
-7.536401e-05 -0.26050544 0.008033031 -0.0020151613 -0.43456173 -1.5334857e-07 -3.653698e-17 -0.00035967355
-0.0033975255 -0.0032947406 -1.8446933e-30 -2.4360588e-07 0.033157617 -4.9106e-41 4.9195e-41 -0.00023830004
00000000: 2e57 afb4 be9c 89b5 5015 8ba5 9402 f9b8
00000010: f71b 56bb e09b c2be 6cc4 64be dfbb 5493
00000020: 107f d7be d042 bcb0 852d 95bd d3a9 b590
00000030: 6fdd 39b8 cd8b 9295 ba55 e5b9 c2da b0a5
00000040: bf0c 9eb8 f860 85be f99c 033c cc10 04bb
00000050: e07e debe 22a8 24b4 417f 28a4 9192 bcb9
00000060: 05a9 5ebb 93ec 57bb c8a8 158e f0c8 82b4
00000070: 48d0 073d e388 0080 2389 0000 2ee0 79b9

common_layers.0.weight f4 [64, 288]
-5.0007e-41 -4.9272e-41 -4.9338e-41 4.9144e-41 6.2127e-41 -4.9593e-41 -4.9844e-41 4.9736e-41
-4.9686e-41 -5.7889e-41 -5.2577e-41 6.0246e-41 -5.0213e-41 6.1415e-41 -4.9054e-41 4.9462e-41
-6.0616e-41 -5.2273e-41 4.9135e-41 -4.9394e-41 5.5877e-41 -4.9253e-41 -4.9488e-41 -6.288e-41
4.9413e-41 -5.6003e-41 -4.941e-41 -1.4322755e-13 8.436809e-14 1.0981655e-08 -1.743143e-14 -2.8387718e-14
-2.1841341e-13 -3.6665067e-13 -9.623735e-14 -2.995252e-14 5.0531e-41 5.0445e-41 5.1203e-41 4.9086e-41
5.5644e-41 4.952e-41 -5.073e-41 4.929e-41 -5.1865e-41 -5.1464e-41 0.0010877637 -0.002588636
0.0025072512 0.0021936144 0.01587272 -0.00021059872 -0.0020090686 -0.0036220485 0.0017028197 -0.0024352616
-0.007789796 -0.005722707 -0.0015355087 0.009961177 0.006181637 0.008499257 -0.0022015201 5.8538e-41
-5.5811e-41 -5.6601e-41 5.1429e-41 -5.7188e-41 5.049e-41 5.8109e-41 5.8801e-41 -5.7537e-41
-0.0074273567 0.00029174995 0.010927854 0.012188176 0.022476457 0.0015803756 -0.0024740847 -0.004718718
-0.0025610046 -5.3702e-41 5.4632e-41 -5.6296e-41 -5.2233e-41 -5.0971e-41 5.1331e-41 -5.3511e-41
-5.92e-41 -6.168e-41 6.424214e-05 0.0022348897 0.013377328 0.006447502 -0.0021747802 0.010465263
-0.003680212 -0.0047774445 -0.0023393403 5.4096e-41 -6.1223e-41 -5.7106e-41 5.4659e-41 5.1041e-41
5.8487e-41 6.2282e-41 5.5256e-41 -5.7726e-41 5.5327e-41 -5.3752e-41 -4.9986e-41 -4.9848e-41
5.1166e-41 5.1233e-41 -4.932e-41 4.9378e-41 5.8574e-41 -6.0333e-41 -5.7134e-41 -5.4658e-41
-5.8723e-41 5.8873e-41 5.8207e-41 -5.1545e-41 5.1463e-41 5.9842e-41 5.4558e-41 5.0298e-41
5.9024e-41 6.1185e-41 -5.7003e-41 5.8612e-41 -5.942e-41 5.0677e-41 6.021e-41 -6.1895e-41
5.6052e-41 6.2429e-41 5.7194e-41 -5.8291e-41 5.8263e-41 5.2193e-41 6.0308e-41 -6.3058e-41
7.3628984e-18 8.57551e-18 -3.3034537e-18 5.3773066e-17 1.2453467e-16 1.19525365e-17 7.356611e-18 8.659422e-18
6.0931878e-18 -0.006334961 -0.0003243078 0.006109516 0.009276901 0.020909535 -0.008881017 -0.0069242036
-0.001655097 0.0013751497 0.00023455052 -0.0009620241 0.0018076337 -0.00027848076 -0.0064542135 -0.00024453137
0.002540197 -0.005564907 2.5341586e-05 -3.0085207e-17 -3.457113e-13 -1.5329533e-15 -3.7157334e-18 -1.6748981e-23
-4.7589415e-26 -9.048462e-23 -5.5569597e-18 -6.2130527e-24 0.0033472439 0.0022476367 0.007951233 -0.0046449085
-0.0045447345 -0.0037905471 0.00059163186 -0.0044179675 -0.00064938306 -5.437e-41 5.3081e-41 -6.106e-41
5.6814e-41 6.2345e-41 -6.1804e-41 -5.4293e-41 -5.7135e-41 6.2003e-41 -6.1974e-41 5.2835e-41
5.0992e-41 5.0431e-41 -5.3377e-41 -5.2428e-41 5.3132e-41 5.5025e-41 -5.2856e-41 -6.1134e-41
4.9246e-41 -5.3712e-41 -5.4045e-41 -5.1495e-41 -5.0248e-41 5.3416e-41 5.3189e-41 -5.3942e-41
-5.7687e-41 5.5788e-41 5.7323e-41 -5.9917e-41 -5.1402e-41 -5.9781e-41 6.1659e-41 -5.7123e-41
5.3684e-41 5.8174e-41 4.9913e-41 -5.153e-41 5.051e-41 -5.2079e-41 -5.2266e-41 5.0576e-41
5.2123e-41 -5.5592e-41 5.8838e-41 -5.5714e-41 -6.0615e-41 4.967e-41 -5.8661e-41 -5.0985e-41
-5.499e-41 -5.9478e-41 5.4115e-41 -5.9519e-41 -5.2095e-41 -5.4282e-41 -5.3836e-41 -5.3877e-41
5.8326e-41 5.0091e-41 -4.9762e-41 5.7195e-41 -0.0006291285 -0.00411998 -0.0011835212 -0.007836018
00000000: 668b 0080 5a89 0080 8989 0080 fe88 0000
00000010: 2fad 0000 3f8a 0080 f28a 0080 a58a 0000
00000020: 818a 0080 5fa1 0080 9092 0080 f1a7 0000
00000030: f98b 0080 33ab 0000 be88 0080 e189 0000
00000040: f9a8 0080 b791 0080 f888 0000 b189 0080
00000050: c39b 0000 4c89 0080 f489 0080 49af 0080
00000060: be89 0000 1d9c 0080 bc89 0080 8842 21aa
00000070: e5fa bd29 d4a9 3c32 2402 9da8 9fb1 ffa8
00000080: 61e9 75aa ee67 ceaa 0eb5 d8a9 e8e4 06a9
00000090: dc8c 0000 9f8c 0000 bc8e 0000 d588 0000
000000a0: 1d9b 0000 0b8a 0000 6a8d 0080 6789 0000
000000b0: 9490 0080 768f 0080 4b93 8e3a 1ba6 29bb
000000c0: b250 243b bec2 0f3b 8207 823c 2ad4 5cb9
000000d0: 94aa 03bb e45f 6dbb 2631 df3a e998 1fbb
000000e0: 8c41 ffbb 8c85 bbbb 1f43 c9ba 3434 233c
000000f0: 548f ca3b 7840 0b3c 6147 10bb 2ea3 0000
00000100: 949b 0080 c89d 0080 5d8f 0000 6b9f 0080
00000110: bf8c 0000 fca1 0000 eaa3 0000 64a0 0080
00000120: 2f61 f3bb 04f6 9839 be0a 333c eab0 473c
00000130: 8c20 b83c 9b24 cf3a 4124 22bb 7a9f 9abb
00000140: 87d6 27bb b395 0080 4b98 0000 ee9c 0080
00000150: 9b91 0080 168e 0080 178f 0000 2b95 0080
00000160: 07a5 0080 f0ab 0080 bcb9 8638 3a77 123b
00000170: 952c 5b3c 9145 d33b c286 0ebb 7f76 2b3c
00000180: b62f 71bb 1c8c 9cbb 9e4f 19bb cc96 0000
00000190: aaaa 0080 309f 0080 5e98 0000 488e 0000
000001a0: 0aa3 0000 9ead 0000 089a 0000 eba0 0080
000001b0: 3b9a 0000 d795 0080 578b 0080 f58a 0080
000001c0: a18e 0000 d18e 0000 7c89 0080 a589 0000
000001d0: 48a3 0000 2fa8 0080 449f 0080 5d98 0080
000001e0: b2a3 0080 1da4 0000 42a2 0000 b08f 0080
000001f0: 758f 0000 d1a6 0000 1698 0000 368c 0000
00000200: 89a4 0000 8faa 0000 e79e 0080 63a3 0000
00000210: a4a5 0080 448d 0000 d7a7 0000 8aac 0080
00000220: 409c 0000 07ae 0000 6f9f 0000 7ea2 0080
00000230: 6aa2 0000 7e91 0000 1da8 0000 c8af 0080
00000240: 4ed2 0723 b330 1e23 7ac0 73a2 08fc 7724
00000250: 2694 0f25 427c 5c23 9db4 0723 f7bc 1f23
00000260: 88cc e022 8195 cfbb db07 aab9 5632 c83b
00000270: 25fe 173c 794a ab3c af81 11bc 6ee4 e2bb
00000280: d7ef d8ba 5e3e b43a adf1 7539 5830 7cba
00000290: 1fee ec3a 0e01 92b9 de7d d3bb 7234 80b9
000002a0: 6f79 263b d359 b6bb a494 d437 58be 0aa4
000002b0: 409e c2aa ffeb dca6 1c16 89a2 78fc a199
000002c0: c0a6 6b95 44c7 da9a 0004 cda2 185b f098
000002d0: 6f5d 5b3b 164d 133b e345 023c 5134 98bb
000002e0: ffeb 94bb d46a 78bb be17 1b3a 99c4 90bb
000002f0: 5c3b 2aba 9097 0080 f893 0000 36aa 0080
00000300: 609e 0000 cbad 0000 49ac 0080 5997 0080
00000310: 459f 0080 d7ac 0000 c2ac 0080 4893 0000
00000320: 258e 0000 958c 0000 cb94 0080 2692 0080
00000330: 1c94 0000 6399 0000 5793 0080 6baa 0080
00000340: 4789 0000 ba95 0080 a896 0080 8c8f 0080
00000350: 128c 0080 e794 0000 4594 0000 5e96 0080
00000360: cfa0 0080 849b 0000 cb9f 0000 06a7 0080
00000370: 4a8f 0080 a5a6 0080 e1ab 0000 3c9f 0080
00000380: a695 0000 2aa2 0000 238b 0000 a58f 0080
00000390: cd8c 0000 2d91 0080 b291 0080 fc8c 0000
000003a0: 4c91 0000 f89a 0080 04a4 0000 4f9b 0080
000003b0: f8a8 0080 768a 0000 86a3 0080 208e 0080
000003c0: 4a99 0080 cda5 0080 da96 0000 eaa5 0080
000003d0: 3891 0080 5197 0080 1396 0080 3096 0080
000003e0: 97a2 0000 a28b 0000 b78a 0080 709f 0000
000003f0: 19ec 24ba e600 87bb 6220 9bba a462 00bc

common_layers.0.bias f4 [64]
-0.012992211 -0.025074776 -0.0033262242 0.0026555387 -0.14578964 0.034274716 0.0039637554 -0.008198047
-5.7345465e-11 -0.057010084 0.017773693 0.19506525 0.2403451 -0.108543314 0.24721263 -0.25840917
0.07086403 -0.0712956 -9.258393e-09 0.027187651 -0.068140686 -0.02781922 -0.00881818 -0.007133865
-0.10039321 -0.059798304 0.25622228 0.14367767 0.16201124 -0.11492888 0.11680737 0.0114216115
-5.270708e-18 -0.16181225 0.018814836 0.075183354 0.027982393 -0.06666558 -0.013898379 -6.655086e-05
-0.23999418 0.041550074 -0.07109172 -0.27303755 -0.0032689762 -0.08322829 0.04252835 0.00032955327
0.06620899 -0.016370513 -0.006007738 0.0028741616 0.09454511 -0.005216327 -0.0006469733 -0.08271077
0.20223786 -0.017363187 0.010670143 -0.052459706 -0.00025136667 0.004605336 -0.0761902 -0.015223047
00000000: 48dd 54bc 9e69 cdbc c8fc 59bb 8c08 2e3b
00000010: e149 15be a563 0c3d 64e2 813b 1a51 06bc
00000020: 4135 7cae 6883 69bd 239a 913c 2fbf 473e
00000030: 071d 763e f54b debd 4f25 7d3e 354e 84be
00000040: 2921 913d 6d03 92bd d80e 1fb2 a3b8 de3c
00000050: 588d 8bbd 22e5 e3bc 217a 10bc 32c3 e9bb
00000060: f59a cdbd 11ef 74bd 912f 833e 3d20 133e
00000070: 46e6 253e d55f ebbd b438 ef3d b621 3b3c
00000080: 6e74 c2a2 1cb2 25be 9221 9a3c bbf9 993d
00000090: 553b e53c f787 88bd 07b6 63bc 3991 8bb8
000000a0: 09c1 75be 6930 2a3d 8998 91bd 94cb 8bbe
000000b0: 523c 56bb 9873 aabd 3532 2e3d e4c7 ac39
000000c0: 9498 873d 741b 86bc 8fdc c4bb 6e5c 3c3b
000000d0: dea0 c13d b9ed aabb a599 29ba 4464 a9bd
000000e0: 7117 4f3e 3e3d 8ebc d3d1 2e3c fddf 56bd
000000f0: ddc9 83b9 5ce8 963b 9c09 9cbd 166a 79bc

common_layers.3.weight f4 [32, 64]
-0.00016242999 -0.00866406 0.015361094 -0.18675211 -0.030550465 -0.017313799 0.00047315104 -0.004282554
4.9235e-41 0.038454186 -0.13222538 -0.19962667 -0.24260221 -0.013205219 -0.2174089 -0.08340627
-0.17956135 -0.0017253837 -2.9945847e-17 -0.016182018 -0.015727246 -0.05970645 -0.006790622 -0.027264751
0.01148895 0.0037000296 -0.24116108 -0.25545537 -0.20854811 0.022991313 -0.22546344 -0.19707601
-4.9085e-41 0.010838008 0.0025307015 -0.19066323 -0.013554341 -0.024297304 -0.07378403 5.9520596e-07
-0.22667415 -0.24879856 0.006688659 0.023658985 -0.028967867 -0.0063142157 -0.08964035 0.026096579
0.017091544 -0.03144213 -0.018294327 -0.025264267 0.055811368 -0.0041099982 -0.081063114 -0.16290079
-0.22374174 0.016218396 -0.21239534 -0.0022219126 0.0011099672 -0.00649726 -0.02793631 0.06415423
0.0054096966 -0.009602618 0.004159727 -0.17955227 -0.0029191936 -0.018851612 -0.013664979 -0.00023519302
-4.9425e-41 0.058011737 -0.12337045 -0.21360406 -0.24908708 -0.020418577 -0.22117446 -0.08835077
-0.18322875 -0.014298522 -1.0946896e-15 -0.0026449892 -0.00015462439 -0.057731044 -0.03285743 -0.006034074
-0.007226688 -0.014028187 -0.23554437 -0.26600975 -0.20009239 0.0083775865 -0.23291141 -0.20672454
-4.906e-41 0.011234823 -0.011298489 -0.19128656 0.023872323 -0.016485995 -0.065481484 -1.2770253e-07
-0.20923509 -0.24564016 0.029405082 0.06770245 -0.043588746 0.020171756 -0.05639602 0.043338228
0.010148873 -0.024556445 -0.021674959 -0.023209505 0.057835042 -0.015650503 -0.037723124 -0.15824583
-0.2224636 -0.00772779 -0.21920466 0.013137047 0.0044869944 -0.0017708888 -0.0078075617 0.07728374
0.00026371362 0.10412925 -0.018459102 0.0072754994 -0.08031646 -0.04828313 -0.070057474 -0.10906439
4.9464e-41 0.030415732 0.020804448 -0.00632108 -0.0025308556 0.24420743 0.0013094883 0.06603853
-0.043911777 0.14091302 4.9257e-41 -0.012148174 -0.057446506 0.059876453 0.26579794 -0.07037407
0.18963686 0.15964288 0.00029334394 0.013832365 -0.0066175642 -0.024318932 -0.032425545 -0.03246637
-4.9378e-41 -0.032258097 -0.041755576 0.009662602 0.0100962315 -0.036228728 -0.06403715 5.1262383e-08
-0.010030052 0.012704961 -0.11881065 -0.0279627 0.053861167 -0.03456186 0.016284423 0.057016045
-0.07280815 0.26072115 0.11851304 -0.008309761 -0.05094946 -0.0060706544 -0.008824075 0.054062765
-0.004290325 0.0673754 0.015608498 -0.08110621 -5.605942e-05 -0.026053622 -0.075532496 0.020217827
-0.0033042463 0.10505172 -0.026181955 0.0052819494 -0.0722225 -0.015679684 -0.06867622 -0.10907103
4.9309e-41 0.00810551 0.0067463834 -0.0031728577 -0.0084317345 0.23031087 -0.008238975 0.059354708
-0.048269182 0.14156643 -4.9069e-41 -0.02138549 -0.06037261 0.050098892 0.27915153 -0.07622824
0.18130451 0.1587582 -0.006839541 -0.0037651907 -0.011778394 -0.02287496 -0.020856054 -0.022937188
4.9336e-41 -0.025058944 -0.0343441 0.014470802 0.0016732141 -0.038955066 -0.05590209 5.5938067e-08
-0.0046921875 -0.018238034 -0.12823136 -0.041415308 0.04870255 -0.04223071 0.006654954 0.055260144
-0.06741984 0.24827473 0.11269513 0.0069855414 -0.06370161 -0.02491317 -0.018238503 0.046128247
-0.014577435 0.06385029 0.010774682 -0.09256094 0.0035137602 -0.026590588 -0.07789028 0.015118998
00000000: f851 2ab9 b4f3 0dbc 19ad 7b3c f23b 3fbe
00000010: f844 fabc abd5 8dbc 4211 f839 ab54 8cbb
00000020: 3f89 0000 2382 1d3d 1766 07be ef6a 4cbe
00000030: b76c 78be b45a 58bc 70a0 5ebe e8d0 aabd
00000040: eede 37be 4526 e2ba d119 0aa4 2790 84bc
00000050: 6dd6 80bc c08e 74bd de83 debb 545a dfbc
00000060: 263c 3c3c 327c 723b eef2 76be 0ccb 82be
00000070: a38d 55be 4758 bc3c e3df 66be 4bce 49be
00000080: d488 0080 e691 313c 20da 253b 393d 43be
00000090: 0713 5ebc 240b c7bc 151c 97bd 3ec6 1f35
000000a0: 451d 68be 0dc5 7ebe 8a2c db3b 7dd0 c13c
000000b0: 054e edbc 7be7 cebb 5c95 b7bd 7ec8 d53c
000000c0: 9103 8c3c 77c9 00bd fcdd 95bc 02f7 cebc
000000d0: 769a 643d 2aad 86bb 6b04 a6bd 77cf 26be
000000e0: 8e1c 65be 71dc 843c 2a7e 59be 829d 11bb
000000f0: 527c 913a f8e6 d4bb b0da e4bc 4b63 833d
00000100: d343 b13b 4d54 1dbc 524e 883b 8ddc 37be
00000110: f14f 3fbb b26e 9abc 13e3 5fbc 259e 76b9
00000120: c789 0080 b79d 6d3d a6a9 fcbd 06bb 5abe
00000130: af10 7fbe dc44 a7bc 8f7b 62be 40f1 b4bd
00000140: 51a0 3bbe 5944 6abc ebc2 9da6 8e57 2dbb
00000150: ab22 22b9 6377 6cbd 8395 06bd 7bb9 c5bb
00000160: dacd ecbb 7bd6 65bc 8b32 71be 6e32 88be
00000170: 05e5 4cbe 2542 093c 5480 6ebe 99af 53be
00000180: c288 0080 4312 383c 4c1d 39bc a0e0 43be
00000190: e48f c33c a30d 87bc 281b 86bd 9b1e 09b4
000001a0: b941 56be 1889 7bbe ede2 f03c 95a7 8a3d
000001b0: 1d8a 32bd 3d3f a53c 83ff 66bd 6d83 313d
000001c0: 7547 263c 992a c9bc af8f b1bc dc21 bebc
000001d0: 70e4 6c3d 7c35 80bc 9083 1abd 320b 22be
000001e0: 7fcd 63be 6739 fdbb 3077 60be c53c 573c
000001f0: a307 933b 2b1d e8ba 93d6 ffbb f046 9e3d
00000200: 0b43 8a39 b741 d53d 8b37 97bc 5067 ee3b
00000210: f57c a4bd 88c4 45bd 4b7a 8fbd 275d dfbd
00000220: e389 0000 6a2a f93c 176e aa3c 1021 cfbb
00000230: b6dc 25bb 8311 7a3e 23a3 ab3a 353f 873d
00000240: d6dc 33bd 814b 103e 4f89 0000 2309 47bc
00000250: 074d 6bbd 0341 753d ab16 883e 4820 90bd
00000260: 2a30 423e 6c79 233e f5cb 9939 25a1 623c
00000270: 27d8 d8bb 7f38 c7bc a6d0 04bd 75fb 04bd
00000280: a589 0080 1121 04bd e507 2bbd e44f 1e3c
00000290: aa6a 253c 9364 14bd e925 83bd 962b 5c33
000002a0: 1655 24bc 7828 503c 0053 f3bd 0812 e5bc
000002b0: 879d 5c3d bd90 0dbd e966 853c a889 693d
000002c0: 701c 95bd 3e7d 853e f7b6 f23d aa25 08bc
000002d0: 62b0 50bd 57ec c6bb da92 10bc eb70 5d3d
000002e0: db95 8cbb 1dfc 893d c9ba 7f3c 031b a6bd
000002f0: 5821 6bb8 686e d5bc c8b0 9abd db9f a53c
00000300: 0e8c 58bb 5b25 d73d 8a7b d6bc 3414 ad3b
00000310: 64e9 93bd ae72 80bc 1ea6 8cbd a260 dfbd
00000320: 7489 0000 f9cc 043c c410 dd3b b8ef 4fbb
00000330: 4225 0abc 9dd6 6b3e c4fc 06bc ec1d 733d
00000340: e8b5 45bd caf6 103e c988 0080 a030 afbc
00000350: 4549 77bd 7f34 4d3d f3ec 8e3e 8d1d 9cbd
00000360: e4a7 393e 8291 223e 3a1e e0bb 6bc1 76bb
00000370: 2afa 40bc 4564 bbbc 51da aabc c5e6 bbbc
00000380: 8789 0000 6a48 cdbc 66ac 0cbd f116 6d3c
00000390: c04f db3a 598f 1fbd 97f9 64bd 8e40 7033
000003a0: ecc0 99bb ee67 95bc 154f 03be 19a3 29bd
000003b0: 537c 473d 1cfa 2cbd cd11 da3b 7658 623d
000003c0: 6a13 8abd bb3b 7e3e b4cc e63d f8e6 e43b
000003d0: fd75 82bd b416 ccbc ea68 95bc f9f0 3c3d
000003e0: 32d6 6ebc f1c3 823d 4b88 303c 9790 bdbd
000003f0: 1d47 663b 81d4 d9bc f084 9fbd acb5 773c

common_layers.3.bias f4 [32]
0.050787766 0.048021063 0.016509542 0.015687082 0.016417997 0.04682209 0.046961475 0.057870135
0.049924295 0.026815223 0.053646702 0.04980909 0.050496243 0.023939192 0.047720406 0.04993473
0.053995747 0.043103106 0.04662156 0.046798673 0.018033752 0.04873403 0.053869393 0.05221277
0.022708151 0.056864094 0.022672957 0.044722702 0.025960315 0.050649747 0.02467701 0.050921783
00000000: d506 503d bcb1 443d 053f 873c 3282 803c
00000010: 097f 863c 85c8 3f3d ad5a 403d 3c09 6d3d
00000020: 6b7d 4c3d 99ab db3c a5bc 5b3d 9e04 4c3d
00000030: 26d5 4e3d 201c c43c 7976 433d 5c88 4c3d
00000040: a52a 5d3d e28c 303d 40f6 3e3d f7af 3f3d
00000050: 85bb 933c 569d 473d 27a6 5c3d 0fdd 553d
00000060: 7206 ba3c 53ea 683d a3bc b93c 272f 373d
00000070: baaa d43c 1c76 4f3d 7127 ca3c 5c93 503d

common_layers.6.weight f4 [2, 32]
-0.041738626 0.037692606 -0.59199303 -0.5847112 -0.59131724 0.37951055 -0.24128142 -0.027554795
0.073346615 0.55900425 -0.11638531 0.36103675 0.1372216 0.53692186 0.03705671 -0.51936984
0.25844076 -0.015055635 -0.3053279 -0.27376315 -0.60352004 -0.050826594 -0.09168657 0.3538502
0.52434456 -0.11677484 0.55269134 0.34839746 0.5711018 -0.40111238 0.52455693 0.022346135
-0.79654837 -0.7869645 3.22915e-05 -0.0007803677 -2.3652794e-05 -0.7622383 -0.79328585 -1.0512241
-0.7987051 -0.00010470404 -0.79763144 -0.7943634 -0.90085274 -0.0007099066 -0.7967881 -0.64713293
-0.8050364 -0.84269464 -0.7409569 -0.74858165 0.00024732697 -0.8030517 -0.90582734 -0.82299966
-0.0010527143 -1.000828 5.903987e-05 -0.78163457 0.00043349498 -0.72532934 -6.6167368e-06 -0.96080476
00000000: 1ff6 2abd 9063 1a3d db8c 17bf a2af 15bf
00000010: 9160 17bf 354f c23e 7a12 77be 98ba e1bc
00000020: c036 963d e71a 0f3f 6c5b eebd cfd9 b83e
00000030: d283 0c3e b673 093f c7c8 173d 6cf5 04bf
00000040: 5952 843e e9ab 76bc f053 9cbe af2a 8cbe
00000050: 4a80 1abf 8c2f 50bd 2bc6 bbbd da2b b53e
00000060: 723b 063f a627 efbd 2e7d 0d3f 2761 b23e
00000070: ba33 123f 9a5e cdbe 5d49 063f 3e0f b73c
00000080: 98ea 4bbf 8176 49bf bc70 0738 9791 4cba
00000090: fd69 c6b7 0d22 43bf c814 4bbf 838e 86bf
000000a0: f077 4cbf 8e94 dbb8 9331 4cbf 665b 4bbf
000000b0: 499e 66bf 0719 3aba 4efa 4bbf 81aa 25bf
000000c0: de16 4ebf d6ba 57bf 5aaf 3dbf 0ca3 3fbf
000000d0: aaab 8139 cc94 4dbf 4de4 67bf 1bb0 52bf
000000e0: 3bfb 89ba 221b 80bf 94a1 7738 3419 48bf
000000f0: b646 e339 2faf 39bf 5605 deb6 4df7 75bf

common_layers.6.bias f4 [2]
-0.04451697 0.9999204
00000000: 6d57 36bd c9fa 7f3f

exp_avg f4 [16, 1, 3]
-0.0 -0.0 0.0 0.021865277 0.024799857 0.0048625004 -0.0 0.0
-0.0 0.007880006 0.0067699803 0.007655392 0.0041599507 0.011914067 0.014475271 -7.470856e-08
-6.6843675e-08 -6.7940114e-08 -0.0061916704 -0.01571619 -0.008841351 -0.0070645814 -0.015616254 -0.020866008
-0.0 -0.0 -0.0 -0.0 -0.0 -0.0 0.014844538 0.013892401
0.009680006 -0.0 -0.0 0.0 -0.013271796 -0.00084128225 0.023475815 0.0
0.0 0.0 0.0 0.0 0.0 0.0 0.0 0.0
00000000: 0000 0080 0000 0080 0000 0000 cf1e b33c
00000010: 1229 cb3c 9c55 9f3b 0000 0080 0000 0000
00000020: 0000 0080 241b 013c b6d6 dd3b 15da fa3b
00000030: 3250 883b 3833 433c b029 6d3c 776f a0b3
00000040: b38b 8fb3 79e6 91b3 7fe3 cabb 3dbf 80bc
00000050: 50db 10bc 017e e7bb 51db 7fbc 31ef aabc
00000060: 0000 0080 0000 0080 0000 0080 0000 0080
00000070: 0000 0080 0000 0080 8136 733c f49c 633c
00000080: e398 1e3c 0000 0080 0000 0080 0000 0000
00000090: f271 59bc 7f89 5cba 5a50 c03c 0000 0000
000000a0: 0000 0000 0000 0000 0000 0000 0000 0000
000000b0: 0000 0000 0000 0000 0000 0000 0000 0000

exp_avg_sq f4 [16, 1, 3]
7e-43 7e-43 7e-43 0.008092956 0.008134635 0.009712954 7e-43 7e-43
7e-43 0.0022241152 0.0024636362 0.0026702222 0.022597637 0.022892615 0.026112998 1.3577857e-10
1.2913128e-10 1.243288e-10 0.02321945 0.015898868 0.022839308 0.031376153 0.021152204 0.026194766
7e-43 7e-43 7e-43 7e-43 7e-43 7e-43 0.0027704074 0.0020605722
0.0021215337 7e-43 7e-43 7e-43 0.023696974 0.009983031 0.020776259 5.388e-42
5.887e-42 6.6e-42 7e-43 7e-43 7e-43 7e-43 7e-43 7e-43
00000000: f401 0000 f401 0000 f401 0000 5198 043c
00000010: 2247 053c 1523 1f3c f401 0000 f401 0000
00000020: f401 0000 76c2 113b f574 213b e5fe 2e3b
00000030: ae1e b93c 4b89 bb3c edea d53c 454a 152f
00000040: 39fb 0d2f 72b3 082f b736 be3c 583e 823c
00000050: 8019 bb3c 4884 003d 6347 ad3c 6896 d63c
00000060: f401 0000 f401 0000 f401 0000 f401 0000
00000070: f401 0000 f401 0000 b98f 353b aa0a 073b
00000080: 6e09 0b3b f401 0000 f401 0000 f401 0000
00000090: 2820 c23c de8f 233c f932 aa3c 050f 0000
000000a0: 6910 0000 6612 0000 f401 0000 f401 0000
000000b0: f401 0000 f401 0000 f401 0000 f401 0000

exp_avg f4 [16]
-0.0 0.02757615 -0.0 0.010596151 0.003869491 -1.4193952e-07 -0.01086678 -0.013954005
-0.0 -0.0 0.021105718 -0.0 0.0036770562 0.0 -0.0 0.0
00000000: 0000 0080 61e7 e13c 0000 0080 7b9b 2d3c
00000010: 4997 7d3b 0a68 18b4 940a 32bc 579f 64bc
00000020: 0000 0080 0000 0080 e6e5 ac3c 0000 0080
00000030: c4fa 703b 0000 0000 0000 0080 0000 0000

exp_avg_sq f4 [16]
7e-43 0.020268423 7e-43 0.0054440754 0.06418834 3.1375905e-10 0.050435714 0.06657929
7e-43 7e-43 0.005486579 7e-43 0.034587383 1.4474e-41 7e-43 7e-43
00000000: f401 0000 f709 a63c f401 0000 3764 b23b
00000010: 2d75 833d a97d ac2f ae95 4e3d b95a 883d
00000020: f401 0000 f401 0000 c3c8 b33b f401 0000
00000030: 80ab 0d3d 5928 0000 f401 0000 f401 0000

exp_avg f4 [32, 16, 3]
0.0 -0.0 -0.0 0.0 -4e-44 0.0 0.0 -0.0
-0.0 0.0 0.0 -0.0 0.0 0.0 0.0 -0.0
-0.0 0.0 0.0 -1.1841933e-35 -1.5e-44 -6.593508e-30 -3.4627405e-29 -7.4e-44
0.0 -0.0 -0.0 0.0 0.0 0.0 0.0 0.0
0.0 0.0 0.0 0.0 -3.8852173e-20 -4.4092528e-18 -3.008848e-20 0.0
-0.0 0.0 -0.0 -0.0 -0.0 -0.0 -0.0 0.0
-0.0 0.0 0.0 -0.0 -3e-45 0.0 0.0 0.0
-0.0 -0.0 -0.0 0.0 0.0 -0.0 0.0 0.0
-0.0 -0.0 -0.0 -1.2889661e-34 -3e-45 -1.0511911e-30 -1.8973804e-26 -3.6e-42
0.0 -0.0 0.0 -0.0 -0.0 0.0 -0.0 -0.0
-0.0 -0.0 -0.0 -0.0 -2.9777484e-19 -9.713188e-17 -1.0718207e-18 0.0
0.0 0.0 -0.0 -0.0 0.0 -0.0 0.0 0.0
-0.0 -0.0 0.0 0.0 0.0 0.0 0.0 0.0
0.0 0.0 0.0 0.0 0.0 0.0 0.0 -0.0
0.0 0.0 0.0 0.0 0.0 0.0 0.0 0.0
-0.0 0.0 0.0 0.0 -0.0 -0.0 0.0 0.0
0.0 -0.0 0.0 -0.0 0.0 0.0 0.0 0.0
-0.0 0.0 -0.0 -0.0 -0.0 -0.0 -0.0 -0.0
0.0 0.0 0.0 2.634843e-09 2.1568216e-09 2.0313942e-09 0.0 -0.0
0.0 3.0118422e-10 2.903334e-10 6.545504e-11 1.6002172e-09 2.242275e-09 3.6775472e-09 -0.0
-0.0 0.0 2.2578939e-09 2.660153e-09 5.33253e-09 6.1894623e-09 6.513689e-09 5.7180163e-09
-0.0 0.0 -0.0 -0.0 0.0 -0.0 2.0985573e-09 1.4759587e-09
1.7785836e-09 -0.0 0.0 -0.0 1.0155447e-08 1.0612006e-08 1.4225924e-08 0.0
0.0 0.0 -0.0 0.0 -0.0 0.0 -0.0 0.0
0.0 0.0 0.0 -5.2476086e-08 -6.878411e-08 -6.173372e-08 -0.0 0.0
0.0 -6.1171646e-09 -9.26064e-09 -4.5377056e-14 -5.1652925e-08 -7.667204e-08 -5.6428775e-08 -0.0
0.0 -0.0 -2.8481468e-08 -8.583008e-08 -5.4202165e-08 -1.2326522e-07 -1.2667549e-07 -6.4765935e-08
0.0 -0.0 -0.0 -0.0 -0.0 -0.0 -1.0934653e-08 -1.0366961e-08
-9.090475e-09 -0.0 0.0 -0.0 -2.05443e-07 -2.2933872e-07 -2.208935e-07 -0.0
-0.0 -0.0 -0.0 0.0 0.0 -0.0 0.0 0.0
0.0 -0.0 -0.0 0.0014488775 0.0012001967 0.0005373045 -0.0 0.0
-0.0 0.00048140978 -1.3548065e-05 3.667845e-05 0.0008917967 0.00045332103 3.248987e-05 -2.9296783e-23
00000000: 0000 0000 0000 0080 0000 0080 0000 0000
00000010: 1d00 0080 0000 0000 0000 0000 0000 0080
00000020: 0000 0080 0000 0000 0000 0000 0000 0080
00000030: 0000 0000 0000 0000 0000 0000 0000 0080
00000040: 0000 0080 0000 0000 0000 0000 9ed9 7b85
00000050: 0b00 0080 73bb 058f f194 2f90 3500 0080
00000060: 0000 0000 0000 0080 0000 0080 0000 0000
00000070: 0000 0000 0000 0000 0000 0000 0000 0000
00000080: 0000 0000 0000 0000 0000 0000 0000 0000
00000090: 6579 379f 37ac a2a2 be16 0e9f 0000 0000
000000a0: 0000 0080 0000 0000 0000 0080 0000 0080
000000b0: 0000 0080 0000 0080 0000 0080 0000 0000
000000c0: 0000 0080 0000 0000 0000 0000 0000 0080
000000d0: 0200 0080 0000 0000 0000 0000 0000 0000
000000e0: 0000 0080 0000 0080 0000 0080 0000 0000
000000f0: 0000 0000 0000 0080 0000 0000 0000 0000
00000100: 0000 0080 0000 0080 0000 0080 3e55 2b87
00000110: 0200 0080 c590 aa8d 4fe8 bb94 090a 0080
00000120: 0000 0000 0000 0080 0000 0000 0000 0080
00000130: 0000 0080 0000 0000 0000 0080 0000 0080
00000140: 0000 0080 0000 0080 0000 0080 0000 0080
00000150: 76c6 afa0 8bf8 dfa4 3e2c 9ea1 0000 0000
00000160: 0000 0000 0000 0000 0000 0080 0000 0080
00000170: 0000 0000 0000 0080 0000 0000 0000 0000
00000180: 0000 0080 0000 0080 0000 0000 0000 0000
00000190: 0000 0000 0000 0000 0000 0000 0000 0000
000001a0: 0000 0000 0000 0000 0000 0000 0000 0000
000001b0: 0000 0000 0000 0000 0000 0000 0000 0080
000001c0: 0000 0000 0000 0000 0000 0000 0000 0000
000001d0: 0000 0000 0000 0000 0000 0000 0000 0000
000001e0: 0000 0080 0000 0000 0000 0000 0000 0000
000001f0: 0000 0080 0000 0080 0000 0000 0000 0000
00000200: 0000 0000 0000 0080 0000 0000 0000 0080
00000210: 0000 0000 0000 0000 0000 0000 0000 0000
00000220: 0000 0080 0000 0000 0000 0080 0000 0080
00000230: 0000 0080 0000 0080 0000 0080 0000 0080
00000240: 0000 0000 0000 0000 0000 0000 a610 3531
00000250: 3537 1431 aa98 0b31 0000 0000 0000 0080
00000260: 0000 0000 e993 a52f cb9c 9f2f e9ef 8f2e
00000270: a3ee db30 8516 1a31 18b8 7c31 0000 0080
00000280: 0000 0080 0000 0000 4a29 1b31 e8cd 3631
00000290: 6e39 b731 16ab d431 04cf df31 3478 c431
000002a0: 0000 0080 0000 0000 0000 0080 0000 0080
000002b0: 0000 0000 0000 0080 3636 1031 aeda ca30
000002c0: 5972 f430 0000 0080 0000 0000 0000 0080
000002d0: 2178 2e32 1950 3632 4766 7432 0000 0000
000002e0: 0000 0000 0000 0000 0000 0080 0000 0000
000002f0: 0000 0080 0000 0000 0000 0080 0000 0000
00000300: 0000 0000 0000 0000 0000 0000 1162 61b3
00000310: 77b6 93b3 7992 84b3 0000 0080 0000 0000
00000320: 0000 0000 262f d2b1 ba18 1fb2 2f5c 4ca9
00000330: fed8 5db3 e6a6 a4b3 185c 72b3 0000 0080
00000340: 0000 0000 0000 0080 69a7 f4b2 9651 b8b3
00000350: e9cb 68b3 e35a 04b4 4b04 08b4 7315 8bb3
00000360: 0000 0000 0000 0080 0000 0080 0000 0080
00000370: 0000 0080 0000 0080 1ddb 3bb2 601a 32b2
00000380: 552c 1cb2 0000 0080 0000 0000 0000 0080
00000390: be97 5cb4 2640 76b4 be2e 6db4 0000 0080
000003a0: 0000 0080 0000 0080 0000 0080 0000 0000
000003b0: 0000 0000 0000 0080 0000 0000 0000 0000
000003c0: 0000 0000 0000 0080 0000 0080 43e8 bd3a
000003d0: eb4f 9d3a e5d9 0c3a 0000 0080 0000 0000
000003e0: 0000 0080 ba65 fc39 7f4c 63b7 30d7 1938
000003f0: 77c7 693a b8ab ed39 bb45 0838 a9ab 0d9a

exp_avg_sq f4 [32, 16, 3]
7e-43 7e-43 7e-43 1.0433949e-13 1.4573e-13 1.1647893e-13 7e-43 7e-43
7e-43 3.143555e-14 2.9734766e-14 2.2456959e-15 9.272281e-14 1.2976077e-13 9.0087524e-14 7e-43
7e-43 7e-43 8.368056e-14 2.0744593e-13 1.4122384e-13 2.9454894e-13 3.095115e-13 1.4761688e-13
7e-43 7e-43 7e-43 7e-43 7e-43 7e-43 4.571047e-14 5.174722e-14
4.9794356e-14 7e-43 7e-43 7e-43 7.9733285e-13 1.0993207e-12 7.8556996e-13 7e-43
7e-43 7e-43 7e-43 7e-43 7e-43 7e-43 7e-43 7e-43
7e-43 7e-43 7e-43 6.977929e-14 9.833314e-14 8.2245815e-14 7e-43 7e-43
7e-43 1.557312e-14 2.7147948e-14 1.794076e-15 4.3959966e-14 7.037245e-14 4.927973e-14 7e-43
7e-43 7e-43 6.001705e-14 1.754676e-13 9.113361e-14 1.9720393e-13 2.598658e-13 1.1026843e-13
7e-43 7e-43 7e-43 7e-43 7e-43 7e-43 3.849343e-14 3.966088e-14
3.8120372e-14 7e-43 7e-43 7e-43 5.585377e-13 8.487572e-13 6.08442e-13 7e-43
7e-43 7e-43 7e-43 7e-43 7e-43 7e-43 7e-43 7e-43
7e-43 7e-43 7e-43 1.13536915e-14 1.5740879e-14 1.3045013e-14 7e-43 7e-43
7e-43 3.026324e-15 2.8874616e-15 2.525194e-16 1.1929598e-14 1.6366735e-14 1.1661208e-14 7e-43
7e-43 7e-43 5.672234e-15 1.6567788e-14 1.0401806e-14 2.7939505e-14 2.8970854e-14 1.3071327e-14
7e-43 7e-43 7e-43 7e-43 7e-43 7e-43 3.8549215e-15 4.269237e-15
4.1010853e-15 7e-43 7e-43 7e-43 9.37024e-14 1.2718053e-13 9.315225e-14 7e-43
7e-43 7e-43 7e-43 7e-43 7e-43 7e-43 7e-43 7e-43
7e-43 7e-43 7e-43 9.703051e-16 1.3414295e-15 1.0575165e-15 7e-43 7e-43
7e-43 2.809639e-16 2.4737367e-16 1.8932667e-17 9.223448e-16 1.2817987e-15 9.019874e-16 7e-43
7e-43 7e-43 5.504541e-16 1.5728287e-15 1.0108853e-15 2.5066822e-15 2.5442439e-15 1.1781625e-15
7e-43 7e-43 7e-43 7e-43 7e-43 7e-43 3.402702e-16 3.6591725e-16
3.6298988e-16 7e-43 7e-43 7e-43 8.220098e-15 1.10040456e-14 8.008757e-15 7e-43
7e-43 7e-43 7e-43 7e-43 7e-43 7e-43 7e-43 7e-43
7e-43 7e-43 7e-43 5.2590463e-11 7.355499e-11 6.158799e-11 7e-43 7e-43
7e-43 1.2539384e-11 1.6352694e-11 1.0151533e-12 4.8620215e-11 7.238976e-11 5.2924876e-11 7e-43
7e-43 7e-43 3.007755e-11 9.1791595e-11 5.4268826e-11 1.3881866e-10 1.6146183e-10 6.764933e-11
7e-43 7e-43 7e-43 7e-43 7e-43 7e-43 1.7582281e-11 1.8309547e-11
1.741503e-11 7e-43 7e-43 7e-43 4.4415097e-10 6.498475e-10 4.8512827e-10 7e-43
7e-43 7e-43 7e-43 7e-43 7e-43 7e-43 7e-43 7e-43
7e-43 7e-43 7e-43 2.6498656e-05 2.3248733e-05 2.0339482e-06 7e-43 7e-43
7e-43 5.5576425e-06 7.484297e-09 6.0171246e-09 9.629777e-06 3.1399034e-06 5.005638e-08 3.9991266e-13
00000000: f401 0000 f401 0000 f401 0000 9ff3 ea29
00000010: d013 242a c424 032a f401 0000 f401 0000
00000020: f401 0000 b992 0d29 dae9 0529 c7d1 2127
00000030: 10cb d029 ff18 122a ecdb ca29 f401 0000
00000040: f401 0000 f401 0000 8f6e bc29 3890 692a
00000050: 0001 1f2a fad0 a52a 4f3d ae2a ab33 262a
00000060: f401 0000 f401 0000 f401 0000 f401 0000
00000070: f401 0000 f401 0000 95dc 4d29 7c0c 6929
00000080: fc40 6029 f401 0000 f401 0000 f401 0000
00000090: e36d 602b 34b7 9a2b 481e 5d2b f401 0000
000000a0: f401 0000 f401 0000 f401 0000 f401 0000
000000b0: f401 0000 f401 0000 f401 0000 f401 0000
000000c0: f401 0000 f401 0000 f401 0000 0621 9d29
000000d0: 326d dd29 7c33 b929 f401 0000 f401 0000
000000e0: f401 0000 2b45 8c28 e886 f428 dc46 0127
000000f0: 64fa 4529 f576 9e29 a9ef 5d29 f401 0000
00000100: f401 0000 f401 0000 7925 8729 188f 452a
00000110: f336 cd29 2a08 5e2a 9c4a 922a 6c4d f829
00000120: f401 0000 f401 0000 f401 0000 f401 0000
00000130: f401 0000 f401 0000 e75b 2d29 e29d 3229
00000140: ccad 2b29 f401 0000 f401 0000 f401 0000
00000150: e236 1d2b 67e7 6e2b de42 2b2b f401 0000
00000160: f401 0000 f401 0000 f401 0000 f401 0000
00000170: f401 0000 f401 0000 f401 0000 f401 0000
00000180: f401 0000 f401 0000 f401 0000 a987 4c28
00000190: ffc7 8d28 81ff 6a28 f401 0000 f401 0000
000001a0: f401 0000 d311 5a27 4410 5027 4991 9125
000001b0: 8fe7 5628 1f6b 9328 d411 5228 f401 0000
000001c0: f401 0000 f401 0000 205d cc27 b83a 9528
000001d0: dd61 3b28 1da8 fb28 1f79 0229 db78 6b28
000001e0: f401 0000 f401 0000 f401 0000 f401 0000
000001f0: f401 0000 f401 0000 60e3 8a27 c3d0 9927
00000200: d6c1 9327 f401 0000 f401 0000 f401 0000
00000210: c2ff d229 4b31 0f2a 9ec2 d129 f401 0000
00000220: f401 0000 f401 0000 f401 0000 f401 0000
00000230: f401 0000 f401 0000 f401 0000 f401 0000
00000240: f401 0000 f401 0000 f401 0000 f1d5 8b26
00000250: 0352 c126 7967 9826 f401 0000 f401 0000
00000260: f401 0000 f4f6 a125 e999 8e25 7f9f ae23
00000270: 84ec 8426 06ba b826 76fd 8126 f401 0000
00000280: f401 0000 f401 0000 58a8 1e26 23ab e226
00000290: 16af 9126 20a0 3427 0455 3727 86ca a926
000002a0: f401 0000 f401 0000 f401 0000 f401 0000
000002b0: f401 0000 f401 0000 0527 c425 dbef d225
000002c0: da3f d125 f401 0000 f401 0000 f401 0000
000002d0: 8314 1428 343b 4628 df45 1028 f401 0000
000002e0: f401 0000 f401 0000 f401 0000 f401 0000
000002f0: f401 0000 f401 0000 f401 0000 f401 0000
00000300: f401 0000 f401 0000 f401 0000 994b 672e
00000310: c7bf a12e f56e 872e f401 0000 f401 0000
00000320: f401 0000 5d98 5c2d fed6 8f2d c1de 8e2b
00000330: 7fd5 552e d02f 9f2e 1dc4 682e f401 0000
00000340: f401 0000 f401 0000 5048 042e 13da c92e
00000350: 44ad 6e2e fba1 182f 7787 312f 30c3 942e
00000360: f401 0000 f401 0000 f401 0000 f401 0000
00000370: f401 0000 f401 0000 c7a7 9a2d 6f0d a12d
00000380: 292f 992d f401 0000 f401 0000 f401 0000
00000390: b12c f42f f4a0 3230 de59 0530 f401 0000
000003a0: f401 0000 f401 0000 f401 0000 f401 0000
000003b0: f401 0000 f401 0000 f401 0000 f401 0000
000003c0: f401 0000 f401 0000 f401 0000 6e49 de37
000003d0: 4606 c337 f77e 0836 f401 0000 f401 0000
000003e0: f401 0000 c97b ba36 4994 0032 30bf ce31
000003f0: 948f 2137 21b7 5236 92fd 5633 7d21 e12a

exp_avg f4 [32]
-3.427331e-11 -1.08544625e-10 -2.8811605e-20 4.106055e-08 -3.2735082e-07 0.002771762 -0.0026545136 -4.0534285e-31
0.01665292 -1.4809901e-13 0.00503912 -1.16423414e-32 -4.514422e-09 -8.704104e-30 -4.4069772e-08 -3.6750555e-20
-8.226961e-09 0.014528637 0.029356787 -2.0156206e-07 -0.004083258 -1.677945e-11 -4.676188e-21 -3.6360678e-08
-3.399678e-07 -3.3024418e-07 -3.0847819e-34 -2.5591773e-11 0.009008575 -0.0 0.0 -2.395452e-08
00000000: 51bc 16ae 31b1 eeae 180f 089f 8d5a 3033
00000010: c1be afb4 73a6 353b 59f7 2dbb 918a 038d
00000020: b46b 883c a2be 26aa 341f a53b 4ecd 718a
00000030: 471d 9bb1 4b8a 308f 3a47 3db3 b28c 2d9f
00000040: 8f56 0db2 8509 6e3c a57d f03c f56c 58b4
00000050: dacc 85bb f697 93ad 51a9 b09d fd2a 1cb3
00000060: d284 b6b4 6a4c b1b4 d804 cd87 8d1b e1ad
00000070: b498 133c 0000 0080 0000 0000 8cc4 cdb2

exp_avg_sq f4 [32]
7.559544e-12 5.535313e-12 7.872481e-13 7.28594e-14 3.988322e-09 0.00025563219 0.0067323623 2.7393506e-13
0.009526973 3.1219422e-12 0.006409659 2.3975833e-13 4.715246e-11 2.913009e-13 2.836151e-10 7.6664543e-13
2.538881e-12 0.008823038 0.006758684 2.9813359e-07 0.00071802025 2.4229089e-12 4.9019415e-13 1.346954e-10
3.8653866e-08 2.8583462e-09 2.304719e-13 7.2525813e-12 0.023784677 3.046e-42 3.1028e-41 5.7798083e-10
00000000: 29fd 042d abc1 c22c 3497 5d2b 9610 a429
00000010: a709 8931 5f06 8639 269b dc3b 3436 9a2a
00000020: 0517 1c3c e9af 5b2c 1e08 d23b d1f8 862a
00000030: f360 4f2e e2fc a32a 47eb 9b2f a0ca 572b
00000040: 6aa8 322c 818e 103c f377 dd3b 2b0f a034
00000050: 8639 3c3a 3f7f 2a2c 36fa 092b 6219 142f
00000060: 6004 2633 8f6c 4431 80be 812a 722d ff2c
00000070: 15d8 c23c 7e08 0000 7e56 0000 c9df 1e30

exp_avg f4 [64, 288]
-0.0 -0.0 -0.0 0.0 0.0 -0.0 -0.0 0.0
-0.0 -0.0 -0.0 0.0 -0.0 0.0 -0.0 0.0
-0.0 -0.0 0.0 -0.0 0.0 -0.0 -0.0 -0.0
0.0 -0.0 -0.0 -1.2729725e-18 2.304473e-17 7.668058e-13 2.835923e-17 1.814364e-17
1.09663346e-17 8.985417e-18 5.0209036e-18 5.8244082e-18 0.0 0.0 0.0 0.0
0.0 0.0 -0.0 0.0 -0.0 -0.0 1.1511249e-09 -2.609807e-07
-1.0921906e-06 -7.826829e-07 1.7636896e-05 -1.6508906e-07 -3.315717e-07 -3.6457826e-07 1.7094737e-07 -1.3576765e-06
-7.805116e-07 -2.5825036e-06 -6.6064777e-06 3.5442787e-05 9.3781097e-07 -2.2420645e-06 -1.6002823e-06 0.0
-0.0 -0.0 0.0 -0.0 0.0 0.0 0.0 -0.0
1.2617118e-06 4.801372e-07 -4.9495114e-08 1.8480983e-05 3.512989e-05 -7.6200064e-07 -1.4377847e-06 -1.2167626e-06
6.7841535e-07 -0.0 0.0 -0.0 -0.0 -0.0 0.0 -0.0
-0.0 -0.0 1.6527931e-08 -1.2709631e-06 2.2266833e-05 5.874291e-06 -5.603206e-06 1.58268e-05
-1.8692962e-06 -1.3191765e-06 -3.870347e-07 0.0 -0.0 -0.0 0.0 0.0
0.0 0.0 0.0 -0.0 0.0 -0.0 -0.0 -0.0
0.0 0.0 -0.0 0.0 0.0 -0.0 -0.0 -0.0
-0.0 0.0 0.0 -0.0 0.0 0.0 0.0 0.0
0.0 0.0 -0.0 0.0 -0.0 0.0 0.0 -0.0
0.0 0.0 0.0 -0.0 0.0 0.0 0.0 -0.0
-6.633868e-23 -2.933228e-22 -7.9003725e-22 -1.7213515e-21 5.4016247e-22 -2.398344e-22 -6.7160834e-23 -1.621078e-22
-2.3304415e-23 1.0813129e-06 3.533577e-06 -3.779435e-06 7.1576314e-06 3.1778956e-05 -9.109344e-07 -8.9445416e-07
-1.6635225e-07 1.4053605e-07 -4.8355542e-08 -2.2144496e-07 -1.2960763e-06 3.0443339e-06 -8.0118997e-07 -3.8051257e-06
1.2125316e-05 8.328561e-06 1.3922173e-06 -3.9752568e-21 -4.155656e-17 -1.941994e-19 -5.0304037e-22 -2.739275e-27
-9.174658e-30 -1.4289997e-26 -7.4787916e-22 -1.0362413e-27 2.6114063e-07 -8.4363427e-07 1.9805127e-06 -7.584356e-07
-4.608336e-07 -1.4976041e-06 6.3348293e-06 -4.0262734e-07 -1.7794056e-07 -0.0 0.0 -0.0
0.0 0.0 -0.0 -0.0 -0.0 0.0 -0.0 0.0
0.0 0.0 -0.0 -0.0 0.0 0.0 -0.0 -0.0
0.0 -0.0 -0.0 -0.0 -0.0 0.0 0.0 -0.0
-0.0 0.0 0.0 -0.0 -0.0 -0.0 0.0 -0.0
0.0 0.0 0.0 -0.0 0.0 -0.0 -0.0 0.0
0.0 -0.0 0.0 -0.0 -0.0 0.0 -0.0 -0.0
-0.0 -0.0 0.0 -0.0 -0.0 -0.0 -0.0 -0.0
0.0 0.0 -0.0 0.0 7.1328074e-08 -1.7523208e-06 -1.935206e-06 -1.0576422e-06
00000000: 0000 0080 0000 0080 0000 0080 0000 0000
00000010: 0000 0000 0000 0080 0000 0080 0000 0000
00000020: 0000 0080 0000 0080 0000 0080 0000 0000
00000030: 0000 0080 0000 0000 0000 0080 0000 0000
00000040: 0000 0080 0000 0080 0000 0000 0000 0080
00000050: 0000 0000 0000 0080 0000 0080 0000 0080
00000060: 0000 0000 0000 0080 0000 0080 8bdb bba1
00000070: d58c d423 2ed6 572b abc8 0224 7558 a723
00000080: 0d4b 4a23 6fc0 2523 183d b922 fbe1 d622
00000090: 0000 0000 0000 0000 0000 0000 0000 0000
000000a0: 0000 0000 0000 0000 0000 0080 0000 0000
000000b0: 0000 0080 0000 0080 9b35 9e30 ea1c 8cb4
000000c0: 6297 92b5 8f19 52b5 f2f2 9337 5643 31b4
000000d0: de02 b2b4 41bb c3b4 a88d 3734 6939 b6b5
000000e0: 5984 51b5 134f 2db6 36ad ddb6 67a8 1438
000000f0: e1bd 7b35 6076 16b6 48c9 d6b5 0000 0000
00000100: 0000 0080 0000 0080 0000 0000 0000 0080
00000110: 0000 0000 0000 0000 0000 0000 0000 0080
00000120: 1658 a935 c7e2 0035 7494 54b3 9c07 9b37
00000130: 6f58 1338 498c 4cb5 e8f9 c0b5 a54f a3b5
00000140: 591c 3635 0000 0080 0000 0000 0000 0080
00000150: 0000 0080 0000 0080 0000 0000 0000 0080
00000160: 0000 0080 0000 0080 4ef9 8d32 f695 aab5
00000170: a9c9 ba37 c71b c536 2c03 bcb6 cbc3 8437
00000180: 87e4 fab5 8f0e b1b5 a5c9 cfb4 0000 0000
00000190: 0000 0080 0000 0080 0000 0000 0000 0000
000001a0: 0000 0000 0000 0000 0000 0000 0000 0080
000001b0: 0000 0000 0000 0080 0000 0080 0000 0080
000001c0: 0000 0000 0000 0000 0000 0080 0000 0000
000001d0: 0000 0000 0000 0080 0000 0080 0000 0080
000001e0: 0000 0080 0000 0000 0000 0000 0000 0080
000001f0: 0000 0000 0000 0000 0000 0000 0000 0000
00000200: 0000 0000 0000 0000 0000 0080 0000 0000
00000210: 0000 0080 0000 0000 0000 0000 0000 0080
00000220: 0000 0000 0000 0000 0000 0000 0000 0080
00000230: 0000 0000 0000 0000 0000 0000 0000 0080
00000240: a765 a09a 814d b19b 2cc6 6e9c c80f 029d
00000250: 0c41 231c 93f8 909b 8b62 a29a eff9 439b
00000260: f062 e199 a121 9135 6422 6d36 33a2 7db6
00000270: 962b f036 654a 0538 ef86 74b5 6c1a 70b5
00000280: 8f9e 32b4 41e6 1634 7baf 4fb3 54c6 6db4
00000290: d8f4 adb5 424d 4c36 5b11 57b5 905b 7fb6
000002a0: d66d 4b37 e6ba 0b37 39dc ba35 532e 969d
000002b0: 54a5 3fa4 2b45 65a0 dd08 189c 1907 5993
000002c0: 8c15 3a8f 7285 8d94 5908 629c f132 a492
000002d0: e532 8c34 1b76 62b5 f3e8 0436 4c97 4bb5
000002e0: 7d68 f7b4 4901 c9b5 c58f d436 ae28 d8b4
000002f0: ee0f 3fb4 0000 0080 0000 0000 0000 0080
00000300: 0000 0000 0000 0000 0000 0080 0000 0080
00000310: 0000 0080 0000 0000 0000 0080 0000 0000
00000320: 0000 0000 0000 0000 0000 0080 0000 0080
00000330: 0000 0000 0000 0000 0000 0080 0000 0080
00000340: 0000 0000 0000 0080 0000 0080 0000 0080
00000350: 0000 0080 0000 0000 0000 0000 0000 0080
00000360: 0000 0080 0000 0000 0000 0000 0000 0080
00000370: 0000 0080 0000 0080 0000 0000 0000 0080
00000380: 0000 0000 0000 0000 0000 0000 0000 0080
00000390: 0000 0000 0000 0080 0000 0080 0000 0000
000003a0: 0000 0000 0000 0080 0000 0000 0000 0080
000003b0: 0000 0080 0000 0000 0000 0080 0000 0080
000003c0: 0000 0080 0000 0080 0000 0000 0000 0080
000003d0: 0000 0080 0000 0080 0000 0080 0000 0080
000003e0: 0000 0000 0000 0000 0000 0080 0000 0000
000003f0: 062d 9933 4931 ebb5 96de 01b6 4ff4 8db5
