checkpoints/model_epoch_10.pth (torch, 14222 bytes, 5 tensors)

fc1.weight f4 [64, 11]
0	0x3db989f6	0.09059517
1	0x3d8ba027	0.06817656
2	0x3d5642d7	0.052309837
3	0xbcfffc4a	-0.03124823
4	0x3dbbeb87	0.09175783
5	0x3d47652e	0.048680477
6	0x3ac1da60	0.0014789812
7	0xbc11ce77	-0.008899323
8	0x3db3d314	0.08780494
9	0x3da6f5bb	0.08152338
10	0xbeee5067	-0.46545717
11	0x800089da	-4.9452e-41
12	0x80008930	-4.9214e-41
13	0x80008a3f	-4.9593e-41
14	0x80008960	-4.9281e-41
15	0x80008a19	-4.954e-41
16	0x80008a32	-4.9575e-41
17	0x800089c8	-4.9427e-41
18	0x80008983	-4.933e-41
19	0x800089c4	-4.9421e-41
20	0x800088bf	-4.9055e-41
21	0x80008b91	-5.0067e-41
22	0xaffb69d2	-4.5731824e-10
23	0xb0024f10	-4.740608e-10
24	0xb006616e	-4.888737e-10
25	0xafc94392	-3.6609699e-10
26	0xb00dfd37	-5.165534e-10
27	0xafb1bc63	-3.232997e-10
28	0xb00fe177	-5.23435e-10
29	0xafb1f3c3	-3.2369316e-10
30	0xafd989de	-3.957003e-10
31	0xb008d5e2	-4.978046e-10
32	0xad415cd9	-1.0991396e-11
33	0xb196f22e	-4.393107e-09
34	0xb196e547	-4.3916404e-09
35	0xb198def3	-4.4491286e-09
36	0xb19a48ce	-4.490267e-09
37	0xb19a7010	-4.49473e-09
38	0xb1986337	-4.4350617e-09
39	0xb1948ac5	-4.323143e-09
40	0xb1988b6f	-4.439634e-09
41	0xb197f736	-4.422783e-09
42	0xb193fdbc	-4.3071093e-09
43	0x31a97f4e	4.93302e-09
44	0xb1e62cfb	-6.6989947e-09
45	0xb05f9312	-8.1335927e-10
46	0x2eebc913	1.0722281e-10
47	0x310da027	2.0609237e-09
48	0xb16c0153	-3.4343273e-09
49	0xb1118c67	-2.1180087e-09
50	0xb00b2d21	-5.063204e-10
51	0xb0e4134e	-1.659467e-09
52	0xb1bc859b	-5.4867093e-09
53	0x31070e04	1.9653053e-09
54	0x2e7bce92	5.7254264e-11
55	0xb9063fa3	-0.00012802942
56	0xb90adb19	-0.00013242326
57	0xb9144c69	-0.00014142845
58	0xb8fc11a2	-0.00012019581
59	0xb912ecb8	-0.0001401183
60	0xb9024482	-0.00012423287
61	0xb90d9307	-0.0001350158
62	0xb909c443	-0.00013138451
63	0xb90c5f3e	-0.00013386921
64	0xb9137964	-0.00014064234
65	0xb7a68314	-1.984978e-05
66	0xb98dca01	-0.0002704412
67	0xb985d1aa	-0.0002552395
68	0xb9c76b57	-0.00038036212
69	0xb991be17	-0.00027798183
70	0xb9ba92aa	-0.00035585958
71	0xb9b84945	-0.00035149805
72	0xb9c51433	-0.00037589818
73	0xb9add613	-0.0003315663
74	0xb9ad8cd5	-0.0003310206
75	0xb9a50ce1	-0.00031480848
76	0x3a1ad954	0.0005907018
77	0x8a3e710c	-9.169429e-33
78	0x89e2b7a4	-5.4580216e-33
79	0x894c8f66	-2.4623032e-33
80	0x8a610883	-1.0834957e-32
81	0x8a02a5d6	-6.2904626e-33
82	0x89f2f244	-5.8487206e-33
83	0x8a0e2b86	-6.845237e-33
84	0x89d3a79e	-5.095403e-33
85	0x89c9ea8f	-4.8609568e-33
86	0x8a8e994d	-1.3731768e-32
87	0x000089f6	4.9491e-41
88	0xba1a2d24	-0.000588136
89	0xb9e0495d	-0.0004277927
90	0xb81a8faa	-3.685026e-05
91	0x39aa6f52	0.00032507867
92	0xb920562d	-0.00015290892
93	0xba2e88de	-0.0006657968
94	0xb822e6d6	-3.8838793e-05
95	0xb9203fbf	-0.00015282536
96	0xb9a49b2e	-0.00031396135
97	0xb8acea8e	-8.245288e-05
98	0x3a85ffac	0.0010223291
99	0xb95632a6	-0.00020427498
100	0xb9651e9a	-0.00021850542
101	0xb9635027	-0.00021678266
102	0xb958b233	-0.0002066575
103	0xb954e421	-0.0002030288
104	0xb95979e2	-0.00020740138
105	0xb96074df	-0.00021405843
106	0xb950ef3c	-0.00019925548
107	0xb954b070	-0.00020283624
108	0xb957ec9f	-0.00020592146
109	0xb6fa9385	-7.467754e-06
110	0xa30efc95	-7.751322e-18
111	0xa327e932	-9.102469e-18
112	0xa3381399	-9.97881e-18
113	0xa31d41dc	-8.524933e-18
114	0xa30a94c9	-7.5125015e-18
115	0xa33b5382	-1.0154974e-17
116	0xa3070080	-7.3184705e-18
117	0xa3187633	-8.264966e-18
118	0xa32e286f	-9.441121e-18
119	0xa3193399	-8.305073e-18
120	0x9814fb38	-1.9255385e-24
121	0x3816abed	3.5922905e-05
122	0x38171f91	3.6030604e-05
123	0x38179d16	3.6147503e-05
124	0x3817e4a7	3.6214155e-05
125	0x3817bf5e	3.617943e-05
126	0x3817a3b8	3.615368e-05
127	0x38176cf9	3.6102694e-05
128	0x3816c5bf	3.5946952e-05
129	0x38181ed3	3.626833e-05
130	0x38177ec2	3.6119258e-05
131	0x35b1dc3d	1.3251625e-06
132	0x9ac4011f	-8.106551e-23
133	0x9ac086c9	-7.9627096e-23
134	0x9b412ea2	-1.5979654e-22
135	0x1b2ef593	1.4472292e-22
136	0x9b9df857	-2.6133957e-22
137	0x9b04b87b	-1.0978393e-22
138	0x9c09582f	-4.544347e-22
139	0x9c3c6241	-6.233097e-22
140	0x9b750b5c	-2.0269595e-22
141	0x9ba33cb6	-2.7005321e-22
142	0x8212928f	-1.0768446e-37
143	0xb3bd1e68	-8.806529e-08
144	0xb3dd9375	-1.0317937e-07
145	0xb39d2204	-7.3170696e-08
146	0xb39d7b8d	-7.333356e-08
147	0xb3dccf9d	-1.0282313e-07
148	0xb3c30ca4	-9.0826944e-08
149	0xb38cac7f	-6.550635e-08
150	0xb3a26297	-7.561646e-08
151	0xb383986b	-6.1278875e-08
152	0xb3d96090	-1.01224146e-07
153	0xaf8aa593	-2.52197e-10
154	0xadd4f2fd	-2.4209518e-11
155	0xade1abbe	-2.5655807e-11
156	0xade0e8ce	-2.5569238e-11
157	0xade734df	-2.6285139e-11
158	0xadd19458	-2.3826427e-11
159	0xadddc2b9	-2.5211265e-11
160	0xadde9be6	-2.530771e-11
161	0xadd5b1e0	-2.4294289e-11
162	0xadd21acc	-2.3886136e-11
163	0xadd86a74	-2.4603632e-11
164	0x2315c2be	8.1185444e-18
165	0xba8323ff	-0.0010005235
166	0xba85db42	-0.0010212439
167	0xba827d4f	-0.0009955558
168	0xba7d366a	-0.00096592924
169	0xba86083a	-0.001022584
170	0xba5fb70d	-0.00085340516
171	0xba7763c6	-0.00094371696
172	0xba86e1a7	-0.0010290638
173	0xba5d22ed	-0.00084356853
174	0xba750d69	-0.00093480066
175	0xba28b923	-0.0006436279
176	0x99e87dbc	-2.4039021e-23
177	0x9a06cf07	-2.7877786e-23
178	0x9a0483dc	-2.7403475e-23
179	0x99df2b90	-2.3075254e-23
180	0x99e4c8c3	-2.3655734e-23
181	0x99e7ad7f	-2.3954915e-23
182	0x99ec19cd	-2.4412249e-23
183	0x9a0ba6b1	-2.887918e-23
184	0x99ef0d0a	-2.4717287e-23
185	0x9a1904cb	-3.164353e-23
186	0x82234fbd	-1.1998232e-37
187	0xa56e64f5	-2.0677415e-16
188	0xa510ec6f	-1.2570116e-16
189	0xa70ad819	-1.9268494e-15
190	0xa5b3a34b	-3.1162202e-16
191	0xa6d62fdf	-1.4862208e-15
192	0xa624ab28	-5.713089e-16
193	0xa6b46b6a	-1.2519124e-15
194	0xa6006ace	-4.455367e-16
195	0xa51059c9	-1.252043e-16
196	0xa675f50a	-8.533354e-16
197	0x9dd64fcd	-5.672784e-21
198	0xa84cfe67	-1.13794396e-14
199	0xa862a6b6	-1.258167e-14
200	0xa862ca3f	-1.2589375e-14
201	0xa856ba14	-1.1919736e-14
202	0xa841140c	-1.0717999e-14
203	0xa848576e	-1.11211885e-14
204	0xa836ba4a	-1.01434245e-14
205	0xa849a96c	-1.1194479e-14
206	0xa845b36b	-1.0974602e-14
207	0xa84a8f8c	-1.1244379e-14
208	0xa477bb28	-5.3718115e-17
209	0xb91ad304	-0.00014765194
210	0xb91d4c03	-0.00015001003
211	0xb901aca8	-0.00012366718
212	0xb924b3a1	-0.00015707176
213	0xb8f42524	-0.00011641745
214	0xb8fef0fa	-0.00012156549
215	0xb91051b4	-0.00013763347
216	0xb9426552	-0.00018539026
217	0xb92493a0	-0.00015695253
218	0xb91ae46c	-0.00014771678
219	0x38ff2a93	0.000121672776
220	0xaf40e5bb	-1.7543915e-10
221	0xaf4e3556	-1.875454e-10
222	0xaf48b8bb	-1.8255523e-10
223	0xaf248fbe	-1.496678e-10
224	0xaf289daa	-1.5335525e-10
225	0xaf2fa171	-1.5973513e-10
226	0xaf2d677b	-1.5771022e-10
227	0xaf2817a0	-1.5287904e-10
228	0xaf2d632a	-1.5769488e-10
229	0xaf29cfdb	-1.5444306e-10
230	0x28d49d76	2.3605016e-14
231	0xb0a2eb3d	-1.185391e-09
232	0xb0a45906	-1.1957872e-09
233	0xb0b41d28	-1.310501e-09
234	0xb0928bc5	-1.0662623e-09
235	0xb07ee428	-9.272889e-10
236	0xb09300c0	-1.0695871e-09
237	0xb0a75401	-1.2174725e-09
238	0xb0665588	-8.379506e-10
239	0xb083f79d	-9.60188e-10
240	0xb0a2d6c7	-1.1848095e-09
241	0x28ec54b4	2.6237998e-14
242	0xb8ceca01	-9.8604716e-05
243	0xb8b8ae55	-8.8062756e-05
244	0xb8c87607	-9.5587275e-05
245	0xb8b6fc8e	-8.725478e-05
246	0xb8ce48dd	-9.836417e-05
247	0xb8d5d595	-0.00010196414
248	0xb8c3b82d	-9.33263e-05
249	0xb8ba09f8	-8.871028e-05
250	0xb8c7f0ed	-9.5339354e-05
251	0xb8bf7543	-9.1294314e-05
252	0x39daa68b	0.00041704284
253	0x9fd0a669	-8.836673e-20
254	0x9ffc9b2e	-1.06982875e-19
255	0x9eb52cf6	-1.9182716e-20

fc1.bias f4 [64]
0	0xbe2d8fd9	-0.16949405
1	0x80008a15	-4.9534e-41
2	0xb00cf39c	-5.1277893e-10
3	0xb19c9f0f	-4.5582804e-09
4	0xb210cd26	-8.4285485e-09
5	0xb910234e	-0.00013746062
6	0x36a4b594	4.9087193e-06
7	0x8af42f69	-2.3514179e-32
8	0xbacb9add	-0.0015533824
9	0xb9539e33	-0.00020181462
10	0xa346109f	-1.0737121e-17
11	0x3817c43b	3.618396e-05
12	0x9c485cc3	-6.629434e-22
13	0xb40566f1	-1.242404e-07
14	0xade40aec	-2.592545e-11
15	0xba96dbb4	-0.0011509568
16	0x99544c8f	-1.0975604e-23
17	0xa76521b2	-3.17984e-15
18	0xa84b8ff6	-1.129998e-14
19	0xb92c4be2	-0.00016431467
20	0xaf23e982	-1.4907722e-10
21	0xb0b107a5	-1.2880618e-09
22	0xb8af68d8	-8.364179e-05
23	0xa0635fee	-1.9259388e-19
24	0xa69217e0	-1.0137256e-15
25	0xb73ee8bc	-1.137907e-05
26	0xb98b7cda	-0.00026605168
27	0xb009a9e3	-5.0081733e-10
28	0x81ddfef9	-8.1548446e-38
29	0xba385907	-0.0007032309
30	0xb8554018	-5.084285e-05
31	0xb30020e9	-2.9832254e-08
32	0x3d3bd3ab	0.04585616
33	0xb8a90ef2	-8.061332e-05
34	0x8e24d13a	-2.03153e-30
35	0xb1411611	-2.809774e-09
36	0xb4b3ddbb	-3.3502678e-07
37	0xa7e333fd	-6.3061522e-15
38	0xb1f4d8c4	-7.125978e-09
39	0xb9705428	-0.00022919534
40	0xb2b6af78	-2.1267383e-08
41	0x9c4e411a	-6.8243824e-22
42	0x800089b2	-4.9396e-41
43	0xba3195eb	-0.00067743537
44	0xba012801	-0.00049269205
45	0xa1657167	-7.7738305e-19
46	0xa3ace298	-1.8744244e-17
47	0x33c17512	9.008558e-08
48	0xb7c8818d	-2.3902185e-05
49	0xba261b92	-0.0006336506
50	0xb4036ad3	-1.2239188e-07
51	0xbdf4c12b	-0.11950906
52	0xb70ab47e	-8.267465e-06
53	0x35f589f8	1.8294077e-06
54	0x8a70f243	-1.1601144e-32
55	0xba00fde2	-0.0004920644
56	0xa0cca17c	-3.4665806e-19
57	0xb2185378	-8.866543e-09
58	0xb9486b8e	-0.00019113554
59	0x334ddde1	4.793208e-08
60	0xa50e8cea	-1.236428e-16
61	0xb923bf98	-0.00015616266
62	0x3d9160f3	0.0709857
63	0x368188ee	3.8604403e-06

fc2.weight f4 [32, 64]
0	0x295910a0	4.81981e-14
1	0x00008971	4.9305e-41
2	0x800093f4	-5.3076e-41
3	0x0000ad1d	6.2101e-41
4	0x80008940	-4.9236e-41
5	0x800088eb	-4.9117e-41
6	0x00009447	5.3192e-41
7	0x00008926	4.92e-41
8	0x80008931	-4.9215e-41
9	0x000098a8	5.4763e-41
10	0x0000a57a	5.9362e-41
11	0x264f8daa	7.200954e-16
12	0x00009256	5.2495e-41
13	0x0002b79d	2.49539e-40
14	0x80009d07	-5.6331e-41
15	0x000089cf	4.9436e-41
16	0x00008f47	5.1398e-41
17	0x00008a02	4.9508e-41
18	0x000089f6	4.9491e-41
19	0x800089bf	-4.9414e-41
20	0x00008cf5	5.0566e-41
21	0x000476eb	4.10002e-40
22	0x800089c2	-4.9418e-41
23	0x00008a1a	4.9542e-41
24	0x00003ce7	2.1848e-41
25	0x800088d5	-4.9086e-41
26	0x00008a45	4.9602e-41
27	0x00008979	4.9316e-41
28	0x8000bdb2	-6.805e-41
29	0x00008ffe	5.1655e-41
30	0x0000a73a	5.999e-41
31	0x80008a1f	-4.9549e-41
32	0x2b9aca8d	1.0998577e-12
33	0x00008920	4.9191e-41
34	0x80009a3a	-5.5326e-41
35	0x00007250	4.1008e-41
36	0x800073f6	-4.1599e-41
37	0x80008a5d	-4.9635e-41
38	0x000093cc	5.302e-41
39	0x800057fb	-3.1561e-41
40	0x00008997	4.9358e-41
41	0x80018045	-1.3785e-40
42	0x800089d3	-4.9442e-41
43	0x80008b2c	-4.9925e-41
44	0x00008911	4.917e-41
45	0x80014a71	-1.1854e-40
46	0x80008d0d	-5.06e-41
47	0x20895e68	2.3271176e-19
48	0x0000a0c9	5.7679e-41
49	0x000089c4	4.9421e-41
50	0x00008903	4.915e-41
51	0x28c73181	2.2114907e-14
52	0x80008911	-4.917e-41
53	0x240d137f	3.0591015e-17
54	0x00060952	5.54356e-40
55	0x800088d3	-4.9083e-41
56	0x0000cedd	7.4209e-41
57	0x00008af9	4.9854e-41
58	0x800089b5	-4.94e-41
59	0x213dea30	6.4345635e-19
60	0x8000745b	-4.174e-41
61	0x0002cac3	2.56408e-40
62	0xab6d6d3e	-8.435092e-13
63	0x245fe17d	4.8546413e-17
64	0x00008966	4.9289e-41
65	0x000092c1	5.2645e-41
66	0x00009aa2	5.5472e-41
67	0x00008b2d	4.9927e-41
68	0x000089ce	4.9435e-41
69	0x80008913	-4.9173e-41
70	0x80008a3b	-4.9588e-41
71	0x80008945	-4.9243e-41
72	0x80015d27	-1.25252e-40
73	0x000088ef	4.9123e-41
74	0x8000a5a7	-5.9425e-41
75	0x0000a963	6.0765e-41
76	0x000094d9	5.3396e-41
77	0x8004caf9	-4.40155e-40
78	0x80009da9	-5.6558e-41
79	0x0000a9ba	6.0886e-41
80	0x8000ae21	-6.2466e-41
81	0x000091a2	5.2243e-41
82	0x800089e0	-4.946e-41
83	0x0000b2d1	6.4147e-41
84	0x80008b7a	-5.0035e-41
85	0x8002f0cb	-2.70051e-40
86	0x00061ff3	5.62474e-40
87	0x00009d68	5.6467e-41
88	0x800106ad	-9.423e-41
89	0x0000895f	4.928e-41
90	0x80009248	-5.2476e-41
91	0x00008faa	5.1537e-41
92	0x800011d5	-6.397e-42
93	0x00008d34	5.0654e-41
94	0x800047b5	-2.5724e-41
95	0x000088f5	4.9131e-41
96	0x0000b736	6.5724e-41
97	0x800099a4	-5.5116e-41
98	0x0000899e	4.9368e-41
99	0x80008c02	-5.0225e-41
100	0x80016c4e	-1.30688e-40
101	0x0000ac59	6.1827e-41
102	0x800088ca	-4.907e-41
103	0x0002be16	2.51861e-40
104	0x000088d9	4.9092e-41
105	0x00008caa	5.0461e-41
106	0x80008949	-4.9249e-41
107	0x000088e3	4.9106e-41
108	0x800089b9	-4.9406e-41
109	0x0000a33d	5.8559e-41
110	0x8000ad8f	-6.2261e-41
111	0x8000976c	-5.432e-41
112	0x8000989a	-5.4743e-41
113	0x800088b9	-4.9047e-41
114	0x00007e70	4.5357e-41
115	0x000089f8	4.9494e-41
116	0x00009023	5.1707e-41
117	0x00009586	5.3639e-41
118	0x80000c29	-4.362e-42
119	0x8000963b	-5.3893e-41
120	0x000160d2	1.26568e-40
121	0x8001f080	-1.7811e-40
122	0x00009358	5.2857e-41
123	0x000165c3	1.28341e-40
124	0x800088c8	-4.9068e-41
125	0x0002c186	2.53094e-40
126	0x00009e93	5.6886e-41
127	0x800088c8	-4.9068e-41
128	0x9399ed5e	-3.8856692e-27
129	0x000088c3	4.9061e-41
130	0x800089a6	-4.9379e-41
131	0x000096ab	5.405e-41
132	0x0000577f	3.1388e-41
133	0x00008d03	5.0585e-41
134	0x80008a84	-4.969e-41
135	0x80008918	-4.918e-41
136	0x80008aa5	-4.9736e-41
137	0x0002b989	2.50228e-40
138	0x000088ee	4.9121e-41
139	0x0000896f	4.9302e-41
140	0x80008a54	-4.9623e-41
141	0x00008ab8	4.9763e-41
142	0x000088e6	4.911e-41
143	0x000097e5	5.449e-41
144	0x00008899	4.9002e-41
145	0x0001f181	1.78471e-40
146	0x80008d10	-5.0604e-41
147	0xa4f78893	-1.0735054e-16
148	0x00009fbe	5.7305e-41
149	0x00008c02	5.0225e-41
150	0x80008a01	-4.9506e-41
151	0x00061f1c	5.62173e-40
152	0x80008cc0	-5.0492e-41
153	0x0003004d	2.75614e-40
154	0x80008906	-4.9155e-41
155	0x000088bc	4.9051e-41
156	0x0000a119	5.7791e-41
157	0x00008c8a	5.0416e-41
158	0x00008a6d	4.9658e-41
159	0x0000cd1a	7.3577e-41
160	0x800367e2	-3.12773e-40
161	0x8000ad6a	-6.2209e-41
162	0x80008a01	-4.9506e-41
163	0x80046823	-4.04699e-40
164	0x8000891e	-4.9188e-41
165	0x0000891b	4.9184e-41
166	0x80008d23	-5.063e-41
167	0x000082d6	4.6935e-41
168	0x0000929f	5.2598e-41
169	0x00008c42	5.0315e-41
170	0x000088d0	4.9079e-41
171	0x80015889	-1.23596e-40
172	0x8000890c	-4.9163e-41
173	0x80008af5	-4.9848e-41
174	0x00008b66	5.0007e-41
175	0x8000af2d	-6.2841e-41
176	0x800068ad	-3.755e-41
177	0x00009085	5.1844e-41
178	0x80008732	-4.8499e-41
179	0x80008a58	-4.9628e-41
180	0x8001e260	-1.73044e-40
181	0x800089fa	-4.9497e-41
182	0x80016fa5	-1.31886e-40
183	0x80047c1b	-4.11863e-40
184	0x80003917	-2.048e-41
185	0x00008cb2	5.0472e-41
186	0x80008ed0	-5.1231e-41
187	0x80008b86	-5.0052e-41
188	0x80008a2e	-4.957e-41
189	0x00047220	4.08282e-40
190	0x0000ad15	6.209e-41
191	0x0001009b	9.2053e-41
192	0x80008921	-4.9193e-41
193	0x00008a4b	4.961e-41
194	0x0000f5f0	8.8226e-41
195	0x80010917	-9.5096e-41
196	0x00008c81	5.0403e-41
197	0x8000a573	-5.9352e-41
198	0x9ac8ddc4	-8.307634e-23
199	0x000088ba	4.9048e-41
200	0x8000898e	-4.9345e-41
201	0x800088db	-4.9094e-41
202	0x0000b227	6.3909e-41
203	0x00009741	5.426e-41
204	0x8002df4b	-2.63773e-40
205	0x00008a95	4.9714e-41
206	0x00008a20	4.955e-41
207	0x00008941	4.9237e-41
208	0x800025c9	-1.3555e-41
209	0x800088cb	-4.9072e-41
210	0x80009b4a	-5.5707e-41
211	0x00020db2	1.88584e-40
212	0x8000890b	-4.9162e-41
213	0x0000ae61	6.2555e-41
214	0x80008c8d	-5.042e-41
215	0x800089a9	-4.9383e-41
216	0x8004be9a	-4.35717e-40
217	0x000130db	1.09362e-40
218	0x00008bef	5.0199e-41
219	0x00009b34	5.5676e-41
220	0x000609ba	5.54502e-40
221	0x00008cb4	5.0475e-41
222	0x000097ca	5.4452e-41
223	0x00008a14	4.9533e-41
224	0x80009de1	-5.6636e-41
225	0x8000443a	-2.4475e-41
226	0x0004c226	4.3699e-40
227	0x800017c7	-8.53e-42
228	0x8000c4b6	-7.0567e-41
229	0x800091fb	-5.2368e-41
230	0x00018b28	1.41755e-40
231	0x80008adb	-4.9812e-41
232	0x00008aa4	4.9735e-41
233	0x00008946	4.9244e-41
234	0x80008a4d	-4.9613e-41
235	0x000088e5	4.9109e-41
236	0x800089b1	-4.9394e-41
237	0x00008a07	4.9515e-41
238	0x000088d0	4.9079e-41
239	0x00008f11	5.1323e-41
240	0x00008a82	4.9687e-41
241	0x00008f7d	5.1474e-41
242	0x8001ecf6	-1.76841e-40
243	0x000088f9	4.9137e-41
244	0x80032260	-2.87838e-40
245	0x80008d1f	-5.0625e-41
246	0x00008b20	4.9909e-41
247	0x00008cf1	5.056e-41
248	0x000091e9	5.2343e-41
249	0x0000087b	3.042e-42
250	0x000364e7	3.11703e-40
251	0x80006f22	-3.9867e-41
252	0x00008960	4.9281e-41
253	0x00008a38	4.9584e-41
254	0x8001f5b0	-1.79972e-40
255	0x0000890e	4.9166e-41

fc2.bias f4 [32]
0	0xaa70024c	-2.1317079e-13
1	0xad0b3d37	-7.914828e-12
2	0xb1af25b2	-5.097456e-09
3	0xa4d941c9	-9.422019e-17
4	0xbc7d15fc	-0.015447136
5	0xa2089a9e	-1.851329e-18
6	0x88c3750b	-1.1763652e-33
7	0xbd246804	-0.04013826
8	0xb1ab3bfb	-4.983574e-09
9	0x91db16e5	-3.4566217e-28
10	0xbb45271b	-0.0030083123
11	0x9f6a2b8d	-4.9587452e-20
12	0xb60b873c	-2.079133e-06
13	0x8c0b4731	-1.0729594e-31
14	0xbc55edd6	-0.013057193
15	0xaea7eadf	-7.636002e-11
16	0x3cae1d63	0.021254247
17	0x9b6b9c06	-1.9489158e-22
18	0xa16942cd	-7.903188e-19
19	0xa1fd775a	-1.7175539e-18
20	0xa4c85b3f	-8.689075e-17
21	0xbace4319	-0.0015736549
22	0x9a2d79b5	-3.5873876e-23
23	0xadc16d2f	-2.1990047e-11
24	0x9f2c030c	-3.6424937e-20
25	0xafaa0971	-3.0929528e-10
26	0xaf3cb373	-1.7162254e-10
27	0xa31ac4fc	-8.39007e-18
28	0xaea7ae57	-7.62525e-11
29	0xb92e024e	-0.00016594792
30	0xac75fa9a	-3.4955706e-12
31	0x959e5825	-6.395476e-26

fc3.weight f4 [1, 32]
0	0xab961edb	-1.0666705e-12
1	0xb02133bb	-5.864497e-10
2	0xb69b4202	-4.6270443e-06
3	0x0000a54f	5.9302e-41
4	0x3beea30b	0.00728262
5	0x2442555f	4.2139356e-17
6	0x1e9d23eb	1.6637877e-20
7	0x3de4aec8	0.111661494
8	0x30a7c84c	1.2207777e-09
9	0xa543bbb4	-1.697715e-16
10	0x3b1786a6	0.0023121028
11	0xab89c0d3	-9.787955e-13
12	0x373264f8	1.0633135e-05
13	0x12607ed7	7.083828e-28
14	0xbc6e3466	-0.01453886
15	0xb6b15195	-5.2845085e-06
16	0x3c1f822e	0.009735627
17	0x279364cc	4.090998e-15
18	0xa4584065	-4.6892078e-17
19	0x210e13fe	4.813793e-19
20	0x2c0f3526	2.0351026e-12
21	0x3b4de2e0	0.0031415746
22	0x1721c989	5.227628e-25
23	0x3273ea4b	1.4197734e-08
24	0xa288da09	-3.7093728e-18
25	0xb2cf50d2	-2.4134724e-08
26	0xb074816e	-8.8950614e-10
27	0xa1a51117	-1.1185359e-18
28	0xb2756d43	-1.428572e-08
29	0x3ac980d8	0.0015373481
30	0x30edcacf	1.7301661e-09
31	0xa45d6fdc	-4.8016485e-17
